#[version = "0.0.5"]
def @main(%input_1: Tensor[(1, 640), int8] /* ty=Tensor[(1, 640), int8] span=input_1:0:0 */, output_tensor_names=["Identity"]) -> Tensor[(1, 640), int8] {
  %0 = reshape(%input_1, newshape=[-1, 640]) /* ty=Tensor[(1, 640), int8] span=functional_1/activation/Relu;functional_1/dense/BiasAdd:0:0 */;
  %1 = @tvmgen_default_cmsis_nn_main_0(%0, meta[relay.Constant][0] /* ty=Tensor[(128, 640), int8] */, meta[relay.Constant][1] /* ty=Tensor[(128), int32] */) /* ty=Tensor[(1, 128), int8] */;
  %2 = reshape(%1, newshape=[-1, 128]) /* ty=Tensor[(1, 128), int8] span=functional_1/activation_1/Relu;functional_1/dense_1/BiasAdd:0:0 */;
  %3 = @tvmgen_default_cmsis_nn_main_1(%2, meta[relay.Constant][2] /* ty=Tensor[(128, 128), int8] */, meta[relay.Constant][3] /* ty=Tensor[(128), int32] */) /* ty=Tensor[(1, 128), int8] */;
  %4 = reshape(%3, newshape=[-1, 128]) /* ty=Tensor[(1, 128), int8] span=functional_1/activation_2/Relu;functional_1/dense_2/BiasAdd:0:0 */;
  %5 = @tvmgen_default_cmsis_nn_main_2(%4, meta[relay.Constant][4] /* ty=Tensor[(128, 128), int8] */, meta[relay.Constant][5] /* ty=Tensor[(128), int32] */) /* ty=Tensor[(1, 128), int8] */;
  %6 = reshape(%5, newshape=[-1, 128]) /* ty=Tensor[(1, 128), int8] span=functional_1/activation_3/Relu;functional_1/dense_3/BiasAdd:0:0 */;
  %7 = @tvmgen_default_cmsis_nn_main_3(%6, meta[relay.Constant][6] /* ty=Tensor[(128, 128), int8] */, meta[relay.Constant][7] /* ty=Tensor[(128), int32] */) /* ty=Tensor[(1, 128), int8] */;
  %8 = reshape(%7, newshape=[-1, 128]) /* ty=Tensor[(1, 128), int8] span=functional_1/activation_4/Relu;functional_1/dense_4/BiasAdd:0:0 */;
  %9 = @tvmgen_default_cmsis_nn_main_4(%8, meta[relay.Constant][8] /* ty=Tensor[(8, 128), int8] */, meta[relay.Constant][9] /* ty=Tensor[(8), int32] */) /* ty=Tensor[(1, 8), int8] */;
  %10 = reshape(%9, newshape=[-1, 8]) /* ty=Tensor[(1, 8), int8] span=functional_1/activation_5/Relu;functional_1/dense_5/BiasAdd:0:0 */;
  %11 = @tvmgen_default_cmsis_nn_main_5(%10, meta[relay.Constant][10] /* ty=Tensor[(128, 8), int8] */, meta[relay.Constant][11] /* ty=Tensor[(128), int32] */) /* ty=Tensor[(1, 128), int8] */;
  %12 = reshape(%11, newshape=[-1, 128]) /* ty=Tensor[(1, 128), int8] span=functional_1/activation_6/Relu;functional_1/dense_6/BiasAdd:0:0 */;
  %13 = @tvmgen_default_cmsis_nn_main_6(%12, meta[relay.Constant][12] /* ty=Tensor[(128, 128), int8] */, meta[relay.Constant][13] /* ty=Tensor[(128), int32] */) /* ty=Tensor[(1, 128), int8] */;
  %14 = reshape(%13, newshape=[-1, 128]) /* ty=Tensor[(1, 128), int8] span=functional_1/activation_7/Relu;functional_1/dense_7/BiasAdd:0:0 */;
  %15 = @tvmgen_default_cmsis_nn_main_7(%14, meta[relay.Constant][14] /* ty=Tensor[(128, 128), int8] */, meta[relay.Constant][15] /* ty=Tensor[(128), int32] */) /* ty=Tensor[(1, 128), int8] */;
  %16 = reshape(%15, newshape=[-1, 128]) /* ty=Tensor[(1, 128), int8] span=functional_1/activation_8/Relu;functional_1/dense_8/BiasAdd:0:0 */;
  %17 = @tvmgen_default_cmsis_nn_main_8(%16, meta[relay.Constant][16] /* ty=Tensor[(128, 128), int8] */, meta[relay.Constant][17] /* ty=Tensor[(128), int32] */) /* ty=Tensor[(1, 128), int8] */;
  %18 = reshape(%17, newshape=[-1, 128]) /* ty=Tensor[(1, 128), int8] span=Identity:0:0 */;
  @tvmgen_default_cmsis_nn_main_9(%18, meta[relay.Constant][18] /* ty=Tensor[(640, 128), int8] */, meta[relay.Constant][19] /* ty=Tensor[(640), int32] */) /* ty=Tensor[(1, 640), int8] */
}

def @tvmgen_default_cmsis_nn_main_0(%cmsis-nn_0_i0: Tensor[(1, 640), int8] /* ty=Tensor[(1, 640), int8] */, %tvm_var_extract_const_2: Tensor[(128, 640), int8] /* ty=Tensor[(128, 640), int8] */, %tvm_var_extract_const_3: Tensor[(128), int32] /* ty=Tensor[(128), int32] */, Compiler="cmsis-nn", Primitive=1, Inline=1, global_symbol="tvmgen_default_cmsis_nn_main_0") -> Tensor[(1, 128), int8] {
  %22 = fn (%FunctionVar_9_0: Tensor[(1, 640), int8] /* ty=Tensor[(1, 640), int8] */, %tvm_var_extract_const_0: Tensor[(128, 640), int8] /* ty=Tensor[(128, 640), int8] */, %tvm_var_extract_const_1: Tensor[(128), int32] /* ty=Tensor[(128), int32] */, PartitionedFromPattern="qnn.dense_nn.bias_add_qnn.requantize_clip_", Composite="cmsis-nn.qnn_fully_connected") -> Tensor[(1, 128), int8] {
    %19 = qnn.dense(%FunctionVar_9_0, %tvm_var_extract_const_0, 89 /* ty=int32 span=functional_1/activation/Relu;functional_1/dense/BiasAdd:0:0 */, 0 /* ty=int32 span=functional_1/activation/Relu;functional_1/dense/BiasAdd:0:0 */, 0.391015f /* ty=float32 span=functional_1/activation/Relu;functional_1/dense/BiasAdd:0:0 */, 0.000376875f /* ty=float32 span=functional_1/activation/Relu;functional_1/dense/BiasAdd:0:0 */, units=128, out_dtype="int32") /* ty=Tensor[(1, 128), int32] span=functional_1/activation/Relu;functional_1/dense/BiasAdd:0:0 */;
    %20 = nn.bias_add(%19, %tvm_var_extract_const_1) /* ty=Tensor[(1, 128), int32] span=functional_1/activation/Relu;functional_1/dense/BiasAdd:0:0 */;
    %21 = qnn.requantize(%20, 0.000147364f /* ty=float32 span=functional_1/activation/Relu;functional_1/dense/BiasAdd:0:0 */, 0 /* ty=int32 span=functional_1/activation/Relu;functional_1/dense/BiasAdd:0:0 */, 0.0494591f /* ty=float32 span=functional_1/activation/Relu;functional_1/dense/BiasAdd:0:0 */, -128 /* ty=int32 span=functional_1/activation/Relu;functional_1/dense/BiasAdd:0:0 */, out_dtype="int8") /* ty=Tensor[(1, 128), int8] span=functional_1/activation/Relu;functional_1/dense/BiasAdd:0:0 */;
    clip(%21, a_min=-128f, a_max=127f) /* ty=Tensor[(1, 128), int8] span=functional_1/activation/Relu;functional_1/dense/BiasAdd:0:0 */
  } /* ty=fn (Tensor[(1, 640), int8], Tensor[(128, 640), int8], Tensor[(128), int32]) -> Tensor[(1, 128), int8] */;
  %22(%cmsis-nn_0_i0, %tvm_var_extract_const_2, %tvm_var_extract_const_3) /* ty=Tensor[(1, 128), int8] */
}

def @tvmgen_default_cmsis_nn_main_1(%cmsis-nn_1_i0: Tensor[(1, 128), int8] /* ty=Tensor[(1, 128), int8] */, %tvm_var_extract_const_8: Tensor[(128, 128), int8] /* ty=Tensor[(128, 128), int8] */, %tvm_var_extract_const_9: Tensor[(128), int32] /* ty=Tensor[(128), int32] */, Compiler="cmsis-nn", Primitive=1, Inline=1, global_symbol="tvmgen_default_cmsis_nn_main_1") -> Tensor[(1, 128), int8] {
  %26 = fn (%FunctionVar_8_0: Tensor[(1, 128), int8] /* ty=Tensor[(1, 128), int8] */, %tvm_var_extract_const_6: Tensor[(128, 128), int8] /* ty=Tensor[(128, 128), int8] */, %tvm_var_extract_const_7: Tensor[(128), int32] /* ty=Tensor[(128), int32] */, PartitionedFromPattern="qnn.dense_nn.bias_add_qnn.requantize_clip_", Composite="cmsis-nn.qnn_fully_connected") -> Tensor[(1, 128), int8] {
    %23 = qnn.dense(%FunctionVar_8_0, %tvm_var_extract_const_6, -128 /* ty=int32 span=functional_1/activation_1/Relu;functional_1/dense_1/BiasAdd:0:0 */, 0 /* ty=int32 span=functional_1/activation_1/Relu;functional_1/dense_1/BiasAdd:0:0 */, 0.0494591f /* ty=float32 span=functional_1/activation_1/Relu;functional_1/dense_1/BiasAdd:0:0 */, 0.0150283f /* ty=float32 span=functional_1/activation_1/Relu;functional_1/dense_1/BiasAdd:0:0 */, units=128, out_dtype="int32") /* ty=Tensor[(1, 128), int32] span=functional_1/activation_1/Relu;functional_1/dense_1/BiasAdd:0:0 */;
    %24 = nn.bias_add(%23, %tvm_var_extract_const_7) /* ty=Tensor[(1, 128), int32] span=functional_1/activation_1/Relu;functional_1/dense_1/BiasAdd:0:0 */;
    %25 = qnn.requantize(%24, 0.000743288f /* ty=float32 span=functional_1/activation_1/Relu;functional_1/dense_1/BiasAdd:0:0 */, 0 /* ty=int32 span=functional_1/activation_1/Relu;functional_1/dense_1/BiasAdd:0:0 */, 0.0354057f /* ty=float32 span=functional_1/activation_1/Relu;functional_1/dense_1/BiasAdd:0:0 */, -128 /* ty=int32 span=functional_1/activation_1/Relu;functional_1/dense_1/BiasAdd:0:0 */, out_dtype="int8") /* ty=Tensor[(1, 128), int8] span=functional_1/activation_1/Relu;functional_1/dense_1/BiasAdd:0:0 */;
    clip(%25, a_min=-128f, a_max=127f) /* ty=Tensor[(1, 128), int8] span=functional_1/activation_1/Relu;functional_1/dense_1/BiasAdd:0:0 */
  } /* ty=fn (Tensor[(1, 128), int8], Tensor[(128, 128), int8], Tensor[(128), int32]) -> Tensor[(1, 128), int8] */;
  %26(%cmsis-nn_1_i0, %tvm_var_extract_const_8, %tvm_var_extract_const_9) /* ty=Tensor[(1, 128), int8] */
}

def @tvmgen_default_cmsis_nn_main_2(%cmsis-nn_2_i0: Tensor[(1, 128), int8] /* ty=Tensor[(1, 128), int8] */, %tvm_var_extract_const_14: Tensor[(128, 128), int8] /* ty=Tensor[(128, 128), int8] */, %tvm_var_extract_const_15: Tensor[(128), int32] /* ty=Tensor[(128), int32] */, Compiler="cmsis-nn", Primitive=1, Inline=1, global_symbol="tvmgen_default_cmsis_nn_main_2") -> Tensor[(1, 128), int8] {
  %30 = fn (%FunctionVar_7_0: Tensor[(1, 128), int8] /* ty=Tensor[(1, 128), int8] */, %tvm_var_extract_const_12: Tensor[(128, 128), int8] /* ty=Tensor[(128, 128), int8] */, %tvm_var_extract_const_13: Tensor[(128), int32] /* ty=Tensor[(128), int32] */, PartitionedFromPattern="qnn.dense_nn.bias_add_qnn.requantize_clip_", Composite="cmsis-nn.qnn_fully_connected") -> Tensor[(1, 128), int8] {
    %27 = qnn.dense(%FunctionVar_7_0, %tvm_var_extract_const_12, -128 /* ty=int32 span=functional_1/activation_2/Relu;functional_1/dense_2/BiasAdd:0:0 */, 0 /* ty=int32 span=functional_1/activation_2/Relu;functional_1/dense_2/BiasAdd:0:0 */, 0.0354057f /* ty=float32 span=functional_1/activation_2/Relu;functional_1/dense_2/BiasAdd:0:0 */, 0.0535004f /* ty=float32 span=functional_1/activation_2/Relu;functional_1/dense_2/BiasAdd:0:0 */, units=128, out_dtype="int32") /* ty=Tensor[(1, 128), int32] span=functional_1/activation_2/Relu;functional_1/dense_2/BiasAdd:0:0 */;
    %28 = nn.bias_add(%27, %tvm_var_extract_const_13) /* ty=Tensor[(1, 128), int32] span=functional_1/activation_2/Relu;functional_1/dense_2/BiasAdd:0:0 */;
    %29 = qnn.requantize(%28, 0.00189422f /* ty=float32 span=functional_1/activation_2/Relu;functional_1/dense_2/BiasAdd:0:0 */, 0 /* ty=int32 span=functional_1/activation_2/Relu;functional_1/dense_2/BiasAdd:0:0 */, 0.0137307f /* ty=float32 span=functional_1/activation_2/Relu;functional_1/dense_2/BiasAdd:0:0 */, -128 /* ty=int32 span=functional_1/activation_2/Relu;functional_1/dense_2/BiasAdd:0:0 */, out_dtype="int8") /* ty=Tensor[(1, 128), int8] span=functional_1/activation_2/Relu;functional_1/dense_2/BiasAdd:0:0 */;
    clip(%29, a_min=-128f, a_max=127f) /* ty=Tensor[(1, 128), int8] span=functional_1/activation_2/Relu;functional_1/dense_2/BiasAdd:0:0 */
  } /* ty=fn (Tensor[(1, 128), int8], Tensor[(128, 128), int8], Tensor[(128), int32]) -> Tensor[(1, 128), int8] */;
  %30(%cmsis-nn_2_i0, %tvm_var_extract_const_14, %tvm_var_extract_const_15) /* ty=Tensor[(1, 128), int8] */
}

def @tvmgen_default_cmsis_nn_main_3(%cmsis-nn_3_i0: Tensor[(1, 128), int8] /* ty=Tensor[(1, 128), int8] */, %tvm_var_extract_const_20: Tensor[(128, 128), int8] /* ty=Tensor[(128, 128), int8] */, %tvm_var_extract_const_21: Tensor[(128), int32] /* ty=Tensor[(128), int32] */, Compiler="cmsis-nn", Primitive=1, Inline=1, global_symbol="tvmgen_default_cmsis_nn_main_3") -> Tensor[(1, 128), int8] {
  %34 = fn (%FunctionVar_6_0: Tensor[(1, 128), int8] /* ty=Tensor[(1, 128), int8] */, %tvm_var_extract_const_18: Tensor[(128, 128), int8] /* ty=Tensor[(128, 128), int8] */, %tvm_var_extract_const_19: Tensor[(128), int32] /* ty=Tensor[(128), int32] */, PartitionedFromPattern="qnn.dense_nn.bias_add_qnn.requantize_clip_", Composite="cmsis-nn.qnn_fully_connected") -> Tensor[(1, 128), int8] {
    %31 = qnn.dense(%FunctionVar_6_0, %tvm_var_extract_const_18, -128 /* ty=int32 span=functional_1/activation_3/Relu;functional_1/dense_3/BiasAdd:0:0 */, 0 /* ty=int32 span=functional_1/activation_3/Relu;functional_1/dense_3/BiasAdd:0:0 */, 0.0137307f /* ty=float32 span=functional_1/activation_3/Relu;functional_1/dense_3/BiasAdd:0:0 */, 0.0720354f /* ty=float32 span=functional_1/activation_3/Relu;functional_1/dense_3/BiasAdd:0:0 */, units=128, out_dtype="int32") /* ty=Tensor[(1, 128), int32] span=functional_1/activation_3/Relu;functional_1/dense_3/BiasAdd:0:0 */;
    %32 = nn.bias_add(%31, %tvm_var_extract_const_19) /* ty=Tensor[(1, 128), int32] span=functional_1/activation_3/Relu;functional_1/dense_3/BiasAdd:0:0 */;
    %33 = qnn.requantize(%32, 0.0009891f /* ty=float32 span=functional_1/activation_3/Relu;functional_1/dense_3/BiasAdd:0:0 */, 0 /* ty=int32 span=functional_1/activation_3/Relu;functional_1/dense_3/BiasAdd:0:0 */, 0.0236038f /* ty=float32 span=functional_1/activation_3/Relu;functional_1/dense_3/BiasAdd:0:0 */, -128 /* ty=int32 span=functional_1/activation_3/Relu;functional_1/dense_3/BiasAdd:0:0 */, out_dtype="int8") /* ty=Tensor[(1, 128), int8] span=functional_1/activation_3/Relu;functional_1/dense_3/BiasAdd:0:0 */;
    clip(%33, a_min=-128f, a_max=127f) /* ty=Tensor[(1, 128), int8] span=functional_1/activation_3/Relu;functional_1/dense_3/BiasAdd:0:0 */
  } /* ty=fn (Tensor[(1, 128), int8], Tensor[(128, 128), int8], Tensor[(128), int32]) -> Tensor[(1, 128), int8] */;
  %34(%cmsis-nn_3_i0, %tvm_var_extract_const_20, %tvm_var_extract_const_21) /* ty=Tensor[(1, 128), int8] */
}

def @tvmgen_default_cmsis_nn_main_4(%cmsis-nn_4_i0: Tensor[(1, 128), int8] /* ty=Tensor[(1, 128), int8] */, %tvm_var_extract_const_26: Tensor[(8, 128), int8] /* ty=Tensor[(8, 128), int8] */, %tvm_var_extract_const_27: Tensor[(8), int32] /* ty=Tensor[(8), int32] */, Compiler="cmsis-nn", Primitive=1, Inline=1, global_symbol="tvmgen_default_cmsis_nn_main_4") -> Tensor[(1, 8), int8] {
  %38 = fn (%FunctionVar_5_0: Tensor[(1, 128), int8] /* ty=Tensor[(1, 128), int8] */, %tvm_var_extract_const_24: Tensor[(8, 128), int8] /* ty=Tensor[(8, 128), int8] */, %tvm_var_extract_const_25: Tensor[(8), int32] /* ty=Tensor[(8), int32] */, PartitionedFromPattern="qnn.dense_nn.bias_add_qnn.requantize_clip_", Composite="cmsis-nn.qnn_fully_connected") -> Tensor[(1, 8), int8] {
    %35 = qnn.dense(%FunctionVar_5_0, %tvm_var_extract_const_24, -128 /* ty=int32 span=functional_1/activation_4/Relu;functional_1/dense_4/BiasAdd:0:0 */, 0 /* ty=int32 span=functional_1/activation_4/Relu;functional_1/dense_4/BiasAdd:0:0 */, 0.0236038f /* ty=float32 span=functional_1/activation_4/Relu;functional_1/dense_4/BiasAdd:0:0 */, 0.00834463f /* ty=float32 span=functional_1/activation_4/Relu;functional_1/dense_4/BiasAdd:0:0 */, units=8, out_dtype="int32") /* ty=Tensor[(1, 8), int32] span=functional_1/activation_4/Relu;functional_1/dense_4/BiasAdd:0:0 */;
    %36 = nn.bias_add(%35, %tvm_var_extract_const_25) /* ty=Tensor[(1, 8), int32] span=functional_1/activation_4/Relu;functional_1/dense_4/BiasAdd:0:0 */;
    %37 = qnn.requantize(%36, 0.000196965f /* ty=float32 span=functional_1/activation_4/Relu;functional_1/dense_4/BiasAdd:0:0 */, 0 /* ty=int32 span=functional_1/activation_4/Relu;functional_1/dense_4/BiasAdd:0:0 */, 0.0249295f /* ty=float32 span=functional_1/activation_4/Relu;functional_1/dense_4/BiasAdd:0:0 */, -128 /* ty=int32 span=functional_1/activation_4/Relu;functional_1/dense_4/BiasAdd:0:0 */, out_dtype="int8") /* ty=Tensor[(1, 8), int8] span=functional_1/activation_4/Relu;functional_1/dense_4/BiasAdd:0:0 */;
    clip(%37, a_min=-128f, a_max=127f) /* ty=Tensor[(1, 8), int8] span=functional_1/activation_4/Relu;functional_1/dense_4/BiasAdd:0:0 */
  } /* ty=fn (Tensor[(1, 128), int8], Tensor[(8, 128), int8], Tensor[(8), int32]) -> Tensor[(1, 8), int8] */;
  %38(%cmsis-nn_4_i0, %tvm_var_extract_const_26, %tvm_var_extract_const_27) /* ty=Tensor[(1, 8), int8] */
}

def @tvmgen_default_cmsis_nn_main_5(%cmsis-nn_5_i0: Tensor[(1, 8), int8] /* ty=Tensor[(1, 8), int8] */, %tvm_var_extract_const_32: Tensor[(128, 8), int8] /* ty=Tensor[(128, 8), int8] */, %tvm_var_extract_const_33: Tensor[(128), int32] /* ty=Tensor[(128), int32] */, Compiler="cmsis-nn", Primitive=1, Inline=1, global_symbol="tvmgen_default_cmsis_nn_main_5") -> Tensor[(1, 128), int8] {
  %42 = fn (%FunctionVar_4_0: Tensor[(1, 8), int8] /* ty=Tensor[(1, 8), int8] */, %tvm_var_extract_const_30: Tensor[(128, 8), int8] /* ty=Tensor[(128, 8), int8] */, %tvm_var_extract_const_31: Tensor[(128), int32] /* ty=Tensor[(128), int32] */, PartitionedFromPattern="qnn.dense_nn.bias_add_qnn.requantize_clip_", Composite="cmsis-nn.qnn_fully_connected") -> Tensor[(1, 128), int8] {
    %39 = qnn.dense(%FunctionVar_4_0, %tvm_var_extract_const_30, -128 /* ty=int32 span=functional_1/activation_5/Relu;functional_1/dense_5/BiasAdd:0:0 */, 0 /* ty=int32 span=functional_1/activation_5/Relu;functional_1/dense_5/BiasAdd:0:0 */, 0.0249295f /* ty=float32 span=functional_1/activation_5/Relu;functional_1/dense_5/BiasAdd:0:0 */, 0.0267345f /* ty=float32 span=functional_1/activation_5/Relu;functional_1/dense_5/BiasAdd:0:0 */, units=128, out_dtype="int32") /* ty=Tensor[(1, 128), int32] span=functional_1/activation_5/Relu;functional_1/dense_5/BiasAdd:0:0 */;
    %40 = nn.bias_add(%39, %tvm_var_extract_const_31) /* ty=Tensor[(1, 128), int32] span=functional_1/activation_5/Relu;functional_1/dense_5/BiasAdd:0:0 */;
    %41 = qnn.requantize(%40, 0.000666477f /* ty=float32 span=functional_1/activation_5/Relu;functional_1/dense_5/BiasAdd:0:0 */, 0 /* ty=int32 span=functional_1/activation_5/Relu;functional_1/dense_5/BiasAdd:0:0 */, 0.0317562f /* ty=float32 span=functional_1/activation_5/Relu;functional_1/dense_5/BiasAdd:0:0 */, -128 /* ty=int32 span=functional_1/activation_5/Relu;functional_1/dense_5/BiasAdd:0:0 */, out_dtype="int8") /* ty=Tensor[(1, 128), int8] span=functional_1/activation_5/Relu;functional_1/dense_5/BiasAdd:0:0 */;
    clip(%41, a_min=-128f, a_max=127f) /* ty=Tensor[(1, 128), int8] span=functional_1/activation_5/Relu;functional_1/dense_5/BiasAdd:0:0 */
  } /* ty=fn (Tensor[(1, 8), int8], Tensor[(128, 8), int8], Tensor[(128), int32]) -> Tensor[(1, 128), int8] */;
  %42(%cmsis-nn_5_i0, %tvm_var_extract_const_32, %tvm_var_extract_const_33) /* ty=Tensor[(1, 128), int8] */
}

def @tvmgen_default_cmsis_nn_main_6(%cmsis-nn_6_i0: Tensor[(1, 128), int8] /* ty=Tensor[(1, 128), int8] */, %tvm_var_extract_const_38: Tensor[(128, 128), int8] /* ty=Tensor[(128, 128), int8] */, %tvm_var_extract_const_39: Tensor[(128), int32] /* ty=Tensor[(128), int32] */, Compiler="cmsis-nn", Primitive=1, Inline=1, global_symbol="tvmgen_default_cmsis_nn_main_6") -> Tensor[(1, 128), int8] {
  %46 = fn (%FunctionVar_3_0: Tensor[(1, 128), int8] /* ty=Tensor[(1, 128), int8] */, %tvm_var_extract_const_36: Tensor[(128, 128), int8] /* ty=Tensor[(128, 128), int8] */, %tvm_var_extract_const_37: Tensor[(128), int32] /* ty=Tensor[(128), int32] */, PartitionedFromPattern="qnn.dense_nn.bias_add_qnn.requantize_clip_", Composite="cmsis-nn.qnn_fully_connected") -> Tensor[(1, 128), int8] {
    %43 = qnn.dense(%FunctionVar_3_0, %tvm_var_extract_const_36, -128 /* ty=int32 span=functional_1/activation_6/Relu;functional_1/dense_6/BiasAdd:0:0 */, 0 /* ty=int32 span=functional_1/activation_6/Relu;functional_1/dense_6/BiasAdd:0:0 */, 0.0317562f /* ty=float32 span=functional_1/activation_6/Relu;functional_1/dense_6/BiasAdd:0:0 */, 0.0193354f /* ty=float32 span=functional_1/activation_6/Relu;functional_1/dense_6/BiasAdd:0:0 */, units=128, out_dtype="int32") /* ty=Tensor[(1, 128), int32] span=functional_1/activation_6/Relu;functional_1/dense_6/BiasAdd:0:0 */;
    %44 = nn.bias_add(%43, %tvm_var_extract_const_37) /* ty=Tensor[(1, 128), int32] span=functional_1/activation_6/Relu;functional_1/dense_6/BiasAdd:0:0 */;
    %45 = qnn.requantize(%44, 0.000614019f /* ty=float32 span=functional_1/activation_6/Relu;functional_1/dense_6/BiasAdd:0:0 */, 0 /* ty=int32 span=functional_1/activation_6/Relu;functional_1/dense_6/BiasAdd:0:0 */, 0.0320712f /* ty=float32 span=functional_1/activation_6/Relu;functional_1/dense_6/BiasAdd:0:0 */, -128 /* ty=int32 span=functional_1/activation_6/Relu;functional_1/dense_6/BiasAdd:0:0 */, out_dtype="int8") /* ty=Tensor[(1, 128), int8] span=functional_1/activation_6/Relu;functional_1/dense_6/BiasAdd:0:0 */;
    clip(%45, a_min=-128f, a_max=127f) /* ty=Tensor[(1, 128), int8] span=functional_1/activation_6/Relu;functional_1/dense_6/BiasAdd:0:0 */
  } /* ty=fn (Tensor[(1, 128), int8], Tensor[(128, 128), int8], Tensor[(128), int32]) -> Tensor[(1, 128), int8] */;
  %46(%cmsis-nn_6_i0, %tvm_var_extract_const_38, %tvm_var_extract_const_39) /* ty=Tensor[(1, 128), int8] */
}

def @tvmgen_default_cmsis_nn_main_7(%cmsis-nn_7_i0: Tensor[(1, 128), int8] /* ty=Tensor[(1, 128), int8] */, %tvm_var_extract_const_44: Tensor[(128, 128), int8] /* ty=Tensor[(128, 128), int8] */, %tvm_var_extract_const_45: Tensor[(128), int32] /* ty=Tensor[(128), int32] */, Compiler="cmsis-nn", Primitive=1, Inline=1, global_symbol="tvmgen_default_cmsis_nn_main_7") -> Tensor[(1, 128), int8] {
  %50 = fn (%FunctionVar_2_0: Tensor[(1, 128), int8] /* ty=Tensor[(1, 128), int8] */, %tvm_var_extract_const_42: Tensor[(128, 128), int8] /* ty=Tensor[(128, 128), int8] */, %tvm_var_extract_const_43: Tensor[(128), int32] /* ty=Tensor[(128), int32] */, PartitionedFromPattern="qnn.dense_nn.bias_add_qnn.requantize_clip_", Composite="cmsis-nn.qnn_fully_connected") -> Tensor[(1, 128), int8] {
    %47 = qnn.dense(%FunctionVar_2_0, %tvm_var_extract_const_42, -128 /* ty=int32 span=functional_1/activation_7/Relu;functional_1/dense_7/BiasAdd:0:0 */, 0 /* ty=int32 span=functional_1/activation_7/Relu;functional_1/dense_7/BiasAdd:0:0 */, 0.0320712f /* ty=float32 span=functional_1/activation_7/Relu;functional_1/dense_7/BiasAdd:0:0 */, 0.0128027f /* ty=float32 span=functional_1/activation_7/Relu;functional_1/dense_7/BiasAdd:0:0 */, units=128, out_dtype="int32") /* ty=Tensor[(1, 128), int32] span=functional_1/activation_7/Relu;functional_1/dense_7/BiasAdd:0:0 */;
    %48 = nn.bias_add(%47, %tvm_var_extract_const_43) /* ty=Tensor[(1, 128), int32] span=functional_1/activation_7/Relu;functional_1/dense_7/BiasAdd:0:0 */;
    %49 = qnn.requantize(%48, 0.000410599f /* ty=float32 span=functional_1/activation_7/Relu;functional_1/dense_7/BiasAdd:0:0 */, 0 /* ty=int32 span=functional_1/activation_7/Relu;functional_1/dense_7/BiasAdd:0:0 */, 0.028296f /* ty=float32 span=functional_1/activation_7/Relu;functional_1/dense_7/BiasAdd:0:0 */, -128 /* ty=int32 span=functional_1/activation_7/Relu;functional_1/dense_7/BiasAdd:0:0 */, out_dtype="int8") /* ty=Tensor[(1, 128), int8] span=functional_1/activation_7/Relu;functional_1/dense_7/BiasAdd:0:0 */;
    clip(%49, a_min=-128f, a_max=127f) /* ty=Tensor[(1, 128), int8] span=functional_1/activation_7/Relu;functional_1/dense_7/BiasAdd:0:0 */
  } /* ty=fn (Tensor[(1, 128), int8], Tensor[(128, 128), int8], Tensor[(128), int32]) -> Tensor[(1, 128), int8] */;
  %50(%cmsis-nn_7_i0, %tvm_var_extract_const_44, %tvm_var_extract_const_45) /* ty=Tensor[(1, 128), int8] */
}

def @tvmgen_default_cmsis_nn_main_8(%cmsis-nn_8_i0: Tensor[(1, 128), int8] /* ty=Tensor[(1, 128), int8] */, %tvm_var_extract_const_50: Tensor[(128, 128), int8] /* ty=Tensor[(128, 128), int8] */, %tvm_var_extract_const_51: Tensor[(128), int32] /* ty=Tensor[(128), int32] */, Compiler="cmsis-nn", Primitive=1, Inline=1, global_symbol="tvmgen_default_cmsis_nn_main_8") -> Tensor[(1, 128), int8] {
  %54 = fn (%FunctionVar_1_0: Tensor[(1, 128), int8] /* ty=Tensor[(1, 128), int8] */, %tvm_var_extract_const_48: Tensor[(128, 128), int8] /* ty=Tensor[(128, 128), int8] */, %tvm_var_extract_const_49: Tensor[(128), int32] /* ty=Tensor[(128), int32] */, PartitionedFromPattern="qnn.dense_nn.bias_add_qnn.requantize_clip_", Composite="cmsis-nn.qnn_fully_connected") -> Tensor[(1, 128), int8] {
    %51 = qnn.dense(%FunctionVar_1_0, %tvm_var_extract_const_48, -128 /* ty=int32 span=functional_1/activation_8/Relu;functional_1/dense_8/BiasAdd:0:0 */, 0 /* ty=int32 span=functional_1/activation_8/Relu;functional_1/dense_8/BiasAdd:0:0 */, 0.028296f /* ty=float32 span=functional_1/activation_8/Relu;functional_1/dense_8/BiasAdd:0:0 */, 0.00704988f /* ty=float32 span=functional_1/activation_8/Relu;functional_1/dense_8/BiasAdd:0:0 */, units=128, out_dtype="int32") /* ty=Tensor[(1, 128), int32] span=functional_1/activation_8/Relu;functional_1/dense_8/BiasAdd:0:0 */;
    %52 = nn.bias_add(%51, %tvm_var_extract_const_49) /* ty=Tensor[(1, 128), int32] span=functional_1/activation_8/Relu;functional_1/dense_8/BiasAdd:0:0 */;
    %53 = qnn.requantize(%52, 0.000199483f /* ty=float32 span=functional_1/activation_8/Relu;functional_1/dense_8/BiasAdd:0:0 */, 0 /* ty=int32 span=functional_1/activation_8/Relu;functional_1/dense_8/BiasAdd:0:0 */, 0.0247909f /* ty=float32 span=functional_1/activation_8/Relu;functional_1/dense_8/BiasAdd:0:0 */, -128 /* ty=int32 span=functional_1/activation_8/Relu;functional_1/dense_8/BiasAdd:0:0 */, out_dtype="int8") /* ty=Tensor[(1, 128), int8] span=functional_1/activation_8/Relu;functional_1/dense_8/BiasAdd:0:0 */;
    clip(%53, a_min=-128f, a_max=127f) /* ty=Tensor[(1, 128), int8] span=functional_1/activation_8/Relu;functional_1/dense_8/BiasAdd:0:0 */
  } /* ty=fn (Tensor[(1, 128), int8], Tensor[(128, 128), int8], Tensor[(128), int32]) -> Tensor[(1, 128), int8] */;
  %54(%cmsis-nn_8_i0, %tvm_var_extract_const_50, %tvm_var_extract_const_51) /* ty=Tensor[(1, 128), int8] */
}

def @tvmgen_default_cmsis_nn_main_9(%cmsis-nn_9_i0: Tensor[(1, 128), int8] /* ty=Tensor[(1, 128), int8] */, %tvm_var_extract_const_56: Tensor[(640, 128), int8] /* ty=Tensor[(640, 128), int8] */, %tvm_var_extract_const_57: Tensor[(640), int32] /* ty=Tensor[(640), int32] */, Compiler="cmsis-nn", Primitive=1, Inline=1, global_symbol="tvmgen_default_cmsis_nn_main_9") -> Tensor[(1, 640), int8] {
  %57 = fn (%FunctionVar_0_0: Tensor[(1, 128), int8] /* ty=Tensor[(1, 128), int8] */, %tvm_var_extract_const_54: Tensor[(640, 128), int8] /* ty=Tensor[(640, 128), int8] */, %tvm_var_extract_const_55: Tensor[(640), int32] /* ty=Tensor[(640), int32] */, PartitionedFromPattern="qnn.dense_nn.bias_add_qnn.requantize_", Composite="cmsis-nn.qnn_fully_connected") -> Tensor[(1, 640), int8] {
    %55 = qnn.dense(%FunctionVar_0_0, %tvm_var_extract_const_54, -128 /* ty=int32 span=Identity:0:0 */, 0 /* ty=int32 span=Identity:0:0 */, 0.0247909f /* ty=float32 span=Identity:0:0 */, 0.0195567f /* ty=float32 span=Identity:0:0 */, units=640, out_dtype="int32") /* ty=Tensor[(1, 640), int32] span=Identity:0:0 */;
    %56 = nn.bias_add(%55, %tvm_var_extract_const_55) /* ty=Tensor[(1, 640), int32] span=Identity:0:0 */;
    qnn.requantize(%56, 0.000484828f /* ty=float32 span=Identity:0:0 */, 0 /* ty=int32 span=Identity:0:0 */, 0.364498f /* ty=float32 span=Identity:0:0 */, 96 /* ty=int32 span=Identity:0:0 */, out_dtype="int8") /* ty=Tensor[(1, 640), int8] span=Identity:0:0 */
  } /* ty=fn (Tensor[(1, 128), int8], Tensor[(640, 128), int8], Tensor[(640), int32]) -> Tensor[(1, 640), int8] */;
  %57(%cmsis-nn_9_i0, %tvm_var_extract_const_56, %tvm_var_extract_const_57) /* ty=Tensor[(1, 640), int8] */
}

#[metadata]
{
  "root": 1, 
  "nodes": [
    {
      "type_key": ""
    }, 
    {
      "type_key": "Map", 
      "keys": [
        "relay.Constant"
      ], 
      "data": [2]
    }, 
    {
      "type_key": "Array", 
      "data": [
        3, 
        10, 
        14, 
        19, 
        23, 
        28, 
        32, 
        37, 
        41, 
        46, 
        50, 
        55, 
        59, 
        64, 
        68, 
        73, 
        77, 
        82, 
        86, 
        91
      ]
    }, 
    {
      "type_key": "relay.Constant", 
      "attrs": {
        "_checked_type_": "6", 
        "data": "0", 
        "span": "0", 
        "virtual_device_": "4"
      }
    }, 
    {
      "type_key": "VirtualDevice", 
      "attrs": {
        "device_type_int": "-1", 
        "memory_scope": "5", 
        "target": "0", 
        "virtual_device_id": "-1"
      }
    }, 
    {
      "type_key": "runtime.String"
    }, 
    {
      "type_key": "relay.TensorType", 
      "attrs": {
        "dtype": "int8", 
        "shape": "7", 
        "span": "0"
      }
    }, 
    {
      "type_key": "Array", 
      "data": [8, 9]
    }, 
    {
      "type_key": "IntImm", 
      "attrs": {
        "dtype": "int32", 
        "span": "0", 
        "value": "128"
      }
    }, 
    {
      "type_key": "IntImm", 
      "attrs": {
        "dtype": "int32", 
        "span": "0", 
        "value": "640"
      }
    }, 
    {
      "type_key": "relay.Constant", 
      "attrs": {
        "_checked_type_": "11", 
        "data": "1", 
        "span": "0", 
        "virtual_device_": "4"
      }
    }, 
    {
      "type_key": "relay.TensorType", 
      "attrs": {
        "dtype": "int32", 
        "shape": "12", 
        "span": "0"
      }
    }, 
    {
      "type_key": "Array", 
      "data": [13]
    }, 
    {
      "type_key": "IntImm", 
      "attrs": {
        "dtype": "int32", 
        "span": "0", 
        "value": "128"
      }
    }, 
    {
      "type_key": "relay.Constant", 
      "attrs": {
        "_checked_type_": "15", 
        "data": "2", 
        "span": "0", 
        "virtual_device_": "4"
      }
    }, 
    {
      "type_key": "relay.TensorType", 
      "attrs": {
        "dtype": "int8", 
        "shape": "16", 
        "span": "0"
      }
    }, 
    {
      "type_key": "Array", 
      "data": [17, 18]
    }, 
    {
      "type_key": "IntImm", 
      "attrs": {
        "dtype": "int32", 
        "span": "0", 
        "value": "128"
      }
    }, 
    {
      "type_key": "IntImm", 
      "attrs": {
        "dtype": "int32", 
        "span": "0", 
        "value": "128"
      }
    }, 
    {
      "type_key": "relay.Constant", 
      "attrs": {
        "_checked_type_": "20", 
        "data": "3", 
        "span": "0", 
        "virtual_device_": "4"
      }
    }, 
    {
      "type_key": "relay.TensorType", 
      "attrs": {
        "dtype": "int32", 
        "shape": "21", 
        "span": "0"
      }
    }, 
    {
      "type_key": "Array", 
      "data": [22]
    }, 
    {
      "type_key": "IntImm", 
      "attrs": {
        "dtype": "int32", 
        "span": "0", 
        "value": "128"
      }
    }, 
    {
      "type_key": "relay.Constant", 
      "attrs": {
        "_checked_type_": "24", 
        "data": "4", 
        "span": "0", 
        "virtual_device_": "4"
      }
    }, 
    {
      "type_key": "relay.TensorType", 
      "attrs": {
        "dtype": "int8", 
        "shape": "25", 
        "span": "0"
      }
    }, 
    {
      "type_key": "Array", 
      "data": [26, 27]
    }, 
    {
      "type_key": "IntImm", 
      "attrs": {
        "dtype": "int32", 
        "span": "0", 
        "value": "128"
      }
    }, 
    {
      "type_key": "IntImm", 
      "attrs": {
        "dtype": "int32", 
        "span": "0", 
        "value": "128"
      }
    }, 
    {
      "type_key": "relay.Constant", 
      "attrs": {
        "_checked_type_": "29", 
        "data": "5", 
        "span": "0", 
        "virtual_device_": "4"
      }
    }, 
    {
      "type_key": "relay.TensorType", 
      "attrs": {
        "dtype": "int32", 
        "shape": "30", 
        "span": "0"
      }
    }, 
    {
      "type_key": "Array", 
      "data": [31]
    }, 
    {
      "type_key": "IntImm", 
      "attrs": {
        "dtype": "int32", 
        "span": "0", 
        "value": "128"
      }
    }, 
    {
      "type_key": "relay.Constant", 
      "attrs": {
        "_checked_type_": "33", 
        "data": "6", 
        "span": "0", 
        "virtual_device_": "4"
      }
    }, 
    {
      "type_key": "relay.TensorType", 
      "attrs": {
        "dtype": "int8", 
        "shape": "34", 
        "span": "0"
      }
    }, 
    {
      "type_key": "Array", 
      "data": [35, 36]
    }, 
    {
      "type_key": "IntImm", 
      "attrs": {
        "dtype": "int32", 
        "span": "0", 
        "value": "128"
      }
    }, 
    {
      "type_key": "IntImm", 
      "attrs": {
        "dtype": "int32", 
        "span": "0", 
        "value": "128"
      }
    }, 
    {
      "type_key": "relay.Constant", 
      "attrs": {
        "_checked_type_": "38", 
        "data": "7", 
        "span": "0", 
        "virtual_device_": "4"
      }
    }, 
    {
      "type_key": "relay.TensorType", 
      "attrs": {
        "dtype": "int32", 
        "shape": "39", 
        "span": "0"
      }
    }, 
    {
      "type_key": "Array", 
      "data": [40]
    }, 
    {
      "type_key": "IntImm", 
      "attrs": {
        "dtype": "int32", 
        "span": "0", 
        "value": "128"
      }
    }, 
    {
      "type_key": "relay.Constant", 
      "attrs": {
        "_checked_type_": "42", 
        "data": "8", 
        "span": "0", 
        "virtual_device_": "4"
      }
    }, 
    {
      "type_key": "relay.TensorType", 
      "attrs": {
        "dtype": "int8", 
        "shape": "43", 
        "span": "0"
      }
    }, 
    {
      "type_key": "Array", 
      "data": [44, 45]
    }, 
    {
      "type_key": "IntImm", 
      "attrs": {
        "dtype": "int32", 
        "span": "0", 
        "value": "8"
      }
    }, 
    {
      "type_key": "IntImm", 
      "attrs": {
        "dtype": "int32", 
        "span": "0", 
        "value": "128"
      }
    }, 
    {
      "type_key": "relay.Constant", 
      "attrs": {
        "_checked_type_": "47", 
        "data": "9", 
        "span": "0", 
        "virtual_device_": "4"
      }
    }, 
    {
      "type_key": "relay.TensorType", 
      "attrs": {
        "dtype": "int32", 
        "shape": "48", 
        "span": "0"
      }
    }, 
    {
      "type_key": "Array", 
      "data": [49]
    }, 
    {
      "type_key": "IntImm", 
      "attrs": {
        "dtype": "int32", 
        "span": "0", 
        "value": "8"
      }
    }, 
    {
      "type_key": "relay.Constant", 
      "attrs": {
        "_checked_type_": "51", 
        "data": "10", 
        "span": "0", 
        "virtual_device_": "4"
      }
    }, 
    {
      "type_key": "relay.TensorType", 
      "attrs": {
        "dtype": "int8", 
        "shape": "52", 
        "span": "0"
      }
    }, 
    {
      "type_key": "Array", 
      "data": [53, 54]
    }, 
    {
      "type_key": "IntImm", 
      "attrs": {
        "dtype": "int32", 
        "span": "0", 
        "value": "128"
      }
    }, 
    {
      "type_key": "IntImm", 
      "attrs": {
        "dtype": "int32", 
        "span": "0", 
        "value": "8"
      }
    }, 
    {
      "type_key": "relay.Constant", 
      "attrs": {
        "_checked_type_": "56", 
        "data": "11", 
        "span": "0", 
        "virtual_device_": "4"
      }
    }, 
    {
      "type_key": "relay.TensorType", 
      "attrs": {
        "dtype": "int32", 
        "shape": "57", 
        "span": "0"
      }
    }, 
    {
      "type_key": "Array", 
      "data": [58]
    }, 
    {
      "type_key": "IntImm", 
      "attrs": {
        "dtype": "int32", 
        "span": "0", 
        "value": "128"
      }
    }, 
    {
      "type_key": "relay.Constant", 
      "attrs": {
        "_checked_type_": "60", 
        "data": "12", 
        "span": "0", 
        "virtual_device_": "4"
      }
    }, 
    {
      "type_key": "relay.TensorType", 
      "attrs": {
        "dtype": "int8", 
        "shape": "61", 
        "span": "0"
      }
    }, 
    {
      "type_key": "Array", 
      "data": [62, 63]
    }, 
    {
      "type_key": "IntImm", 
      "attrs": {
        "dtype": "int32", 
        "span": "0", 
        "value": "128"
      }
    }, 
    {
      "type_key": "IntImm", 
      "attrs": {
        "dtype": "int32", 
        "span": "0", 
        "value": "128"
      }
    }, 
    {
      "type_key": "relay.Constant", 
      "attrs": {
        "_checked_type_": "65", 
        "data": "13", 
        "span": "0", 
        "virtual_device_": "4"
      }
    }, 
    {
      "type_key": "relay.TensorType", 
      "attrs": {
        "dtype": "int32", 
        "shape": "66", 
        "span": "0"
      }
    }, 
    {
      "type_key": "Array", 
      "data": [67]
    }, 
    {
      "type_key": "IntImm", 
      "attrs": {
        "dtype": "int32", 
        "span": "0", 
        "value": "128"
      }
    }, 
    {
      "type_key": "relay.Constant", 
      "attrs": {
        "_checked_type_": "69", 
        "data": "14", 
        "span": "0", 
        "virtual_device_": "4"
      }
    }, 
    {
      "type_key": "relay.TensorType", 
      "attrs": {
        "dtype": "int8", 
        "shape": "70", 
        "span": "0"
      }
    }, 
    {
      "type_key": "Array", 
      "data": [71, 72]
    }, 
    {
      "type_key": "IntImm", 
      "attrs": {
        "dtype": "int32", 
        "span": "0", 
        "value": "128"
      }
    }, 
    {
      "type_key": "IntImm", 
      "attrs": {
        "dtype": "int32", 
        "span": "0", 
        "value": "128"
      }
    }, 
    {
      "type_key": "relay.Constant", 
      "attrs": {
        "_checked_type_": "74", 
        "data": "15", 
        "span": "0", 
        "virtual_device_": "4"
      }
    }, 
    {
      "type_key": "relay.TensorType", 
      "attrs": {
        "dtype": "int32", 
        "shape": "75", 
        "span": "0"
      }
    }, 
    {
      "type_key": "Array", 
      "data": [76]
    }, 
    {
      "type_key": "IntImm", 
      "attrs": {
        "dtype": "int32", 
        "span": "0", 
        "value": "128"
      }
    }, 
    {
      "type_key": "relay.Constant", 
      "attrs": {
        "_checked_type_": "78", 
        "data": "16", 
        "span": "0", 
        "virtual_device_": "4"
      }
    }, 
    {
      "type_key": "relay.TensorType", 
      "attrs": {
        "dtype": "int8", 
        "shape": "79", 
        "span": "0"
      }
    }, 
    {
      "type_key": "Array", 
      "data": [80, 81]
    }, 
    {
      "type_key": "IntImm", 
      "attrs": {
        "dtype": "int32", 
        "span": "0", 
        "value": "128"
      }
    }, 
    {
      "type_key": "IntImm", 
      "attrs": {
        "dtype": "int32", 
        "span": "0", 
        "value": "128"
      }
    }, 
    {
      "type_key": "relay.Constant", 
      "attrs": {
        "_checked_type_": "83", 
        "data": "17", 
        "span": "0", 
        "virtual_device_": "4"
      }
    }, 
    {
      "type_key": "relay.TensorType", 
      "attrs": {
        "dtype": "int32", 
        "shape": "84", 
        "span": "0"
      }
    }, 
    {
      "type_key": "Array", 
      "data": [85]
    }, 
    {
      "type_key": "IntImm", 
      "attrs": {
        "dtype": "int32", 
        "span": "0", 
        "value": "128"
      }
    }, 
    {
      "type_key": "relay.Constant", 
      "attrs": {
        "_checked_type_": "87", 
        "data": "18", 
        "span": "0", 
        "virtual_device_": "4"
      }
    }, 
    {
      "type_key": "relay.TensorType", 
      "attrs": {
        "dtype": "int8", 
        "shape": "88", 
        "span": "0"
      }
    }, 
    {
      "type_key": "Array", 
      "data": [89, 90]
    }, 
    {
      "type_key": "IntImm", 
      "attrs": {
        "dtype": "int32", 
        "span": "0", 
        "value": "640"
      }
    }, 
    {
      "type_key": "IntImm", 
      "attrs": {
        "dtype": "int32", 
        "span": "0", 
        "value": "128"
      }
    }, 
    {
      "type_key": "relay.Constant", 
      "attrs": {
        "_checked_type_": "92", 
        "data": "19", 
        "span": "0", 
        "virtual_device_": "4"
      }
    }, 
    {
      "type_key": "relay.TensorType", 
      "attrs": {
        "dtype": "int32", 
        "shape": "93", 
        "span": "0"
      }
    }, 
    {
      "type_key": "Array", 
      "data": [94]
    }, 
    {
      "type_key": "IntImm", 
      "attrs": {
        "dtype": "int32", 
        "span": "0", 
        "value": "640"
      }
    }
  ], 
  "b64ndarrays": [
    "…", 
    "…", 
    "…", 
    "…", 
    "…", 
    "…", 
    "…", 
    "…", 
    "…", 
    "P6G0lvBAXt0AAAAAAAAAAAEAAAAAAAAAAQAAAAAgAQAIAAAAAAAAACAAAAAAAAAAwSoAAFYxAADbLwAA7C8AAP8mAABHLAAAITYAAPknAAA=", 
    "…", 
    "…", 
    "…", 
    "…", 
    "…", 
    "…", 
    "…", 
    "…", 
    "…", 
    "…"
  ], 
  "attrs": {"tvm_version": "0.17.0"}
}