#[version = "0.0.5"]
def @main(%input_1: Tensor[(1, 49, 10, 1), int8] /* ty=Tensor[(1, 49, 10, 1), int8] span=input_1:0:0 */, output_tensor_names=["Identity"]) -> Tensor[(1, 12), int8] {
  %0 = @tvmgen_default_cmsis_nn_main_0(%input_1, meta[relay.Constant][0] /* ty=Tensor[(10, 4, 1, 64), int8] */, meta[relay.Constant][1] /* ty=Tensor[(64), int32] */, meta[relay.Constant][2] /* ty=Tensor[(64), float32] span=functional_1/activation/Relu;StatefulPartitionedCall/functional_1/activation/Relu;functional_1/batch_normalization/FusedBatchNormV3;StatefulPartitionedCall/functional_1/batch_normalization/FusedBatchNormV3;unknown_0;functional_1/conv2d/BiasAdd;StatefulPartitionedCall/functional_1/conv2d/BiasAdd;functional_1/conv2d_4/Conv2D;StatefulPartitionedCall/functional_1/conv2d_4/Conv2D;functional_1/conv2d/Conv2D;StatefulPartitionedCall/functional_1/conv2d/Conv2D1:0:0 */, meta[relay.Constant][3] /* ty=Tensor[(64), int32] */, meta[relay.Constant][4] /* ty=Tensor[(64), float32] span=functional_1/activation/Relu;StatefulPartitionedCall/functional_1/activation/Relu;functional_1/batch_normalization/FusedBatchNormV3;StatefulPartitionedCall/functional_1/batch_normalization/FusedBatchNormV3;unknown_0;functional_1/conv2d/BiasAdd;StatefulPartitionedCall/functional_1/conv2d/BiasAdd;functional_1/conv2d_4/Conv2D;StatefulPartitionedCall/functional_1/conv2d_4/Conv2D;functional_1/conv2d/Conv2D;StatefulPartitionedCall/functional_1/conv2d/Conv2D1:0:0 */, meta[relay.Constant][5] /* ty=Tensor[(64), int32] */) /* ty=Tensor[(1, 25, 5, 64), int8] */;
  %1 = @tvmgen_default_cmsis_nn_main_1(%0, meta[relay.Constant][6] /* ty=Tensor[(3, 3, 64, 1), int8] */, meta[relay.Constant][7] /* ty=Tensor[(64), int32] */, meta[relay.Constant][8] /* ty=Tensor[(64), float32] span=functional_1/activation_1/Relu;StatefulPartitionedCall/functional_1/activation_1/Relu;functional_1/batch_normalization_1/FusedBatchNormV3;StatefulPartitionedCall/functional_1/batch_normalization_1/FusedBatchNormV3;functional_1/depthwise_conv2d/depthwise;StatefulPartitionedCall/functional_1/depthwise_conv2d/depthwise;functional_1/depthwise_conv2d/BiasAdd;StatefulPartitionedCall/functional_1/depthwise_conv2d/BiasAdd;functional_1/conv2d_4/Conv2D;StatefulPartitionedCall/functional_1/conv2d_4/Conv2D;unknown_61:0:0 */, meta[relay.Constant][9] /* ty=Tensor[(64), int32] */, meta[relay.Constant][10] /* ty=Tensor[(64), float32] span=functional_1/activation_1/Relu;StatefulPartitionedCall/functional_1/activation_1/Relu;functional_1/batch_normalization_1/FusedBatchNormV3;StatefulPartitionedCall/functional_1/batch_normalization_1/FusedBatchNormV3;functional_1/depthwise_conv2d/depthwise;StatefulPartitionedCall/functional_1/depthwise_conv2d/depthwise;functional_1/depthwise_conv2d/BiasAdd;StatefulPartitionedCall/functional_1/depthwise_conv2d/BiasAdd;functional_1/conv2d_4/Conv2D;StatefulPartitionedCall/functional_1/conv2d_4/Conv2D;unknown_61:0:0 */, meta[relay.Constant][11] /* ty=Tensor[(64), int32] */) /* ty=Tensor[(1, 25, 5, 64), int8] */;
  %2 = @tvmgen_default_cmsis_nn_main_2(%1, meta[relay.Constant][12] /* ty=Tensor[(64, 1, 1, 64), int8] */, meta[relay.Constant][13] /* ty=Tensor[(64), int32] */, meta[relay.Constant][14] /* ty=Tensor[(64), float32] span=functional_1/activation_2/Relu;StatefulPartitionedCall/functional_1/activation_2/Relu;functional_1/batch_normalization_2/FusedBatchNormV3;StatefulPartitionedCall/functional_1/batch_normalization_2/FusedBatchNormV3;unknown_12;functional_1/conv2d_1/BiasAdd;StatefulPartitionedCall/functional_1/conv2d_1/BiasAdd;functional_1/conv2d_4/Conv2D;StatefulPartitionedCall/functional_1/conv2d_4/Conv2D;functional_1/conv2d_1/Conv2D;StatefulPartitionedCall/functional_1/conv2d_1/Conv2D1:0:0 */, meta[relay.Constant][15] /* ty=Tensor[(64), int32] */, meta[relay.Constant][16] /* ty=Tensor[(64), float32] span=functional_1/activation_2/Relu;StatefulPartitionedCall/functional_1/activation_2/Relu;functional_1/batch_normalization_2/FusedBatchNormV3;StatefulPartitionedCall/functional_1/batch_normalization_2/FusedBatchNormV3;unknown_12;functional_1/conv2d_1/BiasAdd;StatefulPartitionedCall/functional_1/conv2d_1/BiasAdd;functional_1/conv2d_4/Conv2D;StatefulPartitionedCall/functional_1/conv2d_4/Conv2D;functional_1/conv2d_1/Conv2D;StatefulPartitionedCall/functional_1/conv2d_1/Conv2D1:0:0 */, meta[relay.Constant][17] /* ty=Tensor[(64), int32] */) /* ty=Tensor[(1, 25, 5, 64), int8] */;
  %3 = @tvmgen_default_cmsis_nn_main_3(%2, meta[relay.Constant][18] /* ty=Tensor[(3, 3, 64, 1), int8] */, meta[relay.Constant][19] /* ty=Tensor[(64), int32] */, meta[relay.Constant][20] /* ty=Tensor[(64), float32] span=functional_1/activation_3/Relu;StatefulPartitionedCall/functional_1/activation_3/Relu;functional_1/batch_normalization_3/FusedBatchNormV3;StatefulPartitionedCall/functional_1/batch_normalization_3/FusedBatchNormV3;functional_1/depthwise_conv2d_1/depthwise;StatefulPartitionedCall/functional_1/depthwise_conv2d_1/depthwise;functional_1/depthwise_conv2d_1/BiasAdd;StatefulPartitionedCall/functional_1/depthwise_conv2d_1/BiasAdd;functional_1/conv2d_4/Conv2D;StatefulPartitionedCall/functional_1/conv2d_4/Conv2D;unknown_181:0:0 */, meta[relay.Constant][21] /* ty=Tensor[(64), int32] */, meta[relay.Constant][22] /* ty=Tensor[(64), float32] span=functional_1/activation_3/Relu;StatefulPartitionedCall/functional_1/activation_3/Relu;functional_1/batch_normalization_3/FusedBatchNormV3;StatefulPartitionedCall/functional_1/batch_normalization_3/FusedBatchNormV3;functional_1/depthwise_conv2d_1/depthwise;StatefulPartitionedCall/functional_1/depthwise_conv2d_1/depthwise;functional_1/depthwise_conv2d_1/BiasAdd;StatefulPartitionedCall/functional_1/depthwise_conv2d_1/BiasAdd;functional_1/conv2d_4/Conv2D;StatefulPartitionedCall/functional_1/conv2d_4/Conv2D;unknown_181:0:0 */, meta[relay.Constant][23] /* ty=Tensor[(64), int32] */) /* ty=Tensor[(1, 25, 5, 64), int8] */;
  %4 = @tvmgen_default_cmsis_nn_main_4(%3, meta[relay.Constant][24] /* ty=Tensor[(64, 1, 1, 64), int8] */, meta[relay.Constant][25] /* ty=Tensor[(64), int32] */, meta[relay.Constant][26] /* ty=Tensor[(64), float32] span=functional_1/activation_4/Relu;StatefulPartitionedCall/functional_1/activation_4/Relu;functional_1/batch_normalization_4/FusedBatchNormV3;StatefulPartitionedCall/functional_1/batch_normalization_4/FusedBatchNormV3;unknown_24;functional_1/conv2d_2/BiasAdd;StatefulPartitionedCall/functional_1/conv2d_2/BiasAdd;functional_1/conv2d_4/Conv2D;StatefulPartitionedCall/functional_1/conv2d_4/Conv2D;functional_1/conv2d_2/Conv2D;StatefulPartitionedCall/functional_1/conv2d_2/Conv2D1:0:0 */, meta[relay.Constant][27] /* ty=Tensor[(64), int32] */, meta[relay.Constant][28] /* ty=Tensor[(64), float32] span=functional_1/activation_4/Relu;StatefulPartitionedCall/functional_1/activation_4/Relu;functional_1/batch_normalization_4/FusedBatchNormV3;StatefulPartitionedCall/functional_1/batch_normalization_4/FusedBatchNormV3;unknown_24;functional_1/conv2d_2/BiasAdd;StatefulPartitionedCall/functional_1/conv2d_2/BiasAdd;functional_1/conv2d_4/Conv2D;StatefulPartitionedCall/functional_1/conv2d_4/Conv2D;functional_1/conv2d_2/Conv2D;StatefulPartitionedCall/functional_1/conv2d_2/Conv2D1:0:0 */, meta[relay.Constant][29] /* ty=Tensor[(64), int32] */) /* ty=Tensor[(1, 25, 5, 64), int8] */;
  %5 = @tvmgen_default_cmsis_nn_main_5(%4, meta[relay.Constant][30] /* ty=Tensor[(3, 3, 64, 1), int8] */, meta[relay.Constant][31] /* ty=Tensor[(64), int32] */, meta[relay.Constant][32] /* ty=Tensor[(64), float32] span=functional_1/activation_5/Relu;StatefulPartitionedCall/functional_1/activation_5/Relu;functional_1/batch_normalization_5/FusedBatchNormV3;StatefulPartitionedCall/functional_1/batch_normalization_5/FusedBatchNormV3;functional_1/depthwise_conv2d_2/depthwise;StatefulPartitionedCall/functional_1/depthwise_conv2d_2/depthwise;functional_1/depthwise_conv2d_2/BiasAdd;StatefulPartitionedCall/functional_1/depthwise_conv2d_2/BiasAdd;functional_1/conv2d_4/Conv2D;StatefulPartitionedCall/functional_1/conv2d_4/Conv2D;unknown_301:0:0 */, meta[relay.Constant][33] /* ty=Tensor[(64), int32] */, meta[relay.Constant][34] /* ty=Tensor[(64), float32] span=functional_1/activation_5/Relu;StatefulPartitionedCall/functional_1/activation_5/Relu;functional_1/batch_normalization_5/FusedBatchNormV3;StatefulPartitionedCall/functional_1/batch_normalization_5/FusedBatchNormV3;functional_1/depthwise_conv2d_2/depthwise;StatefulPartitionedCall/functional_1/depthwise_conv2d_2/depthwise;functional_1/depthwise_conv2d_2/BiasAdd;StatefulPartitionedCall/functional_1/depthwise_conv2d_2/BiasAdd;functional_1/conv2d_4/Conv2D;StatefulPartitionedCall/functional_1/conv2d_4/Conv2D;unknown_301:0:0 */, meta[relay.Constant][35] /* ty=Tensor[(64), int32] */) /* ty=Tensor[(1, 25, 5, 64), int8] */;
  %6 = @tvmgen_default_cmsis_nn_main_6(%5, meta[relay.Constant][36] /* ty=Tensor[(64, 1, 1, 64), int8] */, meta[relay.Constant][37] /* ty=Tensor[(64), int32] */, meta[relay.Constant][38] /* ty=Tensor[(64), float32] span=functional_1/activation_6/Relu;StatefulPartitionedCall/functional_1/activation_6/Relu;functional_1/batch_normalization_6/FusedBatchNormV3;StatefulPartitionedCall/functional_1/batch_normalization_6/FusedBatchNormV3;unknown_36;functional_1/conv2d_3/BiasAdd;StatefulPartitionedCall/functional_1/conv2d_3/BiasAdd;functional_1/conv2d_4/Conv2D;StatefulPartitionedCall/functional_1/conv2d_4/Conv2D;functional_1/conv2d_3/Conv2D;StatefulPartitionedCall/functional_1/conv2d_3/Conv2D1:0:0 */, meta[relay.Constant][39] /* ty=Tensor[(64), int32] */, meta[relay.Constant][40] /* ty=Tensor[(64), float32] span=functional_1/activation_6/Relu;StatefulPartitionedCall/functional_1/activation_6/Relu;functional_1/batch_normalization_6/FusedBatchNormV3;StatefulPartitionedCall/functional_1/batch_normalization_6/FusedBatchNormV3;unknown_36;functional_1/conv2d_3/BiasAdd;StatefulPartitionedCall/functional_1/conv2d_3/BiasAdd;functional_1/conv2d_4/Conv2D;StatefulPartitionedCall/functional_1/conv2d_4/Conv2D;functional_1/conv2d_3/Conv2D;StatefulPartitionedCall/functional_1/conv2d_3/Conv2D1:0:0 */, meta[relay.Constant][41] /* ty=Tensor[(64), int32] */) /* ty=Tensor[(1, 25, 5, 64), int8] */;
  %7 = @tvmgen_default_cmsis_nn_main_7(%6, meta[relay.Constant][42] /* ty=Tensor[(3, 3, 64, 1), int8] */, meta[relay.Constant][43] /* ty=Tensor[(64), int32] */, meta[relay.Constant][44] /* ty=Tensor[(64), float32] span=functional_1/activation_7/Relu;StatefulPartitionedCall/functional_1/activation_7/Relu;functional_1/batch_normalization_7/FusedBatchNormV3;StatefulPartitionedCall/functional_1/batch_normalization_7/FusedBatchNormV3;functional_1/depthwise_conv2d_3/depthwise;StatefulPartitionedCall/functional_1/depthwise_conv2d_3/depthwise;functional_1/depthwise_conv2d_3/BiasAdd;StatefulPartitionedCall/functional_1/depthwise_conv2d_3/BiasAdd;functional_1/conv2d_4/Conv2D;StatefulPartitionedCall/functional_1/conv2d_4/Conv2D;unknown_421:0:0 */, meta[relay.Constant][45] /* ty=Tensor[(64), int32] */, meta[relay.Constant][46] /* ty=Tensor[(64), float32] span=functional_1/activation_7/Relu;StatefulPartitionedCall/functional_1/activation_7/Relu;functional_1/batch_normalization_7/FusedBatchNormV3;StatefulPartitionedCall/functional_1/batch_normalization_7/FusedBatchNormV3;functional_1/depthwise_conv2d_3/depthwise;StatefulPartitionedCall/functional_1/depthwise_conv2d_3/depthwise;functional_1/depthwise_conv2d_3/BiasAdd;StatefulPartitionedCall/functional_1/depthwise_conv2d_3/BiasAdd;functional_1/conv2d_4/Conv2D;StatefulPartitionedCall/functional_1/conv2d_4/Conv2D;unknown_421:0:0 */, meta[relay.Constant][47] /* ty=Tensor[(64), int32] */) /* ty=Tensor[(1, 25, 5, 64), int8] */;
  %8 = @tvmgen_default_cmsis_nn_main_8(%7, meta[relay.Constant][48] /* ty=Tensor[(64, 1, 1, 64), int8] */, meta[relay.Constant][49] /* ty=Tensor[(64), int32] */, meta[relay.Constant][50] /* ty=Tensor[(64), float32] span=functional_1/activation_8/Relu;StatefulPartitionedCall/functional_1/activation_8/Relu;functional_1/batch_normalization_8/FusedBatchNormV3;StatefulPartitionedCall/functional_1/batch_normalization_8/FusedBatchNormV3;unknown_48;functional_1/conv2d_4/BiasAdd;StatefulPartitionedCall/functional_1/conv2d_4/BiasAdd;functional_1/conv2d_4/Conv2D;StatefulPartitionedCall/functional_1/conv2d_4/Conv2D1:0:0 */, meta[relay.Constant][51] /* ty=Tensor[(64), int32] */, meta[relay.Constant][52] /* ty=Tensor[(64), float32] span=functional_1/activation_8/Relu;StatefulPartitionedCall/functional_1/activation_8/Relu;functional_1/batch_normalization_8/FusedBatchNormV3;StatefulPartitionedCall/functional_1/batch_normalization_8/FusedBatchNormV3;unknown_48;functional_1/conv2d_4/BiasAdd;StatefulPartitionedCall/functional_1/conv2d_4/BiasAdd;functional_1/conv2d_4/Conv2D;StatefulPartitionedCall/functional_1/conv2d_4/Conv2D1:0:0 */, meta[relay.Constant][53] /* ty=Tensor[(64), int32] */) /* ty=Tensor[(1, 25, 5, 64), int8] */;
  %9 = @tvmgen_default_cmsis_nn_main_9(%8) /* ty=Tensor[(1, 1, 1, 64), int8] */;
  %10 = reshape(%9, newshape=[-1, 64]) /* ty=Tensor[(1, 64), int8] span=functional_1/flatten/Reshape;StatefulPartitionedCall/functional_1/flatten/Reshape:0:0 */;
  %11 = reshape(%10, newshape=[-1, 64]) /* ty=Tensor[(1, 64), int8] span=functional_1/dense/BiasAdd;StatefulPartitionedCall/functional_1/dense/BiasAdd:0:0 */;
  %12 = @tvmgen_default_cmsis_nn_main_10(%11, meta[relay.Constant][54] /* ty=Tensor[(12, 64), int8] */, meta[relay.Constant][55] /* ty=Tensor[(12), int32] */) /* ty=Tensor[(1, 12), int8] */;
  @tvmgen_default_cmsis_nn_main_11(%12) /* ty=Tensor[(1, 12), int8] */
}

def @tvmgen_default_cmsis_nn_main_0(%cmsis-nn_0_i0: Tensor[(1, 49, 10, 1), int8] /* ty=Tensor[(1, 49, 10, 1), int8] */, %tvm_var_extract_const_6: Tensor[(10, 4, 1, 64), int8] /* ty=Tensor[(10, 4, 1, 64), int8] */, %tvm_var_extract_const_7: Tensor[(64), int32] /* ty=Tensor[(64), int32] */, %tvm_var_extract_const_8: Tensor[(64), float32] /* ty=Tensor[(64), float32] */, %tvm_var_extract_const_9: Tensor[(64), int32] /* ty=Tensor[(64), int32] */, %tvm_var_extract_const_10: Tensor[(64), float32] /* ty=Tensor[(64), float32] */, %tvm_var_extract_const_11: Tensor[(64), int32] /* ty=Tensor[(64), int32] */, Compiler="cmsis-nn", Primitive=1, Inline=1, global_symbol="tvmgen_default_cmsis_nn_main_0") -> Tensor[(1, 25, 5, 64), int8] {
  %16 = fn (%FunctionVar_8_0: Tensor[(1, 49, 10, 1), int8] /* ty=Tensor[(1, 49, 10, 1), int8] */, %tvm_var_extract_const_0: Tensor[(10, 4, 1, 64), int8] /* ty=Tensor[(10, 4, 1, 64), int8] */, %tvm_var_extract_const_1: Tensor[(64), int32] /* ty=Tensor[(64), int32] */, %tvm_var_extract_const_2: Tensor[(64), float32] /* ty=Tensor[(64), float32] */, %tvm_var_extract_const_3: Tensor[(64), int32] /* ty=Tensor[(64), int32] */, %tvm_var_extract_const_4: Tensor[(64), float32] /* ty=Tensor[(64), float32] */, %tvm_var_extract_const_5: Tensor[(64), int32] /* ty=Tensor[(64), int32] */, PartitionedFromPattern="qnn.conv2d_nn.bias_add_qnn.requantize_clip_", Composite="cmsis-nn.qnn_conv2d") -> Tensor[(1, 25, 5, 64), int8] {
    %13 = qnn.conv2d(%FunctionVar_8_0, %tvm_var_extract_const_0, 87 /* ty=int32 span=functional_1/activation/Relu;StatefulPartitionedCall/functional_1/activation/Relu;functional_1/batch_normalization/FusedBatchNormV3;StatefulPartitionedCall/functional_1/batch_normalization/FusedBatchNormV3;unknown_0;functional_1/conv2d/BiasAdd;StatefulPartitionedCall/functional_1/conv2d/BiasAdd;functional_1/conv2d_4/Conv2D;StatefulPartitionedCall/functional_1/conv2d_4/Conv2D;functional_1/conv2d/Conv2D;StatefulPartitionedCall/functional_1/conv2d/Conv2D1:0:0 */, %tvm_var_extract_const_1, 0.574836f /* ty=float32 span=functional_1/activation/Relu;StatefulPartitionedCall/functional_1/activation/Relu;functional_1/batch_normalization/FusedBatchNormV3;StatefulPartitionedCall/functional_1/batch_normalization/FusedBatchNormV3;unknown_0;functional_1/conv2d/BiasAdd;StatefulPartitionedCall/functional_1/conv2d/BiasAdd;functional_1/conv2d_4/Conv2D;StatefulPartitionedCall/functional_1/conv2d_4/Conv2D;functional_1/conv2d/Conv2D;StatefulPartitionedCall/functional_1/conv2d/Conv2D1:0:0 */, %tvm_var_extract_const_2, strides=[2, 2], padding=[4, 1, 5, 1], channels=64, kernel_size=[10, 4], data_layout="NHWC", kernel_layout="HWIO", out_dtype="int32") /* ty=Tensor[(1, 25, 5, 64), int32] span=functional_1/activation/Relu;StatefulPartitionedCall/functional_1/activation/Relu;functional_1/batch_normalization/FusedBatchNormV3;StatefulPartitionedCall/functional_1/batch_normalization/FusedBatchNormV3;unknown_0;functional_1/conv2d/BiasAdd;StatefulPartitionedCall/functional_1/conv2d/BiasAdd;functional_1/conv2d_4/Conv2D;StatefulPartitionedCall/functional_1/conv2d_4/Conv2D;functional_1/conv2d/Conv2D;StatefulPartitionedCall/functional_1/conv2d/Conv2D1:0:0 */;
    %14 = nn.bias_add(%13, %tvm_var_extract_const_3, axis=3) /* ty=Tensor[(1, 25, 5, 64), int32] span=functional_1/activation/Relu;StatefulPartitionedCall/functional_1/activation/Relu;functional_1/batch_normalization/FusedBatchNormV3;StatefulPartitionedCall/functional_1/batch_normalization/FusedBatchNormV3;unknown_0;functional_1/conv2d/BiasAdd;StatefulPartitionedCall/functional_1/conv2d/BiasAdd;functional_1/conv2d_4/Conv2D;StatefulPartitionedCall/functional_1/conv2d_4/Conv2D;functional_1/conv2d/Conv2D;StatefulPartitionedCall/functional_1/conv2d/Conv2D1:0:0 */;
    %15 = qnn.requantize(%14, %tvm_var_extract_const_4, %tvm_var_extract_const_5, 0.106924f /* ty=float32 span=functional_1/activation/Relu;StatefulPartitionedCall/functional_1/activation/Relu;functional_1/batch_normalization/FusedBatchNormV3;StatefulPartitionedCall/functional_1/batch_normalization/FusedBatchNormV3;unknown_0;functional_1/conv2d/BiasAdd;StatefulPartitionedCall/functional_1/conv2d/BiasAdd;functional_1/conv2d_4/Conv2D;StatefulPartitionedCall/functional_1/conv2d_4/Conv2D;functional_1/conv2d/Conv2D;StatefulPartitionedCall/functional_1/conv2d/Conv2D1:0:0 */, -128 /* ty=int32 span=functional_1/activation/Relu;StatefulPartitionedCall/functional_1/activation/Relu;functional_1/batch_normalization/FusedBatchNormV3;StatefulPartitionedCall/functional_1/batch_normalization/FusedBatchNormV3;unknown_0;functional_1/conv2d/BiasAdd;StatefulPartitionedCall/functional_1/conv2d/BiasAdd;functional_1/conv2d_4/Conv2D;StatefulPartitionedCall/functional_1/conv2d_4/Conv2D;functional_1/conv2d/Conv2D;StatefulPartitionedCall/functional_1/conv2d/Conv2D1:0:0 */, axis=3, out_dtype="int8") /* ty=Tensor[(1, 25, 5, 64), int8] span=functional_1/activation/Relu;StatefulPartitionedCall/functional_1/activation/Relu;functional_1/batch_normalization/FusedBatchNormV3;StatefulPartitionedCall/functional_1/batch_normalization/FusedBatchNormV3;unknown_0;functional_1/conv2d/BiasAdd;StatefulPartitionedCall/functional_1/conv2d/BiasAdd;functional_1/conv2d_4/Conv2D;StatefulPartitionedCall/functional_1/conv2d_4/Conv2D;functional_1/conv2d/Conv2D;StatefulPartitionedCall/functional_1/conv2d/Conv2D1:0:0 */;
    clip(%15, a_min=-128f, a_max=127f) /* ty=Tensor[(1, 25, 5, 64), int8] span=functional_1/activation/Relu;StatefulPartitionedCall/functional_1/activation/Relu;functional_1/batch_normalization/FusedBatchNormV3;StatefulPartitionedCall/functional_1/batch_normalization/FusedBatchNormV3;unknown_0;functional_1/conv2d/BiasAdd;StatefulPartitionedCall/functional_1/conv2d/BiasAdd;functional_1/conv2d_4/Conv2D;StatefulPartitionedCall/functional_1/conv2d_4/Conv2D;functional_1/conv2d/Conv2D;StatefulPartitionedCall/functional_1/conv2d/Conv2D1:0:0 */
  } /* ty=fn (Tensor[(1, 49, 10, 1), int8], Tensor[(10, 4, 1, 64), int8], Tensor[(64), int32], Tensor[(64), float32], Tensor[(64), int32], Tensor[(64), float32], Tensor[(64), int32]) -> Tensor[(1, 25, 5, 64), int8] */;
  %16(%cmsis-nn_0_i0, %tvm_var_extract_const_6, %tvm_var_extract_const_7, %tvm_var_extract_const_8, %tvm_var_extract_const_9, %tvm_var_extract_const_10, %tvm_var_extract_const_11) /* ty=Tensor[(1, 25, 5, 64), int8] */
}

def @tvmgen_default_cmsis_nn_main_1(%cmsis-nn_1_i0: Tensor[(1, 25, 5, 64), int8] /* ty=Tensor[(1, 25, 5, 64), int8] */, %tvm_var_extract_const_24: Tensor[(3, 3, 64, 1), int8] /* ty=Tensor[(3, 3, 64, 1), int8] */, %tvm_var_extract_const_25: Tensor[(64), int32] /* ty=Tensor[(64), int32] */, %tvm_var_extract_const_26: Tensor[(64), float32] /* ty=Tensor[(64), float32] */, %tvm_var_extract_const_27: Tensor[(64), int32] /* ty=Tensor[(64), int32] */, %tvm_var_extract_const_28: Tensor[(64), float32] /* ty=Tensor[(64), float32] */, %tvm_var_extract_const_29: Tensor[(64), int32] /* ty=Tensor[(64), int32] */, Compiler="cmsis-nn", Primitive=1, Inline=1, global_symbol="tvmgen_default_cmsis_nn_main_1") -> Tensor[(1, 25, 5, 64), int8] {
  %20 = fn (%FunctionVar_7_0: Tensor[(1, 25, 5, 64), int8] /* ty=Tensor[(1, 25, 5, 64), int8] */, %tvm_var_extract_const_18: Tensor[(3, 3, 64, 1), int8] /* ty=Tensor[(3, 3, 64, 1), int8] */, %tvm_var_extract_const_19: Tensor[(64), int32] /* ty=Tensor[(64), int32] */, %tvm_var_extract_const_20: Tensor[(64), float32] /* ty=Tensor[(64), float32] */, %tvm_var_extract_const_21: Tensor[(64), int32] /* ty=Tensor[(64), int32] */, %tvm_var_extract_const_22: Tensor[(64), float32] /* ty=Tensor[(64), float32] */, %tvm_var_extract_const_23: Tensor[(64), int32] /* ty=Tensor[(64), int32] */, PartitionedFromPattern="qnn.conv2d_nn.bias_add_qnn.requantize_clip_", Composite="cmsis-nn.qnn_conv2d") -> Tensor[(1, 25, 5, 64), int8] {
    %17 = qnn.conv2d(%FunctionVar_7_0, %tvm_var_extract_const_18, -128 /* ty=int32 span=functional_1/activation_1/Relu;StatefulPartitionedCall/functional_1/activation_1/Relu;functional_1/batch_normalization_1/FusedBatchNormV3;StatefulPartitionedCall/functional_1/batch_normalization_1/FusedBatchNormV3;functional_1/depthwise_conv2d/depthwise;StatefulPartitionedCall/functional_1/depthwise_conv2d/depthwise;functional_1/depthwise_conv2d/BiasAdd;StatefulPartitionedCall/functional_1/depthwise_conv2d/BiasAdd;functional_1/conv2d_4/Conv2D;StatefulPartitionedCall/functional_1/conv2d_4/Conv2D;unknown_61:0:0 */, %tvm_var_extract_const_19, 0.106924f /* ty=float32 span=functional_1/activation_1/Relu;StatefulPartitionedCall/functional_1/activation_1/Relu;functional_1/batch_normalization_1/FusedBatchNormV3;StatefulPartitionedCall/functional_1/batch_normalization_1/FusedBatchNormV3;functional_1/depthwise_conv2d/depthwise;StatefulPartitionedCall/functional_1/depthwise_conv2d/depthwise;functional_1/depthwise_conv2d/BiasAdd;StatefulPartitionedCall/functional_1/depthwise_conv2d/BiasAdd;functional_1/conv2d_4/Conv2D;StatefulPartitionedCall/functional_1/conv2d_4/Conv2D;unknown_61:0:0 */, %tvm_var_extract_const_20, padding=[1, 1, 1, 1], groups=64, channels=64, kernel_size=[3, 3], data_layout="NHWC", kernel_layout="HWOI", out_dtype="int32") /* ty=Tensor[(1, 25, 5, 64), int32] span=functional_1/activation_1/Relu;StatefulPartitionedCall/functional_1/activation_1/Relu;functional_1/batch_normalization_1/FusedBatchNormV3;StatefulPartitionedCall/functional_1/batch_normalization_1/FusedBatchNormV3;functional_1/depthwise_conv2d/depthwise;StatefulPartitionedCall/functional_1/depthwise_conv2d/depthwise;functional_1/depthwise_conv2d/BiasAdd;StatefulPartitionedCall/functional_1/depthwise_conv2d/BiasAdd;functional_1/conv2d_4/Conv2D;StatefulPartitionedCall/functional_1/conv2d_4/Conv2D;unknown_61:0:0 */;
    %18 = nn.bias_add(%17, %tvm_var_extract_const_21, axis=3) /* ty=Tensor[(1, 25, 5, 64), int32] span=functional_1/activation_1/Relu;StatefulPartitionedCall/functional_1/activation_1/Relu;functional_1/batch_normalization_1/FusedBatchNormV3;StatefulPartitionedCall/functional_1/batch_normalization_1/FusedBatchNormV3;functional_1/depthwise_conv2d/depthwise;StatefulPartitionedCall/functional_1/depthwise_conv2d/depthwise;functional_1/depthwise_conv2d/BiasAdd;StatefulPartitionedCall/functional_1/depthwise_conv2d/BiasAdd;functional_1/conv2d_4/Conv2D;StatefulPartitionedCall/functional_1/conv2d_4/Conv2D;unknown_61:0:0 */;
    %19 = qnn.requantize(%18, %tvm_var_extract_const_22, %tvm_var_extract_const_23, 0.0957676f /* ty=float32 span=functional_1/activation_1/Relu;StatefulPartitionedCall/functional_1/activation_1/Relu;functional_1/batch_normalization_1/FusedBatchNormV3;StatefulPartitionedCall/functional_1/batch_normalization_1/FusedBatchNormV3;functional_1/depthwise_conv2d/depthwise;StatefulPartitionedCall/functional_1/depthwise_conv2d/depthwise;functional_1/depthwise_conv2d/BiasAdd;StatefulPartitionedCall/functional_1/depthwise_conv2d/BiasAdd;functional_1/conv2d_4/Conv2D;StatefulPartitionedCall/functional_1/conv2d_4/Conv2D;unknown_61:0:0 */, -128 /* ty=int32 span=functional_1/activation_1/Relu;StatefulPartitionedCall/functional_1/activation_1/Relu;functional_1/batch_normalization_1/FusedBatchNormV3;StatefulPartitionedCall/functional_1/batch_normalization_1/FusedBatchNormV3;functional_1/depthwise_conv2d/depthwise;StatefulPartitionedCall/functional_1/depthwise_conv2d/depthwise;functional_1/depthwise_conv2d/BiasAdd;StatefulPartitionedCall/functional_1/depthwise_conv2d/BiasAdd;functional_1/conv2d_4/Conv2D;StatefulPartitionedCall/functional_1/conv2d_4/Conv2D;unknown_61:0:0 */, axis=3, out_dtype="int8") /* ty=Tensor[(1, 25, 5, 64), int8] span=functional_1/activation_1/Relu;StatefulPartitionedCall/functional_1/activation_1/Relu;functional_1/batch_normalization_1/FusedBatchNormV3;StatefulPartitionedCall/functional_1/batch_normalization_1/FusedBatchNormV3;functional_1/depthwise_conv2d/depthwise;StatefulPartitionedCall/functional_1/depthwise_conv2d/depthwise;functional_1/depthwise_conv2d/BiasAdd;StatefulPartitionedCall/functional_1/depthwise_conv2d/BiasAdd;functional_1/conv2d_4/Conv2D;StatefulPartitionedCall/functional_1/conv2d_4/Conv2D;unknown_61:0:0 */;
    clip(%19, a_min=-128f, a_max=127f) /* ty=Tensor[(1, 25, 5, 64), int8] span=functional_1/activation_1/Relu;StatefulPartitionedCall/functional_1/activation_1/Relu;functional_1/batch_normalization_1/FusedBatchNormV3;StatefulPartitionedCall/functional_1/batch_normalization_1/FusedBatchNormV3;functional_1/depthwise_conv2d/depthwise;StatefulPartitionedCall/functional_1/depthwise_conv2d/depthwise;functional_1/depthwise_conv2d/BiasAdd;StatefulPartitionedCall/functional_1/depthwise_conv2d/BiasAdd;functional_1/conv2d_4/Conv2D;StatefulPartitionedCall/functional_1/conv2d_4/Conv2D;unknown_61:0:0 */
  } /* ty=fn (Tensor[(1, 25, 5, 64), int8], Tensor[(3, 3, 64, 1), int8], Tensor[(64), int32], Tensor[(64), float32], Tensor[(64), int32], Tensor[(64), float32], Tensor[(64), int32]) -> Tensor[(1, 25, 5, 64), int8] */;
  %20(%cmsis-nn_1_i0, %tvm_var_extract_const_24, %tvm_var_extract_const_25, %tvm_var_extract_const_26, %tvm_var_extract_const_27, %tvm_var_extract_const_28, %tvm_var_extract_const_29) /* ty=Tensor[(1, 25, 5, 64), int8] */
}

def @tvmgen_default_cmsis_nn_main_10(%cmsis-nn_10_i0: Tensor[(1, 64), int8] /* ty=Tensor[(1, 64), int8] */, %tvm_var_extract_const_164: Tensor[(12, 64), int8] /* ty=Tensor[(12, 64), int8] */, %tvm_var_extract_const_165: Tensor[(12), int32] /* ty=Tensor[(12), int32] */, Compiler="cmsis-nn", Primitive=1, Inline=1, global_symbol="tvmgen_default_cmsis_nn_main_10") -> Tensor[(1, 12), int8] {
  %23 = fn (%FunctionVar_0_0: Tensor[(1, 64), int8] /* ty=Tensor[(1, 64), int8] */, %tvm_var_extract_const_162: Tensor[(12, 64), int8] /* ty=Tensor[(12, 64), int8] */, %tvm_var_extract_const_163: Tensor[(12), int32] /* ty=Tensor[(12), int32] */, PartitionedFromPattern="qnn.dense_nn.bias_add_qnn.requantize_", Composite="cmsis-nn.qnn_fully_connected") -> Tensor[(1, 12), int8] {
    %21 = qnn.dense(%FunctionVar_0_0, %tvm_var_extract_const_162, -128 /* ty=int32 span=functional_1/dense/BiasAdd;StatefulPartitionedCall/functional_1/dense/BiasAdd:0:0 */, 0 /* ty=int32 span=functional_1/dense/BiasAdd;StatefulPartitionedCall/functional_1/dense/BiasAdd:0:0 */, 0.0958802f /* ty=float32 span=functional_1/dense/BiasAdd;StatefulPartitionedCall/functional_1/dense/BiasAdd:0:0 */, 0.0087238f /* ty=float32 span=functional_1/dense/BiasAdd;StatefulPartitionedCall/functional_1/dense/BiasAdd:0:0 */, units=12, out_dtype="int32") /* ty=Tensor[(1, 12), int32] span=functional_1/dense/BiasAdd;StatefulPartitionedCall/functional_1/dense/BiasAdd:0:0 */;
    %22 = nn.bias_add(%21, %tvm_var_extract_const_163) /* ty=Tensor[(1, 12), int32] span=functional_1/dense/BiasAdd;StatefulPartitionedCall/functional_1/dense/BiasAdd:0:0 */;
    qnn.requantize(%22, 0.00083644f /* ty=float32 span=functional_1/dense/BiasAdd;StatefulPartitionedCall/functional_1/dense/BiasAdd:0:0 */, 0 /* ty=int32 span=functional_1/dense/BiasAdd;StatefulPartitionedCall/functional_1/dense/BiasAdd:0:0 */, 0.142178f /* ty=float32 span=functional_1/dense/BiasAdd;StatefulPartitionedCall/functional_1/dense/BiasAdd:0:0 */, 33 /* ty=int32 span=functional_1/dense/BiasAdd;StatefulPartitionedCall/functional_1/dense/BiasAdd:0:0 */, out_dtype="int8") /* ty=Tensor[(1, 12), int8] span=functional_1/dense/BiasAdd;StatefulPartitionedCall/functional_1/dense/BiasAdd:0:0 */
  } /* ty=fn (Tensor[(1, 64), int8], Tensor[(12, 64), int8], Tensor[(12), int32]) -> Tensor[(1, 12), int8] */;
  %23(%cmsis-nn_10_i0, %tvm_var_extract_const_164, %tvm_var_extract_const_165) /* ty=Tensor[(1, 12), int8] */
}

def @tvmgen_default_cmsis_nn_main_11(%cmsis-nn_11_i0: Tensor[(1, 12), int8] /* ty=Tensor[(1, 12), int8] */, Compiler="cmsis-nn", Primitive=1, Inline=1, global_symbol="tvmgen_default_cmsis_nn_main_11") -> Tensor[(1, 12), int8] {
  %26 = fn (%FunctionVar_0_01: Tensor[(1, 12), int8] /* ty=Tensor[(1, 12), int8] */, PartitionedFromPattern="qnn.dequantize_nn.softmax_qnn.quantize_", Composite="cmsis-nn.qnn_softmax") -> Tensor[(1, 12), int8] {
    %24 = qnn.dequantize(%FunctionVar_0_01, 0.142178f /* ty=float32 span=Identity:0:0 */, 33 /* ty=int32 span=Identity:0:0 */, out_dtype="float32") /* ty=Tensor[(1, 12), float32] span=Identity:0:0 */;
    %25 = nn.softmax(%24) /* ty=Tensor[(1, 12), float32] span=Identity:0:0 */;
    qnn.quantize(%25, 0.00390625f /* ty=float32 span=Identity:0:0 */, -128 /* ty=int32 span=Identity:0:0 */, out_dtype="int8") /* ty=Tensor[(1, 12), int8] span=Identity:0:0 */
  } /* ty=fn (Tensor[(1, 12), int8]) -> Tensor[(1, 12), int8] */;
  %26(%cmsis-nn_11_i0) /* ty=Tensor[(1, 12), int8] */
}

def @tvmgen_default_cmsis_nn_main_2(%cmsis-nn_2_i0: Tensor[(1, 25, 5, 64), int8] /* ty=Tensor[(1, 25, 5, 64), int8] */, %tvm_var_extract_const_42: Tensor[(64, 1, 1, 64), int8] /* ty=Tensor[(64, 1, 1, 64), int8] */, %tvm_var_extract_const_43: Tensor[(64), int32] /* ty=Tensor[(64), int32] */, %tvm_var_extract_const_44: Tensor[(64), float32] /* ty=Tensor[(64), float32] */, %tvm_var_extract_const_45: Tensor[(64), int32] /* ty=Tensor[(64), int32] */, %tvm_var_extract_const_46: Tensor[(64), float32] /* ty=Tensor[(64), float32] */, %tvm_var_extract_const_47: Tensor[(64), int32] /* ty=Tensor[(64), int32] */, Compiler="cmsis-nn", Primitive=1, Inline=1, global_symbol="tvmgen_default_cmsis_nn_main_2") -> Tensor[(1, 25, 5, 64), int8] {
  %30 = fn (%FunctionVar_6_0: Tensor[(1, 25, 5, 64), int8] /* ty=Tensor[(1, 25, 5, 64), int8] */, %tvm_var_extract_const_36: Tensor[(64, 1, 1, 64), int8] /* ty=Tensor[(64, 1, 1, 64), int8] */, %tvm_var_extract_const_37: Tensor[(64), int32] /* ty=Tensor[(64), int32] */, %tvm_var_extract_const_38: Tensor[(64), float32] /* ty=Tensor[(64), float32] */, %tvm_var_extract_const_39: Tensor[(64), int32] /* ty=Tensor[(64), int32] */, %tvm_var_extract_const_40: Tensor[(64), float32] /* ty=Tensor[(64), float32] */, %tvm_var_extract_const_41: Tensor[(64), int32] /* ty=Tensor[(64), int32] */, PartitionedFromPattern="qnn.conv2d_nn.bias_add_qnn.requantize_clip_", Composite="cmsis-nn.qnn_conv2d") -> Tensor[(1, 25, 5, 64), int8] {
    %27 = qnn.conv2d(%FunctionVar_6_0, %tvm_var_extract_const_36, -128 /* ty=int32 span=functional_1/activation_2/Relu;StatefulPartitionedCall/functional_1/activation_2/Relu;functional_1/batch_normalization_2/FusedBatchNormV3;StatefulPartitionedCall/functional_1/batch_normalization_2/FusedBatchNormV3;unknown_12;functional_1/conv2d_1/BiasAdd;StatefulPartitionedCall/functional_1/conv2d_1/BiasAdd;functional_1/conv2d_4/Conv2D;StatefulPartitionedCall/functional_1/conv2d_4/Conv2D;functional_1/conv2d_1/Conv2D;StatefulPartitionedCall/functional_1/conv2d_1/Conv2D1:0:0 */, %tvm_var_extract_const_37, 0.0957676f /* ty=float32 span=functional_1/activation_2/Relu;StatefulPartitionedCall/functional_1/activation_2/Relu;functional_1/batch_normalization_2/FusedBatchNormV3;StatefulPartitionedCall/functional_1/batch_normalization_2/FusedBatchNormV3;unknown_12;functional_1/conv2d_1/BiasAdd;StatefulPartitionedCall/functional_1/conv2d_1/BiasAdd;functional_1/conv2d_4/Conv2D;StatefulPartitionedCall/functional_1/conv2d_4/Conv2D;functional_1/conv2d_1/Conv2D;StatefulPartitionedCall/functional_1/conv2d_1/Conv2D1:0:0 */, %tvm_var_extract_const_38, padding=[0, 0, 0, 0], channels=64, kernel_size=[1, 1], data_layout="NHWC", kernel_layout="OHWI", out_dtype="int32") /* ty=Tensor[(1, 25, 5, 64), int32] span=functional_1/activation_2/Relu;StatefulPartitionedCall/functional_1/activation_2/Relu;functional_1/batch_normalization_2/FusedBatchNormV3;StatefulPartitionedCall/functional_1/batch_normalization_2/FusedBatchNormV3;unknown_12;functional_1/conv2d_1/BiasAdd;StatefulPartitionedCall/functional_1/conv2d_1/BiasAdd;functional_1/conv2d_4/Conv2D;StatefulPartitionedCall/functional_1/conv2d_4/Conv2D;functional_1/conv2d_1/Conv2D;StatefulPartitionedCall/functional_1/conv2d_1/Conv2D1:0:0 */;
    %28 = nn.bias_add(%27, %tvm_var_extract_const_39, axis=3) /* ty=Tensor[(1, 25, 5, 64), int32] span=functional_1/activation_2/Relu;StatefulPartitionedCall/functional_1/activation_2/Relu;functional_1/batch_normalization_2/FusedBatchNormV3;StatefulPartitionedCall/functional_1/batch_normalization_2/FusedBatchNormV3;unknown_12;functional_1/conv2d_1/BiasAdd;StatefulPartitionedCall/functional_1/conv2d_1/BiasAdd;functional_1/conv2d_4/Conv2D;StatefulPartitionedCall/functional_1/conv2d_4/Conv2D;functional_1/conv2d_1/Conv2D;StatefulPartitionedCall/functional_1/conv2d_1/Conv2D1:0:0 */;
    %29 = qnn.requantize(%28, %tvm_var_extract_const_40, %tvm_var_extract_const_41, 0.0755872f /* ty=float32 span=functional_1/activation_2/Relu;StatefulPartitionedCall/functional_1/activation_2/Relu;functional_1/batch_normalization_2/FusedBatchNormV3;StatefulPartitionedCall/functional_1/batch_normalization_2/FusedBatchNormV3;unknown_12;functional_1/conv2d_1/BiasAdd;StatefulPartitionedCall/functional_1/conv2d_1/BiasAdd;functional_1/conv2d_4/Conv2D;StatefulPartitionedCall/functional_1/conv2d_4/Conv2D;functional_1/conv2d_1/Conv2D;StatefulPartitionedCall/functional_1/conv2d_1/Conv2D1:0:0 */, -128 /* ty=int32 span=functional_1/activation_2/Relu;StatefulPartitionedCall/functional_1/activation_2/Relu;functional_1/batch_normalization_2/FusedBatchNormV3;StatefulPartitionedCall/functional_1/batch_normalization_2/FusedBatchNormV3;unknown_12;functional_1/conv2d_1/BiasAdd;StatefulPartitionedCall/functional_1/conv2d_1/BiasAdd;functional_1/conv2d_4/Conv2D;StatefulPartitionedCall/functional_1/conv2d_4/Conv2D;functional_1/conv2d_1/Conv2D;StatefulPartitionedCall/functional_1/conv2d_1/Conv2D1:0:0 */, axis=3, out_dtype="int8") /* ty=Tensor[(1, 25, 5, 64), int8] span=functional_1/activation_2/Relu;StatefulPartitionedCall/functional_1/activation_2/Relu;functional_1/batch_normalization_2/FusedBatchNormV3;StatefulPartitionedCall/functional_1/batch_normalization_2/FusedBatchNormV3;unknown_12;functional_1/conv2d_1/BiasAdd;StatefulPartitionedCall/functional_1/conv2d_1/BiasAdd;functional_1/conv2d_4/Conv2D;StatefulPartitionedCall/functional_1/conv2d_4/Conv2D;functional_1/conv2d_1/Conv2D;StatefulPartitionedCall/functional_1/conv2d_1/Conv2D1:0:0 */;
    clip(%29, a_min=-128f, a_max=127f) /* ty=Tensor[(1, 25, 5, 64), int8] span=functional_1/activation_2/Relu;StatefulPartitionedCall/functional_1/activation_2/Relu;functional_1/batch_normalization_2/FusedBatchNormV3;StatefulPartitionedCall/functional_1/batch_normalization_2/FusedBatchNormV3;unknown_12;functional_1/conv2d_1/BiasAdd;StatefulPartitionedCall/functional_1/conv2d_1/BiasAdd;functional_1/conv2d_4/Conv2D;StatefulPartitionedCall/functional_1/conv2d_4/Conv2D;functional_1/conv2d_1/Conv2D;StatefulPartitionedCall/functional_1/conv2d_1/Conv2D1:0:0 */
  } /* ty=fn (Tensor[(1, 25, 5, 64), int8], Tensor[(64, 1, 1, 64), int8], Tensor[(64), int32], Tensor[(64), float32], Tensor[(64), int32], Tensor[(64), float32], Tensor[(64), int32]) -> Tensor[(1, 25, 5, 64), int8] */;
  %30(%cmsis-nn_2_i0, %tvm_var_extract_const_42, %tvm_var_extract_const_43, %tvm_var_extract_const_44, %tvm_var_extract_const_45, %tvm_var_extract_const_46, %tvm_var_extract_const_47) /* ty=Tensor[(1, 25, 5, 64), int8] */
}

def @tvmgen_default_cmsis_nn_main_3(%cmsis-nn_3_i0: Tensor[(1, 25, 5, 64), int8] /* ty=Tensor[(1, 25, 5, 64), int8] */, %tvm_var_extract_const_60: Tensor[(3, 3, 64, 1), int8] /* ty=Tensor[(3, 3, 64, 1), int8] */, %tvm_var_extract_const_61: Tensor[(64), int32] /* ty=Tensor[(64), int32] */, %tvm_var_extract_const_62: Tensor[(64), float32] /* ty=Tensor[(64), float32] */, %tvm_var_extract_const_63: Tensor[(64), int32] /* ty=Tensor[(64), int32] */, %tvm_var_extract_const_64: Tensor[(64), float32] /* ty=Tensor[(64), float32] */, %tvm_var_extract_const_65: Tensor[(64), int32] /* ty=Tensor[(64), int32] */, Compiler="cmsis-nn", Primitive=1, Inline=1, global_symbol="tvmgen_default_cmsis_nn_main_3") -> Tensor[(1, 25, 5, 64), int8] {
  %34 = fn (%FunctionVar_5_0: Tensor[(1, 25, 5, 64), int8] /* ty=Tensor[(1, 25, 5, 64), int8] */, %tvm_var_extract_const_54: Tensor[(3, 3, 64, 1), int8] /* ty=Tensor[(3, 3, 64, 1), int8] */, %tvm_var_extract_const_55: Tensor[(64), int32] /* ty=Tensor[(64), int32] */, %tvm_var_extract_const_56: Tensor[(64), float32] /* ty=Tensor[(64), float32] */, %tvm_var_extract_const_57: Tensor[(64), int32] /* ty=Tensor[(64), int32] */, %tvm_var_extract_const_58: Tensor[(64), float32] /* ty=Tensor[(64), float32] */, %tvm_var_extract_const_59: Tensor[(64), int32] /* ty=Tensor[(64), int32] */, PartitionedFromPattern="qnn.conv2d_nn.bias_add_qnn.requantize_clip_", Composite="cmsis-nn.qnn_conv2d") -> Tensor[(1, 25, 5, 64), int8] {
    %31 = qnn.conv2d(%FunctionVar_5_0, %tvm_var_extract_const_54, -128 /* ty=int32 span=functional_1/activation_3/Relu;StatefulPartitionedCall/functional_1/activation_3/Relu;functional_1/batch_normalization_3/FusedBatchNormV3;StatefulPartitionedCall/functional_1/batch_normalization_3/FusedBatchNormV3;functional_1/depthwise_conv2d_1/depthwise;StatefulPartitionedCall/functional_1/depthwise_conv2d_1/depthwise;functional_1/depthwise_conv2d_1/BiasAdd;StatefulPartitionedCall/functional_1/depthwise_conv2d_1/BiasAdd;functional_1/conv2d_4/Conv2D;StatefulPartitionedCall/functional_1/conv2d_4/Conv2D;unknown_181:0:0 */, %tvm_var_extract_const_55, 0.0755872f /* ty=float32 span=functional_1/activation_3/Relu;StatefulPartitionedCall/functional_1/activation_3/Relu;functional_1/batch_normalization_3/FusedBatchNormV3;StatefulPartitionedCall/functional_1/batch_normalization_3/FusedBatchNormV3;functional_1/depthwise_conv2d_1/depthwise;StatefulPartitionedCall/functional_1/depthwise_conv2d_1/depthwise;functional_1/depthwise_conv2d_1/BiasAdd;StatefulPartitionedCall/functional_1/depthwise_conv2d_1/BiasAdd;functional_1/conv2d_4/Conv2D;StatefulPartitionedCall/functional_1/conv2d_4/Conv2D;unknown_181:0:0 */, %tvm_var_extract_const_56, padding=[1, 1, 1, 1], groups=64, channels=64, kernel_size=[3, 3], data_layout="NHWC", kernel_layout="HWOI", out_dtype="int32") /* ty=Tensor[(1, 25, 5, 64), int32] span=functional_1/activation_3/Relu;StatefulPartitionedCall/functional_1/activation_3/Relu;functional_1/batch_normalization_3/FusedBatchNormV3;StatefulPartitionedCall/functional_1/batch_normalization_3/FusedBatchNormV3;functional_1/depthwise_conv2d_1/depthwise;StatefulPartitionedCall/functional_1/depthwise_conv2d_1/depthwise;functional_1/depthwise_conv2d_1/BiasAdd;StatefulPartitionedCall/functional_1/depthwise_conv2d_1/BiasAdd;functional_1/conv2d_4/Conv2D;StatefulPartitionedCall/functional_1/conv2d_4/Conv2D;unknown_181:0:0 */;
    %32 = nn.bias_add(%31, %tvm_var_extract_const_57, axis=3) /* ty=Tensor[(1, 25, 5, 64), int32] span=functional_1/activation_3/Relu;StatefulPartitionedCall/functional_1/activation_3/Relu;functional_1/batch_normalization_3/FusedBatchNormV3;StatefulPartitionedCall/functional_1/batch_normalization_3/FusedBatchNormV3;functional_1/depthwise_conv2d_1/depthwise;StatefulPartitionedCall/functional_1/depthwise_conv2d_1/depthwise;functional_1/depthwise_conv2d_1/BiasAdd;StatefulPartitionedCall/functional_1/depthwise_conv2d_1/BiasAdd;functional_1/conv2d_4/Conv2D;StatefulPartitionedCall/functional_1/conv2d_4/Conv2D;unknown_181:0:0 */;
    %33 = qnn.requantize(%32, %tvm_var_extract_const_58, %tvm_var_extract_const_59, 0.0674262f /* ty=float32 span=functional_1/activation_3/Relu;StatefulPartitionedCall/functional_1/activation_3/Relu;functional_1/batch_normalization_3/FusedBatchNormV3;StatefulPartitionedCall/functional_1/batch_normalization_3/FusedBatchNormV3;functional_1/depthwise_conv2d_1/depthwise;StatefulPartitionedCall/functional_1/depthwise_conv2d_1/depthwise;functional_1/depthwise_conv2d_1/BiasAdd;StatefulPartitionedCall/functional_1/depthwise_conv2d_1/BiasAdd;functional_1/conv2d_4/Conv2D;StatefulPartitionedCall/functional_1/conv2d_4/Conv2D;unknown_181:0:0 */, -128 /* ty=int32 span=functional_1/activation_3/Relu;StatefulPartitionedCall/functional_1/activation_3/Relu;functional_1/batch_normalization_3/FusedBatchNormV3;StatefulPartitionedCall/functional_1/batch_normalization_3/FusedBatchNormV3;functional_1/depthwise_conv2d_1/depthwise;StatefulPartitionedCall/functional_1/depthwise_conv2d_1/depthwise;functional_1/depthwise_conv2d_1/BiasAdd;StatefulPartitionedCall/functional_1/depthwise_conv2d_1/BiasAdd;functional_1/conv2d_4/Conv2D;StatefulPartitionedCall/functional_1/conv2d_4/Conv2D;unknown_181:0:0 */, axis=3, out_dtype="int8") /* ty=Tensor[(1, 25, 5, 64), int8] span=functional_1/activation_3/Relu;StatefulPartitionedCall/functional_1/activation_3/Relu;functional_1/batch_normalization_3/FusedBatchNormV3;StatefulPartitionedCall/functional_1/batch_normalization_3/FusedBatchNormV3;functional_1/depthwise_conv2d_1/depthwise;StatefulPartitionedCall/functional_1/depthwise_conv2d_1/depthwise;functional_1/depthwise_conv2d_1/BiasAdd;StatefulPartitionedCall/functional_1/depthwise_conv2d_1/BiasAdd;functional_1/conv2d_4/Conv2D;StatefulPartitionedCall/functional_1/conv2d_4/Conv2D;unknown_181:0:0 */;
    clip(%33, a_min=-128f, a_max=127f) /* ty=Tensor[(1, 25, 5, 64), int8] span=functional_1/activation_3/Relu;StatefulPartitionedCall/functional_1/activation_3/Relu;functional_1/batch_normalization_3/FusedBatchNormV3;StatefulPartitionedCall/functional_1/batch_normalization_3/FusedBatchNormV3;functional_1/depthwise_conv2d_1/depthwise;StatefulPartitionedCall/functional_1/depthwise_conv2d_1/depthwise;functional_1/depthwise_conv2d_1/BiasAdd;StatefulPartitionedCall/functional_1/depthwise_conv2d_1/BiasAdd;functional_1/conv2d_4/Conv2D;StatefulPartitionedCall/functional_1/conv2d_4/Conv2D;unknown_181:0:0 */
  } /* ty=fn (Tensor[(1, 25, 5, 64), int8], Tensor[(3, 3, 64, 1), int8], Tensor[(64), int32], Tensor[(64), float32], Tensor[(64), int32], Tensor[(64), float32], Tensor[(64), int32]) -> Tensor[(1, 25, 5, 64), int8] */;
  %34(%cmsis-nn_3_i0, %tvm_var_extract_const_60, %tvm_var_extract_const_61, %tvm_var_extract_const_62, %tvm_var_extract_const_63, %tvm_var_extract_const_64, %tvm_var_extract_const_65) /* ty=Tensor[(1, 25, 5, 64), int8] */
}

def @tvmgen_default_cmsis_nn_main_4(%cmsis-nn_4_i0: Tensor[(1, 25, 5, 64), int8] /* ty=Tensor[(1, 25, 5, 64), int8] */, %tvm_var_extract_const_78: Tensor[(64, 1, 1, 64), int8] /* ty=Tensor[(64, 1, 1, 64), int8] */, %tvm_var_extract_const_79: Tensor[(64), int32] /* ty=Tensor[(64), int32] */, %tvm_var_extract_const_80: Tensor[(64), float32] /* ty=Tensor[(64), float32] */, %tvm_var_extract_const_81: Tensor[(64), int32] /* ty=Tensor[(64), int32] */, %tvm_var_extract_const_82: Tensor[(64), float32] /* ty=Tensor[(64), float32] */, %tvm_var_extract_const_83: Tensor[(64), int32] /* ty=Tensor[(64), int32] */, Compiler="cmsis-nn", Primitive=1, Inline=1, global_symbol="tvmgen_default_cmsis_nn_main_4") -> Tensor[(1, 25, 5, 64), int8] {
  %38 = fn (%FunctionVar_4_0: Tensor[(1, 25, 5, 64), int8] /* ty=Tensor[(1, 25, 5, 64), int8] */, %tvm_var_extract_const_72: Tensor[(64, 1, 1, 64), int8] /* ty=Tensor[(64, 1, 1, 64), int8] */, %tvm_var_extract_const_73: Tensor[(64), int32] /* ty=Tensor[(64), int32] */, %tvm_var_extract_const_74: Tensor[(64), float32] /* ty=Tensor[(64), float32] */, %tvm_var_extract_const_75: Tensor[(64), int32] /* ty=Tensor[(64), int32] */, %tvm_var_extract_const_76: Tensor[(64), float32] /* ty=Tensor[(64), float32] */, %tvm_var_extract_const_77: Tensor[(64), int32] /* ty=Tensor[(64), int32] */, PartitionedFromPattern="qnn.conv2d_nn.bias_add_qnn.requantize_clip_", Composite="cmsis-nn.qnn_conv2d") -> Tensor[(1, 25, 5, 64), int8] {
    %35 = qnn.conv2d(%FunctionVar_4_0, %tvm_var_extract_const_72, -128 /* ty=int32 span=functional_1/activation_4/Relu;StatefulPartitionedCall/functional_1/activation_4/Relu;functional_1/batch_normalization_4/FusedBatchNormV3;StatefulPartitionedCall/functional_1/batch_normalization_4/FusedBatchNormV3;unknown_24;functional_1/conv2d_2/BiasAdd;StatefulPartitionedCall/functional_1/conv2d_2/BiasAdd;functional_1/conv2d_4/Conv2D;StatefulPartitionedCall/functional_1/conv2d_4/Conv2D;functional_1/conv2d_2/Conv2D;StatefulPartitionedCall/functional_1/conv2d_2/Conv2D1:0:0 */, %tvm_var_extract_const_73, 0.0674262f /* ty=float32 span=functional_1/activation_4/Relu;StatefulPartitionedCall/functional_1/activation_4/Relu;functional_1/batch_normalization_4/FusedBatchNormV3;StatefulPartitionedCall/functional_1/batch_normalization_4/FusedBatchNormV3;unknown_24;functional_1/conv2d_2/BiasAdd;StatefulPartitionedCall/functional_1/conv2d_2/BiasAdd;functional_1/conv2d_4/Conv2D;StatefulPartitionedCall/functional_1/conv2d_4/Conv2D;functional_1/conv2d_2/Conv2D;StatefulPartitionedCall/functional_1/conv2d_2/Conv2D1:0:0 */, %tvm_var_extract_const_74, padding=[0, 0, 0, 0], channels=64, kernel_size=[1, 1], data_layout="NHWC", kernel_layout="OHWI", out_dtype="int32") /* ty=Tensor[(1, 25, 5, 64), int32] span=functional_1/activation_4/Relu;StatefulPartitionedCall/functional_1/activation_4/Relu;functional_1/batch_normalization_4/FusedBatchNormV3;StatefulPartitionedCall/functional_1/batch_normalization_4/FusedBatchNormV3;unknown_24;functional_1/conv2d_2/BiasAdd;StatefulPartitionedCall/functional_1/conv2d_2/BiasAdd;functional_1/conv2d_4/Conv2D;StatefulPartitionedCall/functional_1/conv2d_4/Conv2D;functional_1/conv2d_2/Conv2D;StatefulPartitionedCall/functional_1/conv2d_2/Conv2D1:0:0 */;
    %36 = nn.bias_add(%35, %tvm_var_extract_const_75, axis=3) /* ty=Tensor[(1, 25, 5, 64), int32] span=functional_1/activation_4/Relu;StatefulPartitionedCall/functional_1/activation_4/Relu;functional_1/batch_normalization_4/FusedBatchNormV3;StatefulPartitionedCall/functional_1/batch_normalization_4/FusedBatchNormV3;unknown_24;functional_1/conv2d_2/BiasAdd;StatefulPartitionedCall/functional_1/conv2d_2/BiasAdd;functional_1/conv2d_4/Conv2D;StatefulPartitionedCall/functional_1/conv2d_4/Conv2D;functional_1/conv2d_2/Conv2D;StatefulPartitionedCall/functional_1/conv2d_2/Conv2D1:0:0 */;
    %37 = qnn.requantize(%36, %tvm_var_extract_const_76, %tvm_var_extract_const_77, 0.0540593f /* ty=float32 span=functional_1/activation_4/Relu;StatefulPartitionedCall/functional_1/activation_4/Relu;functional_1/batch_normalization_4/FusedBatchNormV3;StatefulPartitionedCall/functional_1/batch_normalization_4/FusedBatchNormV3;unknown_24;functional_1/conv2d_2/BiasAdd;StatefulPartitionedCall/functional_1/conv2d_2/BiasAdd;functional_1/conv2d_4/Conv2D;StatefulPartitionedCall/functional_1/conv2d_4/Conv2D;functional_1/conv2d_2/Conv2D;StatefulPartitionedCall/functional_1/conv2d_2/Conv2D1:0:0 */, -128 /* ty=int32 span=functional_1/activation_4/Relu;StatefulPartitionedCall/functional_1/activation_4/Relu;functional_1/batch_normalization_4/FusedBatchNormV3;StatefulPartitionedCall/functional_1/batch_normalization_4/FusedBatchNormV3;unknown_24;functional_1/conv2d_2/BiasAdd;StatefulPartitionedCall/functional_1/conv2d_2/BiasAdd;functional_1/conv2d_4/Conv2D;StatefulPartitionedCall/functional_1/conv2d_4/Conv2D;functional_1/conv2d_2/Conv2D;StatefulPartitionedCall/functional_1/conv2d_2/Conv2D1:0:0 */, axis=3, out_dtype="int8") /* ty=Tensor[(1, 25, 5, 64), int8] span=functional_1/activation_4/Relu;StatefulPartitionedCall/functional_1/activation_4/Relu;functional_1/batch_normalization_4/FusedBatchNormV3;StatefulPartitionedCall/functional_1/batch_normalization_4/FusedBatchNormV3;unknown_24;functional_1/conv2d_2/BiasAdd;StatefulPartitionedCall/functional_1/conv2d_2/BiasAdd;functional_1/conv2d_4/Conv2D;StatefulPartitionedCall/functional_1/conv2d_4/Conv2D;functional_1/conv2d_2/Conv2D;StatefulPartitionedCall/functional_1/conv2d_2/Conv2D1:0:0 */;
    clip(%37, a_min=-128f, a_max=127f) /* ty=Tensor[(1, 25, 5, 64), int8] span=functional_1/activation_4/Relu;StatefulPartitionedCall/functional_1/activation_4/Relu;functional_1/batch_normalization_4/FusedBatchNormV3;StatefulPartitionedCall/functional_1/batch_normalization_4/FusedBatchNormV3;unknown_24;functional_1/conv2d_2/BiasAdd;StatefulPartitionedCall/functional_1/conv2d_2/BiasAdd;functional_1/conv2d_4/Conv2D;StatefulPartitionedCall/functional_1/conv2d_4/Conv2D;functional_1/conv2d_2/Conv2D;StatefulPartitionedCall/functional_1/conv2d_2/Conv2D1:0:0 */
  } /* ty=fn (Tensor[(1, 25, 5, 64), int8], Tensor[(64, 1, 1, 64), int8], Tensor[(64), int32], Tensor[(64), float32], Tensor[(64), int32], Tensor[(64), float32], Tensor[(64), int32]) -> Tensor[(1, 25, 5, 64), int8] */;
  %38(%cmsis-nn_4_i0, %tvm_var_extract_const_78, %tvm_var_extract_const_79, %tvm_var_extract_const_80, %tvm_var_extract_const_81, %tvm_var_extract_const_82, %tvm_var_extract_const_83) /* ty=Tensor[(1, 25, 5, 64), int8] */
}

def @tvmgen_default_cmsis_nn_main_5(%cmsis-nn_5_i0: Tensor[(1, 25, 5, 64), int8] /* ty=Tensor[(1, 25, 5, 64), int8] */, %tvm_var_extract_const_96: Tensor[(3, 3, 64, 1), int8] /* ty=Tensor[(3, 3, 64, 1), int8] */, %tvm_var_extract_const_97: Tensor[(64), int32] /* ty=Tensor[(64), int32] */, %tvm_var_extract_const_98: Tensor[(64), float32] /* ty=Tensor[(64), float32] */, %tvm_var_extract_const_99: Tensor[(64), int32] /* ty=Tensor[(64), int32] */, %tvm_var_extract_const_100: Tensor[(64), float32] /* ty=Tensor[(64), float32] */, %tvm_var_extract_const_101: Tensor[(64), int32] /* ty=Tensor[(64), int32] */, Compiler="cmsis-nn", Primitive=1, Inline=1, global_symbol="tvmgen_default_cmsis_nn_main_5") -> Tensor[(1, 25, 5, 64), int8] {
  %42 = fn (%FunctionVar_3_0: Tensor[(1, 25, 5, 64), int8] /* ty=Tensor[(1, 25, 5, 64), int8] */, %tvm_var_extract_const_90: Tensor[(3, 3, 64, 1), int8] /* ty=Tensor[(3, 3, 64, 1), int8] */, %tvm_var_extract_const_91: Tensor[(64), int32] /* ty=Tensor[(64), int32] */, %tvm_var_extract_const_92: Tensor[(64), float32] /* ty=Tensor[(64), float32] */, %tvm_var_extract_const_93: Tensor[(64), int32] /* ty=Tensor[(64), int32] */, %tvm_var_extract_const_94: Tensor[(64), float32] /* ty=Tensor[(64), float32] */, %tvm_var_extract_const_95: Tensor[(64), int32] /* ty=Tensor[(64), int32] */, PartitionedFromPattern="qnn.conv2d_nn.bias_add_qnn.requantize_clip_", Composite="cmsis-nn.qnn_conv2d") -> Tensor[(1, 25, 5, 64), int8] {
    %39 = qnn.conv2d(%FunctionVar_3_0, %tvm_var_extract_const_90, -128 /* ty=int32 span=functional_1/activation_5/Relu;StatefulPartitionedCall/functional_1/activation_5/Relu;functional_1/batch_normalization_5/FusedBatchNormV3;StatefulPartitionedCall/functional_1/batch_normalization_5/FusedBatchNormV3;functional_1/depthwise_conv2d_2/depthwise;StatefulPartitionedCall/functional_1/depthwise_conv2d_2/depthwise;functional_1/depthwise_conv2d_2/BiasAdd;StatefulPartitionedCall/functional_1/depthwise_conv2d_2/BiasAdd;functional_1/conv2d_4/Conv2D;StatefulPartitionedCall/functional_1/conv2d_4/Conv2D;unknown_301:0:0 */, %tvm_var_extract_const_91, 0.0540593f /* ty=float32 span=functional_1/activation_5/Relu;StatefulPartitionedCall/functional_1/activation_5/Relu;functional_1/batch_normalization_5/FusedBatchNormV3;StatefulPartitionedCall/functional_1/batch_normalization_5/FusedBatchNormV3;functional_1/depthwise_conv2d_2/depthwise;StatefulPartitionedCall/functional_1/depthwise_conv2d_2/depthwise;functional_1/depthwise_conv2d_2/BiasAdd;StatefulPartitionedCall/functional_1/depthwise_conv2d_2/BiasAdd;functional_1/conv2d_4/Conv2D;StatefulPartitionedCall/functional_1/conv2d_4/Conv2D;unknown_301:0:0 */, %tvm_var_extract_const_92, padding=[1, 1, 1, 1], groups=64, channels=64, kernel_size=[3, 3], data_layout="NHWC", kernel_layout="HWOI", out_dtype="int32") /* ty=Tensor[(1, 25, 5, 64), int32] span=functional_1/activation_5/Relu;StatefulPartitionedCall/functional_1/activation_5/Relu;functional_1/batch_normalization_5/FusedBatchNormV3;StatefulPartitionedCall/functional_1/batch_normalization_5/FusedBatchNormV3;functional_1/depthwise_conv2d_2/depthwise;StatefulPartitionedCall/functional_1/depthwise_conv2d_2/depthwise;functional_1/depthwise_conv2d_2/BiasAdd;StatefulPartitionedCall/functional_1/depthwise_conv2d_2/BiasAdd;functional_1/conv2d_4/Conv2D;StatefulPartitionedCall/functional_1/conv2d_4/Conv2D;unknown_301:0:0 */;
    %40 = nn.bias_add(%39, %tvm_var_extract_const_93, axis=3) /* ty=Tensor[(1, 25, 5, 64), int32] span=functional_1/activation_5/Relu;StatefulPartitionedCall/functional_1/activation_5/Relu;functional_1/batch_normalization_5/FusedBatchNormV3;StatefulPartitionedCall/functional_1/batch_normalization_5/FusedBatchNormV3;functional_1/depthwise_conv2d_2/depthwise;StatefulPartitionedCall/functional_1/depthwise_conv2d_2/depthwise;functional_1/depthwise_conv2d_2/BiasAdd;StatefulPartitionedCall/functional_1/depthwise_conv2d_2/BiasAdd;functional_1/conv2d_4/Conv2D;StatefulPartitionedCall/functional_1/conv2d_4/Conv2D;unknown_301:0:0 */;
    %41 = qnn.requantize(%40, %tvm_var_extract_const_94, %tvm_var_extract_const_95, 0.0536146f /* ty=float32 span=functional_1/activation_5/Relu;StatefulPartitionedCall/functional_1/activation_5/Relu;functional_1/batch_normalization_5/FusedBatchNormV3;StatefulPartitionedCall/functional_1/batch_normalization_5/FusedBatchNormV3;functional_1/depthwise_conv2d_2/depthwise;StatefulPartitionedCall/functional_1/depthwise_conv2d_2/depthwise;functional_1/depthwise_conv2d_2/BiasAdd;StatefulPartitionedCall/functional_1/depthwise_conv2d_2/BiasAdd;functional_1/conv2d_4/Conv2D;StatefulPartitionedCall/functional_1/conv2d_4/Conv2D;unknown_301:0:0 */, -128 /* ty=int32 span=functional_1/activation_5/Relu;StatefulPartitionedCall/functional_1/activation_5/Relu;functional_1/batch_normalization_5/FusedBatchNormV3;StatefulPartitionedCall/functional_1/batch_normalization_5/FusedBatchNormV3;functional_1/depthwise_conv2d_2/depthwise;StatefulPartitionedCall/functional_1/depthwise_conv2d_2/depthwise;functional_1/depthwise_conv2d_2/BiasAdd;StatefulPartitionedCall/functional_1/depthwise_conv2d_2/BiasAdd;functional_1/conv2d_4/Conv2D;StatefulPartitionedCall/functional_1/conv2d_4/Conv2D;unknown_301:0:0 */, axis=3, out_dtype="int8") /* ty=Tensor[(1, 25, 5, 64), int8] span=functional_1/activation_5/Relu;StatefulPartitionedCall/functional_1/activation_5/Relu;functional_1/batch_normalization_5/FusedBatchNormV3;StatefulPartitionedCall/functional_1/batch_normalization_5/FusedBatchNormV3;functional_1/depthwise_conv2d_2/depthwise;StatefulPartitionedCall/functional_1/depthwise_conv2d_2/depthwise;functional_1/depthwise_conv2d_2/BiasAdd;StatefulPartitionedCall/functional_1/depthwise_conv2d_2/BiasAdd;functional_1/conv2d_4/Conv2D;StatefulPartitionedCall/functional_1/conv2d_4/Conv2D;unknown_301:0:0 */;
    clip(%41, a_min=-128f, a_max=127f) /* ty=Tensor[(1, 25, 5, 64), int8] span=functional_1/activation_5/Relu;StatefulPartitionedCall/functional_1/activation_5/Relu;functional_1/batch_normalization_5/FusedBatchNormV3;StatefulPartitionedCall/functional_1/batch_normalization_5/FusedBatchNormV3;functional_1/depthwise_conv2d_2/depthwise;StatefulPartitionedCall/functional_1/depthwise_conv2d_2/depthwise;functional_1/depthwise_conv2d_2/BiasAdd;StatefulPartitionedCall/functional_1/depthwise_conv2d_2/BiasAdd;functional_1/conv2d_4/Conv2D;StatefulPartitionedCall/functional_1/conv2d_4/Conv2D;unknown_301:0:0 */
  } /* ty=fn (Tensor[(1, 25, 5, 64), int8], Tensor[(3, 3, 64, 1), int8], Tensor[(64), int32], Tensor[(64), float32], Tensor[(64), int32], Tensor[(64), float32], Tensor[(64), int32]) -> Tensor[(1, 25, 5, 64), int8] */;
  %42(%cmsis-nn_5_i0, %tvm_var_extract_const_96, %tvm_var_extract_const_97, %tvm_var_extract_const_98, %tvm_var_extract_const_99, %tvm_var_extract_const_100, %tvm_var_extract_const_101) /* ty=Tensor[(1, 25, 5, 64), int8] */
}

def @tvmgen_default_cmsis_nn_main_6(%cmsis-nn_6_i0: Tensor[(1, 25, 5, 64), int8] /* ty=Tensor[(1, 25, 5, 64), int8] */, %tvm_var_extract_const_114: Tensor[(64, 1, 1, 64), int8] /* ty=Tensor[(64, 1, 1, 64), int8] */, %tvm_var_extract_const_115: Tensor[(64), int32] /* ty=Tensor[(64), int32] */, %tvm_var_extract_const_116: Tensor[(64), float32] /* ty=Tensor[(64), float32] */, %tvm_var_extract_const_117: Tensor[(64), int32] /* ty=Tensor[(64), int32] */, %tvm_var_extract_const_118: Tensor[(64), float32] /* ty=Tensor[(64), float32] */, %tvm_var_extract_const_119: Tensor[(64), int32] /* ty=Tensor[(64), int32] */, Compiler="cmsis-nn", Primitive=1, Inline=1, global_symbol="tvmgen_default_cmsis_nn_main_6") -> Tensor[(1, 25, 5, 64), int8] {
  %46 = fn (%FunctionVar_2_0: Tensor[(1, 25, 5, 64), int8] /* ty=Tensor[(1, 25, 5, 64), int8] */, %tvm_var_extract_const_108: Tensor[(64, 1, 1, 64), int8] /* ty=Tensor[(64, 1, 1, 64), int8] */, %tvm_var_extract_const_109: Tensor[(64), int32] /* ty=Tensor[(64), int32] */, %tvm_var_extract_const_110: Tensor[(64), float32] /* ty=Tensor[(64), float32] */, %tvm_var_extract_const_111: Tensor[(64), int32] /* ty=Tensor[(64), int32] */, %tvm_var_extract_const_112: Tensor[(64), float32] /* ty=Tensor[(64), float32] */, %tvm_var_extract_const_113: Tensor[(64), int32] /* ty=Tensor[(64), int32] */, PartitionedFromPattern="qnn.conv2d_nn.bias_add_qnn.requantize_clip_", Composite="cmsis-nn.qnn_conv2d") -> Tensor[(1, 25, 5, 64), int8] {
    %43 = qnn.conv2d(%FunctionVar_2_0, %tvm_var_extract_const_108, -128 /* ty=int32 span=functional_1/activation_6/Relu;StatefulPartitionedCall/functional_1/activation_6/Relu;functional_1/batch_normalization_6/FusedBatchNormV3;StatefulPartitionedCall/functional_1/batch_normalization_6/FusedBatchNormV3;unknown_36;functional_1/conv2d_3/BiasAdd;StatefulPartitionedCall/functional_1/conv2d_3/BiasAdd;functional_1/conv2d_4/Conv2D;StatefulPartitionedCall/functional_1/conv2d_4/Conv2D;functional_1/conv2d_3/Conv2D;StatefulPartitionedCall/functional_1/conv2d_3/Conv2D1:0:0 */, %tvm_var_extract_const_109, 0.0536146f /* ty=float32 span=functional_1/activation_6/Relu;StatefulPartitionedCall/functional_1/activation_6/Relu;functional_1/batch_normalization_6/FusedBatchNormV3;StatefulPartitionedCall/functional_1/batch_normalization_6/FusedBatchNormV3;unknown_36;functional_1/conv2d_3/BiasAdd;StatefulPartitionedCall/functional_1/conv2d_3/BiasAdd;functional_1/conv2d_4/Conv2D;StatefulPartitionedCall/functional_1/conv2d_4/Conv2D;functional_1/conv2d_3/Conv2D;StatefulPartitionedCall/functional_1/conv2d_3/Conv2D1:0:0 */, %tvm_var_extract_const_110, padding=[0, 0, 0, 0], channels=64, kernel_size=[1, 1], data_layout="NHWC", kernel_layout="OHWI", out_dtype="int32") /* ty=Tensor[(1, 25, 5, 64), int32] span=functional_1/activation_6/Relu;StatefulPartitionedCall/functional_1/activation_6/Relu;functional_1/batch_normalization_6/FusedBatchNormV3;StatefulPartitionedCall/functional_1/batch_normalization_6/FusedBatchNormV3;unknown_36;functional_1/conv2d_3/BiasAdd;StatefulPartitionedCall/functional_1/conv2d_3/BiasAdd;functional_1/conv2d_4/Conv2D;StatefulPartitionedCall/functional_1/conv2d_4/Conv2D;functional_1/conv2d_3/Conv2D;StatefulPartitionedCall/functional_1/conv2d_3/Conv2D1:0:0 */;
    %44 = nn.bias_add(%43, %tvm_var_extract_const_111, axis=3) /* ty=Tensor[(1, 25, 5, 64), int32] span=functional_1/activation_6/Relu;StatefulPartitionedCall/functional_1/activation_6/Relu;functional_1/batch_normalization_6/FusedBatchNormV3;StatefulPartitionedCall/functional_1/batch_normalization_6/FusedBatchNormV3;unknown_36;functional_1/conv2d_3/BiasAdd;StatefulPartitionedCall/functional_1/conv2d_3/BiasAdd;functional_1/conv2d_4/Conv2D;StatefulPartitionedCall/functional_1/conv2d_4/Conv2D;functional_1/conv2d_3/Conv2D;StatefulPartitionedCall/functional_1/conv2d_3/Conv2D1:0:0 */;
    %45 = qnn.requantize(%44, %tvm_var_extract_const_112, %tvm_var_extract_const_113, 0.0334934f /* ty=float32 span=functional_1/activation_6/Relu;StatefulPartitionedCall/functional_1/activation_6/Relu;functional_1/batch_normalization_6/FusedBatchNormV3;StatefulPartitionedCall/functional_1/batch_normalization_6/FusedBatchNormV3;unknown_36;functional_1/conv2d_3/BiasAdd;StatefulPartitionedCall/functional_1/conv2d_3/BiasAdd;functional_1/conv2d_4/Conv2D;StatefulPartitionedCall/functional_1/conv2d_4/Conv2D;functional_1/conv2d_3/Conv2D;StatefulPartitionedCall/functional_1/conv2d_3/Conv2D1:0:0 */, -128 /* ty=int32 span=functional_1/activation_6/Relu;StatefulPartitionedCall/functional_1/activation_6/Relu;functional_1/batch_normalization_6/FusedBatchNormV3;StatefulPartitionedCall/functional_1/batch_normalization_6/FusedBatchNormV3;unknown_36;functional_1/conv2d_3/BiasAdd;StatefulPartitionedCall/functional_1/conv2d_3/BiasAdd;functional_1/conv2d_4/Conv2D;StatefulPartitionedCall/functional_1/conv2d_4/Conv2D;functional_1/conv2d_3/Conv2D;StatefulPartitionedCall/functional_1/conv2d_3/Conv2D1:0:0 */, axis=3, out_dtype="int8") /* ty=Tensor[(1, 25, 5, 64), int8] span=functional_1/activation_6/Relu;StatefulPartitionedCall/functional_1/activation_6/Relu;functional_1/batch_normalization_6/FusedBatchNormV3;StatefulPartitionedCall/functional_1/batch_normalization_6/FusedBatchNormV3;unknown_36;functional_1/conv2d_3/BiasAdd;StatefulPartitionedCall/functional_1/conv2d_3/BiasAdd;functional_1/conv2d_4/Conv2D;StatefulPartitionedCall/functional_1/conv2d_4/Conv2D;functional_1/conv2d_3/Conv2D;StatefulPartitionedCall/functional_1/conv2d_3/Conv2D1:0:0 */;
    clip(%45, a_min=-128f, a_max=127f) /* ty=Tensor[(1, 25, 5, 64), int8] span=functional_1/activation_6/Relu;StatefulPartitionedCall/functional_1/activation_6/Relu;functional_1/batch_normalization_6/FusedBatchNormV3;StatefulPartitionedCall/functional_1/batch_normalization_6/FusedBatchNormV3;unknown_36;functional_1/conv2d_3/BiasAdd;StatefulPartitionedCall/functional_1/conv2d_3/BiasAdd;functional_1/conv2d_4/Conv2D;StatefulPartitionedCall/functional_1/conv2d_4/Conv2D;functional_1/conv2d_3/Conv2D;StatefulPartitionedCall/functional_1/conv2d_3/Conv2D1:0:0 */
  } /* ty=fn (Tensor[(1, 25, 5, 64), int8], Tensor[(64, 1, 1, 64), int8], Tensor[(64), int32], Tensor[(64), float32], Tensor[(64), int32], Tensor[(64), float32], Tensor[(64), int32]) -> Tensor[(1, 25, 5, 64), int8] */;
  %46(%cmsis-nn_6_i0, %tvm_var_extract_const_114, %tvm_var_extract_const_115, %tvm_var_extract_const_116, %tvm_var_extract_const_117, %tvm_var_extract_const_118, %tvm_var_extract_const_119) /* ty=Tensor[(1, 25, 5, 64), int8] */
}

def @tvmgen_default_cmsis_nn_main_7(%cmsis-nn_7_i0: Tensor[(1, 25, 5, 64), int8] /* ty=Tensor[(1, 25, 5, 64), int8] */, %tvm_var_extract_const_132: Tensor[(3, 3, 64, 1), int8] /* ty=Tensor[(3, 3, 64, 1), int8] */, %tvm_var_extract_const_133: Tensor[(64), int32] /* ty=Tensor[(64), int32] */, %tvm_var_extract_const_134: Tensor[(64), float32] /* ty=Tensor[(64), float32] */, %tvm_var_extract_const_135: Tensor[(64), int32] /* ty=Tensor[(64), int32] */, %tvm_var_extract_const_136: Tensor[(64), float32] /* ty=Tensor[(64), float32] */, %tvm_var_extract_const_137: Tensor[(64), int32] /* ty=Tensor[(64), int32] */, Compiler="cmsis-nn", Primitive=1, Inline=1, global_symbol="tvmgen_default_cmsis_nn_main_7") -> Tensor[(1, 25, 5, 64), int8] {
  %50 = fn (%FunctionVar_1_0: Tensor[(1, 25, 5, 64), int8] /* ty=Tensor[(1, 25, 5, 64), int8] */, %tvm_var_extract_const_126: Tensor[(3, 3, 64, 1), int8] /* ty=Tensor[(3, 3, 64, 1), int8] */, %tvm_var_extract_const_127: Tensor[(64), int32] /* ty=Tensor[(64), int32] */, %tvm_var_extract_const_128: Tensor[(64), float32] /* ty=Tensor[(64), float32] */, %tvm_var_extract_const_129: Tensor[(64), int32] /* ty=Tensor[(64), int32] */, %tvm_var_extract_const_130: Tensor[(64), float32] /* ty=Tensor[(64), float32] */, %tvm_var_extract_const_131: Tensor[(64), int32] /* ty=Tensor[(64), int32] */, PartitionedFromPattern="qnn.conv2d_nn.bias_add_qnn.requantize_clip_", Composite="cmsis-nn.qnn_conv2d") -> Tensor[(1, 25, 5, 64), int8] {
    %47 = qnn.conv2d(%FunctionVar_1_0, %tvm_var_extract_const_126, -128 /* ty=int32 span=functional_1/activation_7/Relu;StatefulPartitionedCall/functional_1/activation_7/Relu;functional_1/batch_normalization_7/FusedBatchNormV3;StatefulPartitionedCall/functional_1/batch_normalization_7/FusedBatchNormV3;functional_1/depthwise_conv2d_3/depthwise;StatefulPartitionedCall/functional_1/depthwise_conv2d_3/depthwise;functional_1/depthwise_conv2d_3/BiasAdd;StatefulPartitionedCall/functional_1/depthwise_conv2d_3/BiasAdd;functional_1/conv2d_4/Conv2D;StatefulPartitionedCall/functional_1/conv2d_4/Conv2D;unknown_421:0:0 */, %tvm_var_extract_const_127, 0.0334934f /* ty=float32 span=functional_1/activation_7/Relu;StatefulPartitionedCall/functional_1/activation_7/Relu;functional_1/batch_normalization_7/FusedBatchNormV3;StatefulPartitionedCall/functional_1/batch_normalization_7/FusedBatchNormV3;functional_1/depthwise_conv2d_3/depthwise;StatefulPartitionedCall/functional_1/depthwise_conv2d_3/depthwise;functional_1/depthwise_conv2d_3/BiasAdd;StatefulPartitionedCall/functional_1/depthwise_conv2d_3/BiasAdd;functional_1/conv2d_4/Conv2D;StatefulPartitionedCall/functional_1/conv2d_4/Conv2D;unknown_421:0:0 */, %tvm_var_extract_const_128, padding=[1, 1, 1, 1], groups=64, channels=64, kernel_size=[3, 3], data_layout="NHWC", kernel_layout="HWOI", out_dtype="int32") /* ty=Tensor[(1, 25, 5, 64), int32] span=functional_1/activation_7/Relu;StatefulPartitionedCall/functional_1/activation_7/Relu;functional_1/batch_normalization_7/FusedBatchNormV3;StatefulPartitionedCall/functional_1/batch_normalization_7/FusedBatchNormV3;functional_1/depthwise_conv2d_3/depthwise;StatefulPartitionedCall/functional_1/depthwise_conv2d_3/depthwise;functional_1/depthwise_conv2d_3/BiasAdd;StatefulPartitionedCall/functional_1/depthwise_conv2d_3/BiasAdd;functional_1/conv2d_4/Conv2D;StatefulPartitionedCall/functional_1/conv2d_4/Conv2D;unknown_421:0:0 */;
    %48 = nn.bias_add(%47, %tvm_var_extract_const_129, axis=3) /* ty=Tensor[(1, 25, 5, 64), int32] span=functional_1/activation_7/Relu;StatefulPartitionedCall/functional_1/activation_7/Relu;functional_1/batch_normalization_7/FusedBatchNormV3;StatefulPartitionedCall/functional_1/batch_normalization_7/FusedBatchNormV3;functional_1/depthwise_conv2d_3/depthwise;StatefulPartitionedCall/functional_1/depthwise_conv2d_3/depthwise;functional_1/depthwise_conv2d_3/BiasAdd;StatefulPartitionedCall/functional_1/depthwise_conv2d_3/BiasAdd;functional_1/conv2d_4/Conv2D;StatefulPartitionedCall/functional_1/conv2d_4/Conv2D;unknown_421:0:0 */;
    %49 = qnn.requantize(%48, %tvm_var_extract_const_130, %tvm_var_extract_const_131, 0.0401991f /* ty=float32 span=functional_1/activation_7/Relu;StatefulPartitionedCall/functional_1/activation_7/Relu;functional_1/batch_normalization_7/FusedBatchNormV3;StatefulPartitionedCall/functional_1/batch_normalization_7/FusedBatchNormV3;functional_1/depthwise_conv2d_3/depthwise;StatefulPartitionedCall/functional_1/depthwise_conv2d_3/depthwise;functional_1/depthwise_conv2d_3/BiasAdd;StatefulPartitionedCall/functional_1/depthwise_conv2d_3/BiasAdd;functional_1/conv2d_4/Conv2D;StatefulPartitionedCall/functional_1/conv2d_4/Conv2D;unknown_421:0:0 */, -128 /* ty=int32 span=functional_1/activation_7/Relu;StatefulPartitionedCall/functional_1/activation_7/Relu;functional_1/batch_normalization_7/FusedBatchNormV3;StatefulPartitionedCall/functional_1/batch_normalization_7/FusedBatchNormV3;functional_1/depthwise_conv2d_3/depthwise;StatefulPartitionedCall/functional_1/depthwise_conv2d_3/depthwise;functional_1/depthwise_conv2d_3/BiasAdd;StatefulPartitionedCall/functional_1/depthwise_conv2d_3/BiasAdd;functional_1/conv2d_4/Conv2D;StatefulPartitionedCall/functional_1/conv2d_4/Conv2D;unknown_421:0:0 */, axis=3, out_dtype="int8") /* ty=Tensor[(1, 25, 5, 64), int8] span=functional_1/activation_7/Relu;StatefulPartitionedCall/functional_1/activation_7/Relu;functional_1/batch_normalization_7/FusedBatchNormV3;StatefulPartitionedCall/functional_1/batch_normalization_7/FusedBatchNormV3;functional_1/depthwise_conv2d_3/depthwise;StatefulPartitionedCall/functional_1/depthwise_conv2d_3/depthwise;functional_1/depthwise_conv2d_3/BiasAdd;StatefulPartitionedCall/functional_1/depthwise_conv2d_3/BiasAdd;functional_1/conv2d_4/Conv2D;StatefulPartitionedCall/functional_1/conv2d_4/Conv2D;unknown_421:0:0 */;
    clip(%49, a_min=-128f, a_max=127f) /* ty=Tensor[(1, 25, 5, 64), int8] span=functional_1/activation_7/Relu;StatefulPartitionedCall/functional_1/activation_7/Relu;functional_1/batch_normalization_7/FusedBatchNormV3;StatefulPartitionedCall/functional_1/batch_normalization_7/FusedBatchNormV3;functional_1/depthwise_conv2d_3/depthwise;StatefulPartitionedCall/functional_1/depthwise_conv2d_3/depthwise;functional_1/depthwise_conv2d_3/BiasAdd;StatefulPartitionedCall/functional_1/depthwise_conv2d_3/BiasAdd;functional_1/conv2d_4/Conv2D;StatefulPartitionedCall/functional_1/conv2d_4/Conv2D;unknown_421:0:0 */
  } /* ty=fn (Tensor[(1, 25, 5, 64), int8], Tensor[(3, 3, 64, 1), int8], Tensor[(64), int32], Tensor[(64), float32], Tensor[(64), int32], Tensor[(64), float32], Tensor[(64), int32]) -> Tensor[(1, 25, 5, 64), int8] */;
  %50(%cmsis-nn_7_i0, %tvm_var_extract_const_132, %tvm_var_extract_const_133, %tvm_var_extract_const_134, %tvm_var_extract_const_135, %tvm_var_extract_const_136, %tvm_var_extract_const_137) /* ty=Tensor[(1, 25, 5, 64), int8] */
}

def @tvmgen_default_cmsis_nn_main_8(%cmsis-nn_8_i0: Tensor[(1, 25, 5, 64), int8] /* ty=Tensor[(1, 25, 5, 64), int8] */, %tvm_var_extract_const_150: Tensor[(64, 1, 1, 64), int8] /* ty=Tensor[(64, 1, 1, 64), int8] */, %tvm_var_extract_const_151: Tensor[(64), int32] /* ty=Tensor[(64), int32] */, %tvm_var_extract_const_152: Tensor[(64), float32] /* ty=Tensor[(64), float32] */, %tvm_var_extract_const_153: Tensor[(64), int32] /* ty=Tensor[(64), int32] */, %tvm_var_extract_const_154: Tensor[(64), float32] /* ty=Tensor[(64), float32] */, %tvm_var_extract_const_155: Tensor[(64), int32] /* ty=Tensor[(64), int32] */, Compiler="cmsis-nn", Primitive=1, Inline=1, global_symbol="tvmgen_default_cmsis_nn_main_8") -> Tensor[(1, 25, 5, 64), int8] {
  %54 = fn (%FunctionVar_0_02: Tensor[(1, 25, 5, 64), int8] /* ty=Tensor[(1, 25, 5, 64), int8] */, %tvm_var_extract_const_144: Tensor[(64, 1, 1, 64), int8] /* ty=Tensor[(64, 1, 1, 64), int8] */, %tvm_var_extract_const_145: Tensor[(64), int32] /* ty=Tensor[(64), int32] */, %tvm_var_extract_const_146: Tensor[(64), float32] /* ty=Tensor[(64), float32] */, %tvm_var_extract_const_147: Tensor[(64), int32] /* ty=Tensor[(64), int32] */, %tvm_var_extract_const_148: Tensor[(64), float32] /* ty=Tensor[(64), float32] */, %tvm_var_extract_const_149: Tensor[(64), int32] /* ty=Tensor[(64), int32] */, PartitionedFromPattern="qnn.conv2d_nn.bias_add_qnn.requantize_clip_", Composite="cmsis-nn.qnn_conv2d") -> Tensor[(1, 25, 5, 64), int8] {
    %51 = qnn.conv2d(%FunctionVar_0_02, %tvm_var_extract_const_144, -128 /* ty=int32 span=functional_1/activation_8/Relu;StatefulPartitionedCall/functional_1/activation_8/Relu;functional_1/batch_normalization_8/FusedBatchNormV3;StatefulPartitionedCall/functional_1/batch_normalization_8/FusedBatchNormV3;unknown_48;functional_1/conv2d_4/BiasAdd;StatefulPartitionedCall/functional_1/conv2d_4/BiasAdd;functional_1/conv2d_4/Conv2D;StatefulPartitionedCall/functional_1/conv2d_4/Conv2D1:0:0 */, %tvm_var_extract_const_145, 0.0401991f /* ty=float32 span=functional_1/activation_8/Relu;StatefulPartitionedCall/functional_1/activation_8/Relu;functional_1/batch_normalization_8/FusedBatchNormV3;StatefulPartitionedCall/functional_1/batch_normalization_8/FusedBatchNormV3;unknown_48;functional_1/conv2d_4/BiasAdd;StatefulPartitionedCall/functional_1/conv2d_4/BiasAdd;functional_1/conv2d_4/Conv2D;StatefulPartitionedCall/functional_1/conv2d_4/Conv2D1:0:0 */, %tvm_var_extract_const_146, padding=[0, 0, 0, 0], channels=64, kernel_size=[1, 1], data_layout="NHWC", kernel_layout="OHWI", out_dtype="int32") /* ty=Tensor[(1, 25, 5, 64), int32] span=functional_1/activation_8/Relu;StatefulPartitionedCall/functional_1/activation_8/Relu;functional_1/batch_normalization_8/FusedBatchNormV3;StatefulPartitionedCall/functional_1/batch_normalization_8/FusedBatchNormV3;unknown_48;functional_1/conv2d_4/BiasAdd;StatefulPartitionedCall/functional_1/conv2d_4/BiasAdd;functional_1/conv2d_4/Conv2D;StatefulPartitionedCall/functional_1/conv2d_4/Conv2D1:0:0 */;
    %52 = nn.bias_add(%51, %tvm_var_extract_const_147, axis=3) /* ty=Tensor[(1, 25, 5, 64), int32] span=functional_1/activation_8/Relu;StatefulPartitionedCall/functional_1/activation_8/Relu;functional_1/batch_normalization_8/FusedBatchNormV3;StatefulPartitionedCall/functional_1/batch_normalization_8/FusedBatchNormV3;unknown_48;functional_1/conv2d_4/BiasAdd;StatefulPartitionedCall/functional_1/conv2d_4/BiasAdd;functional_1/conv2d_4/Conv2D;StatefulPartitionedCall/functional_1/conv2d_4/Conv2D1:0:0 */;
    %53 = qnn.requantize(%52, %tvm_var_extract_const_148, %tvm_var_extract_const_149, 0.0958802f /* ty=float32 span=functional_1/activation_8/Relu;StatefulPartitionedCall/functional_1/activation_8/Relu;functional_1/batch_normalization_8/FusedBatchNormV3;StatefulPartitionedCall/functional_1/batch_normalization_8/FusedBatchNormV3;unknown_48;functional_1/conv2d_4/BiasAdd;StatefulPartitionedCall/functional_1/conv2d_4/BiasAdd;functional_1/conv2d_4/Conv2D;StatefulPartitionedCall/functional_1/conv2d_4/Conv2D1:0:0 */, -128 /* ty=int32 span=functional_1/activation_8/Relu;StatefulPartitionedCall/functional_1/activation_8/Relu;functional_1/batch_normalization_8/FusedBatchNormV3;StatefulPartitionedCall/functional_1/batch_normalization_8/FusedBatchNormV3;unknown_48;functional_1/conv2d_4/BiasAdd;StatefulPartitionedCall/functional_1/conv2d_4/BiasAdd;functional_1/conv2d_4/Conv2D;StatefulPartitionedCall/functional_1/conv2d_4/Conv2D1:0:0 */, axis=3, out_dtype="int8") /* ty=Tensor[(1, 25, 5, 64), int8] span=functional_1/activation_8/Relu;StatefulPartitionedCall/functional_1/activation_8/Relu;functional_1/batch_normalization_8/FusedBatchNormV3;StatefulPartitionedCall/functional_1/batch_normalization_8/FusedBatchNormV3;unknown_48;functional_1/conv2d_4/BiasAdd;StatefulPartitionedCall/functional_1/conv2d_4/BiasAdd;functional_1/conv2d_4/Conv2D;StatefulPartitionedCall/functional_1/conv2d_4/Conv2D1:0:0 */;
    clip(%53, a_min=-128f, a_max=127f) /* ty=Tensor[(1, 25, 5, 64), int8] span=functional_1/activation_8/Relu;StatefulPartitionedCall/functional_1/activation_8/Relu;functional_1/batch_normalization_8/FusedBatchNormV3;StatefulPartitionedCall/functional_1/batch_normalization_8/FusedBatchNormV3;unknown_48;functional_1/conv2d_4/BiasAdd;StatefulPartitionedCall/functional_1/conv2d_4/BiasAdd;functional_1/conv2d_4/Conv2D;StatefulPartitionedCall/functional_1/conv2d_4/Conv2D1:0:0 */
  } /* ty=fn (Tensor[(1, 25, 5, 64), int8], Tensor[(64, 1, 1, 64), int8], Tensor[(64), int32], Tensor[(64), float32], Tensor[(64), int32], Tensor[(64), float32], Tensor[(64), int32]) -> Tensor[(1, 25, 5, 64), int8] */;
  %54(%cmsis-nn_8_i0, %tvm_var_extract_const_150, %tvm_var_extract_const_151, %tvm_var_extract_const_152, %tvm_var_extract_const_153, %tvm_var_extract_const_154, %tvm_var_extract_const_155) /* ty=Tensor[(1, 25, 5, 64), int8] */
}

def @tvmgen_default_cmsis_nn_main_9(%cmsis-nn_9_i0: Tensor[(1, 25, 5, 64), int8] /* ty=Tensor[(1, 25, 5, 64), int8] */, Compiler="cmsis-nn", Primitive=1, Inline=1, global_symbol="tvmgen_default_cmsis_nn_main_9") -> Tensor[(1, 1, 1, 64), int8] {
  %57 = fn (%FunctionVar_0_03: Tensor[(1, 25, 5, 64), int8] /* ty=Tensor[(1, 25, 5, 64), int8] */, PartitionedFromPattern="cast_nn.avg_pool2d_cast_", Composite="cmsis-nn.qnn_avg_pool2d") -> Tensor[(1, 1, 1, 64), int8] {
    %55 = cast(%FunctionVar_0_03, dtype="int32") /* ty=Tensor[(1, 25, 5, 64), int32] span=functional_1/average_pooling2d/AvgPool;StatefulPartitionedCall/functional_1/average_pooling2d/AvgPool:0:0 */;
    %56 = nn.avg_pool2d(%55, pool_size=[25, 5], strides=[25, 5], padding=[0, 0, 0, 0], layout="NHWC") /* ty=Tensor[(1, 1, 1, 64), int32] span=functional_1/average_pooling2d/AvgPool;StatefulPartitionedCall/functional_1/average_pooling2d/AvgPool:0:0 */;
    cast(%56, dtype="int8") /* ty=Tensor[(1, 1, 1, 64), int8] span=functional_1/average_pooling2d/AvgPool;StatefulPartitionedCall/functional_1/average_pooling2d/AvgPool:0:0 */
  } /* ty=fn (Tensor[(1, 25, 5, 64), int8]) -> Tensor[(1, 1, 1, 64), int8] */;
  %57(%cmsis-nn_9_i0) /* ty=Tensor[(1, 1, 1, 64), int8] */
}

#[metadata]
{
  "root": 1, 
  "nodes": [
    {
      "type_key": ""
    }, 
    {
      "type_key": "Map", 
      "keys": [
        "relay.Constant"
      ], 
      "data": [2]
    }, 
    {
      "type_key": "Array", 
      "data": [
        3, 
        12, 
        16, 
        22, 
        26, 
        30, 
        34, 
        41, 
        45, 
        51, 
        55, 
        59, 
        63, 
        70, 
        74, 
        80, 
        84, 
        88, 
        92, 
        99, 
        103, 
        109, 
        113, 
        117, 
        121, 
        128, 
        132, 
        138, 
        142, 
        146, 
        150, 
        157, 
        161, 
        167, 
        171, 
        175, 
        179, 
        186, 
        190, 
        196, 
        200, 
        204, 
        208, 
        215, 
        219, 
        225, 
        229, 
        233, 
        237, 
        244, 
        248, 
        254, 
        258, 
        262, 
        266, 
        271
      ]
    }, 
    {
      "type_key": "relay.Constant", 
      "attrs": {
        "_checked_type_": "6", 
        "data": "0", 
        "span": "0", 
        "virtual_device_": "4"
      }
    }, 
    {
      "type_key": "VirtualDevice", 
      "attrs": {
        "device_type_int": "-1", 
        "memory_scope": "5", 
        "target": "0", 
        "virtual_device_id": "-1"
      }
    }, 
    {
      "type_key": "runtime.String"
    }, 
    {
      "type_key": "relay.TensorType", 
      "attrs": {
        "dtype": "int8", 
        "shape": "7", 
        "span": "0"
      }
    }, 
    {
      "type_key": "Array", 
      "data": [8, 9, 10, 11]
    }, 
    {
      "type_key": "IntImm", 
      "attrs": {
        "dtype": "int32", 
        "span": "0", 
        "value": "10"
      }
    }, 
    {
      "type_key": "IntImm", 
      "attrs": {
        "dtype": "int32", 
        "span": "0", 
        "value": "4"
      }
    }, 
    {
      "type_key": "IntImm", 
      "attrs": {
        "dtype": "int32", 
        "span": "0", 
        "value": "1"
      }
    }, 
    {
      "type_key": "IntImm", 
      "attrs": {
        "dtype": "int32", 
        "span": "0", 
        "value": "64"
      }
    }, 
    {
      "type_key": "relay.Constant", 
      "attrs": {
        "_checked_type_": "13", 
        "data": "1", 
        "span": "0", 
        "virtual_device_": "4"
      }
    }, 
    {
      "type_key": "relay.TensorType", 
      "attrs": {
        "dtype": "int32", 
        "shape": "14", 
        "span": "0"
      }
    }, 
    {
      "type_key": "Array", 
      "data": [15]
    }, 
    {
      "type_key": "IntImm", 
      "attrs": {
        "dtype": "int32", 
        "span": "0", 
        "value": "64"
      }
    }, 
    {
      "type_key": "relay.Constant", 
      "attrs": {
        "_checked_type_": "19", 
        "data": "2", 
        "span": "17", 
        "virtual_device_": "4"
      }
    }, 
    {
      "type_key": "Span", 
      "attrs": {
        "column": "0", 
        "end_column": "0", 
        "end_line": "0", 
        "line": "0", 
        "source_name": "18"
      }
    }, 
    {
      "type_key": "SourceName", 
      "repr_str": "functional_1/activation/Relu;StatefulPartitionedCall/functional_1/activation/Relu;functional_1/batch_normalization/FusedBatchNormV3;StatefulPartitionedCall/functional_1/batch_normalization/FusedBatchNormV3;unknown_0;functional_1/conv2d/BiasAdd;StatefulPartitionedCall/functional_1/conv2d/BiasAdd;functional_1/conv2d_4/Conv2D;StatefulPartitionedCall/functional_1/conv2d_4/Conv2D;functional_1/conv2d/Conv2D;StatefulPartitionedCall/functional_1/conv2d/Conv2D1"
    }, 
    {
      "type_key": "relay.TensorType", 
      "attrs": {
        "dtype": "float32", 
        "shape": "20", 
        "span": "0"
      }
    }, 
    {
      "type_key": "Array", 
      "data": [21]
    }, 
    {
      "type_key": "IntImm", 
      "attrs": {
        "dtype": "int32", 
        "span": "0", 
        "value": "64"
      }
    }, 
    {
      "type_key": "relay.Constant", 
      "attrs": {
        "_checked_type_": "23", 
        "data": "3", 
        "span": "0", 
        "virtual_device_": "4"
      }
    }, 
    {
      "type_key": "relay.TensorType", 
      "attrs": {
        "dtype": "int32", 
        "shape": "24", 
        "span": "0"
      }
    }, 
    {
      "type_key": "Array", 
      "data": [25]
    }, 
    {
      "type_key": "IntImm", 
      "attrs": {
        "dtype": "int32", 
        "span": "0", 
        "value": "64"
      }
    }, 
    {
      "type_key": "relay.Constant", 
      "attrs": {
        "_checked_type_": "27", 
        "data": "4", 
        "span": "17", 
        "virtual_device_": "4"
      }
    }, 
    {
      "type_key": "relay.TensorType", 
      "attrs": {
        "dtype": "float32", 
        "shape": "28", 
        "span": "0"
      }
    }, 
    {
      "type_key": "Array", 
      "data": [29]
    }, 
    {
      "type_key": "IntImm", 
      "attrs": {
        "dtype": "int32", 
        "span": "0", 
        "value": "64"
      }
    }, 
    {
      "type_key": "relay.Constant", 
      "attrs": {
        "_checked_type_": "31", 
        "data": "5", 
        "span": "0", 
        "virtual_device_": "4"
      }
    }, 
    {
      "type_key": "relay.TensorType", 
      "attrs": {
        "dtype": "int32", 
        "shape": "32", 
        "span": "0"
      }
    }, 
    {
      "type_key": "Array", 
      "data": [33]
    }, 
    {
      "type_key": "IntImm", 
      "attrs": {
        "dtype": "int32", 
        "span": "0", 
        "value": "64"
      }
    }, 
    {
      "type_key": "relay.Constant", 
      "attrs": {
        "_checked_type_": "35", 
        "data": "6", 
        "span": "0", 
        "virtual_device_": "4"
      }
    }, 
    {
      "type_key": "relay.TensorType", 
      "attrs": {
        "dtype": "int8", 
        "shape": "36", 
        "span": "0"
      }
    }, 
    {
      "type_key": "Array", 
      "data": [37, 38, 39, 40]
    }, 
    {
      "type_key": "IntImm", 
      "attrs": {
        "dtype": "int32", 
        "span": "0", 
        "value": "3"
      }
    }, 
    {
      "type_key": "IntImm", 
      "attrs": {
        "dtype": "int32", 
        "span": "0", 
        "value": "3"
      }
    }, 
    {
      "type_key": "IntImm", 
      "attrs": {
        "dtype": "int32", 
        "span": "0", 
        "value": "64"
      }
    }, 
    {
      "type_key": "IntImm", 
      "attrs": {
        "dtype": "int32", 
        "span": "0", 
        "value": "1"
      }
    }, 
    {
      "type_key": "relay.Constant", 
      "attrs": {
        "_checked_type_": "42", 
        "data": "7", 
        "span": "0", 
        "virtual_device_": "4"
      }
    }, 
    {
      "type_key": "relay.TensorType", 
      "attrs": {
        "dtype": "int32", 
        "shape": "43", 
        "span": "0"
      }
    }, 
    {
      "type_key": "Array", 
      "data": [44]
    }, 
    {
      "type_key": "IntImm", 
      "attrs": {
        "dtype": "int32", 
        "span": "0", 
        "value": "64"
      }
    }, 
    {
      "type_key": "relay.Constant", 
      "attrs": {
        "_checked_type_": "48", 
        "data": "8", 
        "span": "46", 
        "virtual_device_": "4"
      }
    }, 
    {
      "type_key": "Span", 
      "attrs": {
        "column": "0", 
        "end_column": "0", 
        "end_line": "0", 
        "line": "0", 
        "source_name": "47"
      }
    }, 
    {
      "type_key": "SourceName", 
      "repr_str": "functional_1/activation_1/Relu;StatefulPartitionedCall/functional_1/activation_1/Relu;functional_1/batch_normalization_1/FusedBatchNormV3;StatefulPartitionedCall/functional_1/batch_normalization_1/FusedBatchNormV3;functional_1/depthwise_conv2d/depthwise;StatefulPartitionedCall/functional_1/depthwise_conv2d/depthwise;functional_1/depthwise_conv2d/BiasAdd;StatefulPartitionedCall/functional_1/depthwise_conv2d/BiasAdd;functional_1/conv2d_4/Conv2D;StatefulPartitionedCall/functional_1/conv2d_4/Conv2D;unknown_61"
    }, 
    {
      "type_key": "relay.TensorType", 
      "attrs": {
        "dtype": "float32", 
        "shape": "49", 
        "span": "0"
      }
    }, 
    {
      "type_key": "Array", 
      "data": [50]
    }, 
    {
      "type_key": "IntImm", 
      "attrs": {
        "dtype": "int32", 
        "span": "0", 
        "value": "64"
      }
    }, 
    {
      "type_key": "relay.Constant", 
      "attrs": {
        "_checked_type_": "52", 
        "data": "9", 
        "span": "0", 
        "virtual_device_": "4"
      }
    }, 
    {
      "type_key": "relay.TensorType", 
      "attrs": {
        "dtype": "int32", 
        "shape": "53", 
        "span": "0"
      }
    }, 
    {
      "type_key": "Array", 
      "data": [54]
    }, 
    {
      "type_key": "IntImm", 
      "attrs": {
        "dtype": "int32", 
        "span": "0", 
        "value": "64"
      }
    }, 
    {
      "type_key": "relay.Constant", 
      "attrs": {
        "_checked_type_": "56", 
        "data": "10", 
        "span": "46", 
        "virtual_device_": "4"
      }
    }, 
    {
      "type_key": "relay.TensorType", 
      "attrs": {
        "dtype": "float32", 
        "shape": "57", 
        "span": "0"
      }
    }, 
    {
      "type_key": "Array", 
      "data": [58]
    }, 
    {
      "type_key": "IntImm", 
      "attrs": {
        "dtype": "int32", 
        "span": "0", 
        "value": "64"
      }
    }, 
    {
      "type_key": "relay.Constant", 
      "attrs": {
        "_checked_type_": "60", 
        "data": "11", 
        "span": "0", 
        "virtual_device_": "4"
      }
    }, 
    {
      "type_key": "relay.TensorType", 
      "attrs": {
        "dtype": "int32", 
        "shape": "61", 
        "span": "0"
      }
    }, 
    {
      "type_key": "Array", 
      "data": [62]
    }, 
    {
      "type_key": "IntImm", 
      "attrs": {
        "dtype": "int32", 
        "span": "0", 
        "value": "64"
      }
    }, 
    {
      "type_key": "relay.Constant", 
      "attrs": {
        "_checked_type_": "64", 
        "data": "12", 
        "span": "0", 
        "virtual_device_": "4"
      }
    }, 
    {
      "type_key": "relay.TensorType", 
      "attrs": {
        "dtype": "int8", 
        "shape": "65", 
        "span": "0"
      }
    }, 
    {
      "type_key": "Array", 
      "data": [66, 67, 68, 69]
    }, 
    {
      "type_key": "IntImm", 
      "attrs": {
        "dtype": "int32", 
        "span": "0", 
        "value": "64"
      }
    }, 
    {
      "type_key": "IntImm", 
      "attrs": {
        "dtype": "int32", 
        "span": "0", 
        "value": "1"
      }
    }, 
    {
      "type_key": "IntImm", 
      "attrs": {
        "dtype": "int32", 
        "span": "0", 
        "value": "1"
      }
    }, 
    {
      "type_key": "IntImm", 
      "attrs": {
        "dtype": "int32", 
        "span": "0", 
        "value": "64"
      }
    }, 
    {
      "type_key": "relay.Constant", 
      "attrs": {
        "_checked_type_": "71", 
        "data": "13", 
        "span": "0", 
        "virtual_device_": "4"
      }
    }, 
    {
      "type_key": "relay.TensorType", 
      "attrs": {
        "dtype": "int32", 
        "shape": "72", 
        "span": "0"
      }
    }, 
    {
      "type_key": "Array", 
      "data": [73]
    }, 
    {
      "type_key": "IntImm", 
      "attrs": {
        "dtype": "int32", 
        "span": "0", 
        "value": "64"
      }
    }, 
    {
      "type_key": "relay.Constant", 
      "attrs": {
        "_checked_type_": "77", 
        "data": "14", 
        "span": "75", 
        "virtual_device_": "4"
      }
    }, 
    {
      "type_key": "Span", 
      "attrs": {
        "column": "0", 
        "end_column": "0", 
        "end_line": "0", 
        "line": "0", 
        "source_name": "76"
      }
    }, 
    {
      "type_key": "SourceName", 
      "repr_str": "functional_1/activation_2/Relu;StatefulPartitionedCall/functional_1/activation_2/Relu;functional_1/batch_normalization_2/FusedBatchNormV3;StatefulPartitionedCall/functional_1/batch_normalization_2/FusedBatchNormV3;unknown_12;functional_1/conv2d_1/BiasAdd;StatefulPartitionedCall/functional_1/conv2d_1/BiasAdd;functional_1/conv2d_4/Conv2D;StatefulPartitionedCall/functional_1/conv2d_4/Conv2D;functional_1/conv2d_1/Conv2D;StatefulPartitionedCall/functional_1/conv2d_1/Conv2D1"
    }, 
    {
      "type_key": "relay.TensorType", 
      "attrs": {
        "dtype": "float32", 
        "shape": "78", 
        "span": "0"
      }
    }, 
    {
      "type_key": "Array", 
      "data": [79]
    }, 
    {
      "type_key": "IntImm", 
      "attrs": {
        "dtype": "int32", 
        "span": "0", 
        "value": "64"
      }
    }, 
    {
      "type_key": "relay.Constant", 
      "attrs": {
        "_checked_type_": "81", 
        "data": "15", 
        "span": "0", 
        "virtual_device_": "4"
      }
    }, 
    {
      "type_key": "relay.TensorType", 
      "attrs": {
        "dtype": "int32", 
        "shape": "82", 
        "span": "0"
      }
    }, 
    {
      "type_key": "Array", 
      "data": [83]
    }, 
    {
      "type_key": "IntImm", 
      "attrs": {
        "dtype": "int32", 
        "span": "0", 
        "value": "64"
      }
    }, 
    {
      "type_key": "relay.Constant", 
      "attrs": {
        "_checked_type_": "85", 
        "data": "16", 
        "span": "75", 
        "virtual_device_": "4"
      }
    }, 
    {
      "type_key": "relay.TensorType", 
      "attrs": {
        "dtype": "float32", 
        "shape": "86", 
        "span": "0"
      }
    }, 
    {
      "type_key": "Array", 
      "data": [87]
    }, 
    {
      "type_key": "IntImm", 
      "attrs": {
        "dtype": "int32", 
        "span": "0", 
        "value": "64"
      }
    }, 
    {
      "type_key": "relay.Constant", 
      "attrs": {
        "_checked_type_": "89", 
        "data": "17", 
        "span": "0", 
        "virtual_device_": "4"
      }
    }, 
    {
      "type_key": "relay.TensorType", 
      "attrs": {
        "dtype": "int32", 
        "shape": "90", 
        "span": "0"
      }
    }, 
    {
      "type_key": "Array", 
      "data": [91]
    }, 
    {
      "type_key": "IntImm", 
      "attrs": {
        "dtype": "int32", 
        "span": "0", 
        "value": "64"
      }
    }, 
    {
      "type_key": "relay.Constant", 
      "attrs": {
        "_checked_type_": "93", 
        "data": "18", 
        "span": "0", 
        "virtual_device_": "4"
      }
    }, 
    {
      "type_key": "relay.TensorType", 
      "attrs": {
        "dtype": "int8", 
        "shape": "94", 
        "span": "0"
      }
    }, 
    {
      "type_key": "Array", 
      "data": [95, 96, 97, 98]
    }, 
    {
      "type_key": "IntImm", 
      "attrs": {
        "dtype": "int32", 
        "span": "0", 
        "value": "3"
      }
    }, 
    {
      "type_key": "IntImm", 
      "attrs": {
        "dtype": "int32", 
        "span": "0", 
        "value": "3"
      }
    }, 
    {
      "type_key": "IntImm", 
      "attrs": {
        "dtype": "int32", 
        "span": "0", 
        "value": "64"
      }
    }, 
    {
      "type_key": "IntImm", 
      "attrs": {
        "dtype": "int32", 
        "span": "0", 
        "value": "1"
      }
    }, 
    {
      "type_key": "relay.Constant", 
      "attrs": {
        "_checked_type_": "100", 
        "data": "19", 
        "span": "0", 
        "virtual_device_": "4"
      }
    }, 
    {
      "type_key": "relay.TensorType", 
      "attrs": {
        "dtype": "int32", 
        "shape": "101", 
        "span": "0"
      }
    }, 
    {
      "type_key": "Array", 
      "data": [102]
    }, 
    {
      "type_key": "IntImm", 
      "attrs": {
        "dtype": "int32", 
        "span": "0", 
        "value": "64"
      }
    }, 
    {
      "type_key": "relay.Constant", 
      "attrs": {
        "_checked_type_": "106", 
        "data": "20", 
        "span": "104", 
        "virtual_device_": "4"
      }
    }, 
    {
      "type_key": "Span", 
      "attrs": {
        "column": "0", 
        "end_column": "0", 
        "end_line": "0", 
        "line": "0", 
        "source_name": "105"
      }
    }, 
    {
      "type_key": "SourceName", 
      "repr_str": "functional_1/activation_3/Relu;StatefulPartitionedCall/functional_1/activation_3/Relu;functional_1/batch_normalization_3/FusedBatchNormV3;StatefulPartitionedCall/functional_1/batch_normalization_3/FusedBatchNormV3;functional_1/depthwise_conv2d_1/depthwise;StatefulPartitionedCall/functional_1/depthwise_conv2d_1/depthwise;functional_1/depthwise_conv2d_1/BiasAdd;StatefulPartitionedCall/functional_1/depthwise_conv2d_1/BiasAdd;functional_1/conv2d_4/Conv2D;StatefulPartitionedCall/functional_1/conv2d_4/Conv2D;unknown_181"
    }, 
    {
      "type_key": "relay.TensorType", 
      "attrs": {
        "dtype": "float32", 
        "shape": "107", 
        "span": "0"
      }
    }, 
    {
      "type_key": "Array", 
      "data": [108]
    }, 
    {
      "type_key": "IntImm", 
      "attrs": {
        "dtype": "int32", 
        "span": "0", 
        "value": "64"
      }
    }, 
    {
      "type_key": "relay.Constant", 
      "attrs": {
        "_checked_type_": "110", 
        "data": "21", 
        "span": "0", 
        "virtual_device_": "4"
      }
    }, 
    {
      "type_key": "relay.TensorType", 
      "attrs": {
        "dtype": "int32", 
        "shape": "111", 
        "span": "0"
      }
    }, 
    {
      "type_key": "Array", 
      "data": [112]
    }, 
    {
      "type_key": "IntImm", 
      "attrs": {
        "dtype": "int32", 
        "span": "0", 
        "value": "64"
      }
    }, 
    {
      "type_key": "relay.Constant", 
      "attrs": {
        "_checked_type_": "114", 
        "data": "22", 
        "span": "104", 
        "virtual_device_": "4"
      }
    }, 
    {
      "type_key": "relay.TensorType", 
      "attrs": {
        "dtype": "float32", 
        "shape": "115", 
        "span": "0"
      }
    }, 
    {
      "type_key": "Array", 
      "data": [116]
    }, 
    {
      "type_key": "IntImm", 
      "attrs": {
        "dtype": "int32", 
        "span": "0", 
        "value": "64"
      }
    }, 
    {
      "type_key": "relay.Constant", 
      "attrs": {
        "_checked_type_": "118", 
        "data": "23", 
        "span": "0", 
        "virtual_device_": "4"
      }
    }, 
    {
      "type_key": "relay.TensorType", 
      "attrs": {
        "dtype": "int32", 
        "shape": "119", 
        "span": "0"
      }
    }, 
    {
      "type_key": "Array", 
      "data": [120]
    }, 
    {
      "type_key": "IntImm", 
      "attrs": {
        "dtype": "int32", 
        "span": "0", 
        "value": "64"
      }
    }, 
    {
      "type_key": "relay.Constant", 
      "attrs": {
        "_checked_type_": "122", 
        "data": "24", 
        "span": "0", 
        "virtual_device_": "4"
      }
    }, 
    {
      "type_key": "relay.TensorType", 
      "attrs": {
        "dtype": "int8", 
        "shape": "123", 
        "span": "0"
      }
    }, 
    {
      "type_key": "Array", 
      "data": [124, 125, 126, 127]
    }, 
    {
      "type_key": "IntImm", 
      "attrs": {
        "dtype": "int32", 
        "span": "0", 
        "value": "64"
      }
    }, 
    {
      "type_key": "IntImm", 
      "attrs": {
        "dtype": "int32", 
        "span": "0", 
        "value": "1"
      }
    }, 
    {
      "type_key": "IntImm", 
      "attrs": {
        "dtype": "int32", 
        "span": "0", 
        "value": "1"
      }
    }, 
    {
      "type_key": "IntImm", 
      "attrs": {
        "dtype": "int32", 
        "span": "0", 
        "value": "64"
      }
    }, 
    {
      "type_key": "relay.Constant", 
      "attrs": {
        "_checked_type_": "129", 
        "data": "25", 
        "span": "0", 
        "virtual_device_": "4"
      }
    }, 
    {
      "type_key": "relay.TensorType", 
      "attrs": {
        "dtype": "int32", 
        "shape": "130", 
        "span": "0"
      }
    }, 
    {
      "type_key": "Array", 
      "data": [131]
    }, 
    {
      "type_key": "IntImm", 
      "attrs": {
        "dtype": "int32", 
        "span": "0", 
        "value": "64"
      }
    }, 
    {
      "type_key": "relay.Constant", 
      "attrs": {
        "_checked_type_": "135", 
        "data": "26", 
        "span": "133", 
        "virtual_device_": "4"
      }
    }, 
    {
      "type_key": "Span", 
      "attrs": {
        "column": "0", 
        "end_column": "0", 
        "end_line": "0", 
        "line": "0", 
        "source_name": "134"
      }
    }, 
    {
      "type_key": "SourceName", 
      "repr_str": "functional_1/activation_4/Relu;StatefulPartitionedCall/functional_1/activation_4/Relu;functional_1/batch_normalization_4/FusedBatchNormV3;StatefulPartitionedCall/functional_1/batch_normalization_4/FusedBatchNormV3;unknown_24;functional_1/conv2d_2/BiasAdd;StatefulPartitionedCall/functional_1/conv2d_2/BiasAdd;functional_1/conv2d_4/Conv2D;StatefulPartitionedCall/functional_1/conv2d_4/Conv2D;functional_1/conv2d_2/Conv2D;StatefulPartitionedCall/functional_1/conv2d_2/Conv2D1"
    }, 
    {
      "type_key": "relay.TensorType", 
      "attrs": {
        "dtype": "float32", 
        "shape": "136", 
        "span": "0"
      }
    }, 
    {
      "type_key": "Array", 
      "data": [137]
    }, 
    {
      "type_key": "IntImm", 
      "attrs": {
        "dtype": "int32", 
        "span": "0", 
        "value": "64"
      }
    }, 
    {
      "type_key": "relay.Constant", 
      "attrs": {
        "_checked_type_": "139", 
        "data": "27", 
        "span": "0", 
        "virtual_device_": "4"
      }
    }, 
    {
      "type_key": "relay.TensorType", 
      "attrs": {
        "dtype": "int32", 
        "shape": "140", 
        "span": "0"
      }
    }, 
    {
      "type_key": "Array", 
      "data": [141]
    }, 
    {
      "type_key": "IntImm", 
      "attrs": {
        "dtype": "int32", 
        "span": "0", 
        "value": "64"
      }
    }, 
    {
      "type_key": "relay.Constant", 
      "attrs": {
        "_checked_type_": "143", 
        "data": "28", 
        "span": "133", 
        "virtual_device_": "4"
      }
    }, 
    {
      "type_key": "relay.TensorType", 
      "attrs": {
        "dtype": "float32", 
        "shape": "144", 
        "span": "0"
      }
    }, 
    {
      "type_key": "Array", 
      "data": [145]
    }, 
    {
      "type_key": "IntImm", 
      "attrs": {
        "dtype": "int32", 
        "span": "0", 
        "value": "64"
      }
    }, 
    {
      "type_key": "relay.Constant", 
      "attrs": {
        "_checked_type_": "147", 
        "data": "29", 
        "span": "0", 
        "virtual_device_": "4"
      }
    }, 
    {
      "type_key": "relay.TensorType", 
      "attrs": {
        "dtype": "int32", 
        "shape": "148", 
        "span": "0"
      }
    }, 
    {
      "type_key": "Array", 
      "data": [149]
    }, 
    {
      "type_key": "IntImm", 
      "attrs": {
        "dtype": "int32", 
        "span": "0", 
        "value": "64"
      }
    }, 
    {
      "type_key": "relay.Constant", 
      "attrs": {
        "_checked_type_": "151", 
        "data": "30", 
        "span": "0", 
        "virtual_device_": "4"
      }
    }, 
    {
      "type_key": "relay.TensorType", 
      "attrs": {
        "dtype": "int8", 
        "shape": "152", 
        "span": "0"
      }
    }, 
    {
      "type_key": "Array", 
      "data": [153, 154, 155, 156]
    }, 
    {
      "type_key": "IntImm", 
      "attrs": {
        "dtype": "int32", 
        "span": "0", 
        "value": "3"
      }
    }, 
    {
      "type_key": "IntImm", 
      "attrs": {
        "dtype": "int32", 
        "span": "0", 
        "value": "3"
      }
    }, 
    {
      "type_key": "IntImm", 
      "attrs": {
        "dtype": "int32", 
        "span": "0", 
        "value": "64"
      }
    }, 
    {
      "type_key": "IntImm", 
      "attrs": {
        "dtype": "int32", 
        "span": "0", 
        "value": "1"
      }
    }, 
    {
      "type_key": "relay.Constant", 
      "attrs": {
        "_checked_type_": "158", 
        "data": "31", 
        "span": "0", 
        "virtual_device_": "4"
      }
    }, 
    {
      "type_key": "relay.TensorType", 
      "attrs": {
        "dtype": "int32", 
        "shape": "159", 
        "span": "0"
      }
    }, 
    {
      "type_key": "Array", 
      "data": [160]
    }, 
    {
      "type_key": "IntImm", 
      "attrs": {
        "dtype": "int32", 
        "span": "0", 
        "value": "64"
      }
    }, 
    {
      "type_key": "relay.Constant", 
      "attrs": {
        "_checked_type_": "164", 
        "data": "32", 
        "span": "162", 
        "virtual_device_": "4"
      }
    }, 
    {
      "type_key": "Span", 
      "attrs": {
        "column": "0", 
        "end_column": "0", 
        "end_line": "0", 
        "line": "0", 
        "source_name": "163"
      }
    }, 
    {
      "type_key": "SourceName", 
      "repr_str": "functional_1/activation_5/Relu;StatefulPartitionedCall/functional_1/activation_5/Relu;functional_1/batch_normalization_5/FusedBatchNormV3;StatefulPartitionedCall/functional_1/batch_normalization_5/FusedBatchNormV3;functional_1/depthwise_conv2d_2/depthwise;StatefulPartitionedCall/functional_1/depthwise_conv2d_2/depthwise;functional_1/depthwise_conv2d_2/BiasAdd;StatefulPartitionedCall/functional_1/depthwise_conv2d_2/BiasAdd;functional_1/conv2d_4/Conv2D;StatefulPartitionedCall/functional_1/conv2d_4/Conv2D;unknown_301"
    }, 
    {
      "type_key": "relay.TensorType", 
      "attrs": {
        "dtype": "float32", 
        "shape": "165", 
        "span": "0"
      }
    }, 
    {
      "type_key": "Array", 
      "data": [166]
    }, 
    {
      "type_key": "IntImm", 
      "attrs": {
        "dtype": "int32", 
        "span": "0", 
        "value": "64"
      }
    }, 
    {
      "type_key": "relay.Constant", 
      "attrs": {
        "_checked_type_": "168", 
        "data": "33", 
        "span": "0", 
        "virtual_device_": "4"
      }
    }, 
    {
      "type_key": "relay.TensorType", 
      "attrs": {
        "dtype": "int32", 
        "shape": "169", 
        "span": "0"
      }
    }, 
    {
      "type_key": "Array", 
      "data": [170]
    }, 
    {
      "type_key": "IntImm", 
      "attrs": {
        "dtype": "int32", 
        "span": "0", 
        "value": "64"
      }
    }, 
    {
      "type_key": "relay.Constant", 
      "attrs": {
        "_checked_type_": "172", 
        "data": "34", 
        "span": "162", 
        "virtual_device_": "4"
      }
    }, 
    {
      "type_key": "relay.TensorType", 
      "attrs": {
        "dtype": "float32", 
        "shape": "173", 
        "span": "0"
      }
    }, 
    {
      "type_key": "Array", 
      "data": [174]
    }, 
    {
      "type_key": "IntImm", 
      "attrs": {
        "dtype": "int32", 
        "span": "0", 
        "value": "64"
      }
    }, 
    {
      "type_key": "relay.Constant", 
      "attrs": {
        "_checked_type_": "176", 
        "data": "35", 
        "span": "0", 
        "virtual_device_": "4"
      }
    }, 
    {
      "type_key": "relay.TensorType", 
      "attrs": {
        "dtype": "int32", 
        "shape": "177", 
        "span": "0"
      }
    }, 
    {
      "type_key": "Array", 
      "data": [178]
    }, 
    {
      "type_key": "IntImm", 
      "attrs": {
        "dtype": "int32", 
        "span": "0", 
        "value": "64"
      }
    }, 
    {
      "type_key": "relay.Constant", 
      "attrs": {
        "_checked_type_": "180", 
        "data": "36", 
        "span": "0", 
        "virtual_device_": "4"
      }
    }, 
    {
      "type_key": "relay.TensorType", 
      "attrs": {
        "dtype": "int8", 
        "shape": "181", 
        "span": "0"
      }
    }, 
    {
      "type_key": "Array", 
      "data": [182, 183, 184, 185]
    }, 
    {
      "type_key": "IntImm", 
      "attrs": {
        "dtype": "int32", 
        "span": "0", 
        "value": "64"
      }
    }, 
    {
      "type_key": "IntImm", 
      "attrs": {
        "dtype": "int32", 
        "span": "0", 
        "value": "1"
      }
    }, 
    {
      "type_key": "IntImm", 
      "attrs": {
        "dtype": "int32", 
        "span": "0", 
        "value": "1"
      }
    }, 
    {
      "type_key": "IntImm", 
      "attrs": {
        "dtype": "int32", 
        "span": "0", 
        "value": "64"
      }
    }, 
    {
      "type_key": "relay.Constant", 
      "attrs": {
        "_checked_type_": "187", 
        "data": "37", 
        "span": "0", 
        "virtual_device_": "4"
      }
    }, 
    {
      "type_key": "relay.TensorType", 
      "attrs": {
        "dtype": "int32", 
        "shape": "188", 
        "span": "0"
      }
    }, 
    {
      "type_key": "Array", 
      "data": [189]
    }, 
    {
      "type_key": "IntImm", 
      "attrs": {
        "dtype": "int32", 
        "span": "0", 
        "value": "64"
      }
    }, 
    {
      "type_key": "relay.Constant", 
      "attrs": {
        "_checked_type_": "193", 
        "data": "38", 
        "span": "191", 
        "virtual_device_": "4"
      }
    }, 
    {
      "type_key": "Span", 
      "attrs": {
        "column": "0", 
        "end_column": "0", 
        "end_line": "0", 
        "line": "0", 
        "source_name": "192"
      }
    }, 
    {
      "type_key": "SourceName", 
      "repr_str": "functional_1/activation_6/Relu;StatefulPartitionedCall/functional_1/activation_6/Relu;functional_1/batch_normalization_6/FusedBatchNormV3;StatefulPartitionedCall/functional_1/batch_normalization_6/FusedBatchNormV3;unknown_36;functional_1/conv2d_3/BiasAdd;StatefulPartitionedCall/functional_1/conv2d_3/BiasAdd;functional_1/conv2d_4/Conv2D;StatefulPartitionedCall/functional_1/conv2d_4/Conv2D;functional_1/conv2d_3/Conv2D;StatefulPartitionedCall/functional_1/conv2d_3/Conv2D1"
    }, 
    {
      "type_key": "relay.TensorType", 
      "attrs": {
        "dtype": "float32", 
        "shape": "194", 
        "span": "0"
      }
    }, 
    {
      "type_key": "Array", 
      "data": [195]
    }, 
    {
      "type_key": "IntImm", 
      "attrs": {
        "dtype": "int32", 
        "span": "0", 
        "value": "64"
      }
    }, 
    {
      "type_key": "relay.Constant", 
      "attrs": {
        "_checked_type_": "197", 
        "data": "39", 
        "span": "0", 
        "virtual_device_": "4"
      }
    }, 
    {
      "type_key": "relay.TensorType", 
      "attrs": {
        "dtype": "int32", 
        "shape": "198", 
        "span": "0"
      }
    }, 
    {
      "type_key": "Array", 
      "data": [199]
    }, 
    {
      "type_key": "IntImm", 
      "attrs": {
        "dtype": "int32", 
        "span": "0", 
        "value": "64"
      }
    }, 
    {
      "type_key": "relay.Constant", 
      "attrs": {
        "_checked_type_": "201", 
        "data": "40", 
        "span": "191", 
        "virtual_device_": "4"
      }
    }, 
    {
      "type_key": "relay.TensorType", 
      "attrs": {
        "dtype": "float32", 
        "shape": "202", 
        "span": "0"
      }
    }, 
    {
      "type_key": "Array", 
      "data": [203]
    }, 
    {
      "type_key": "IntImm", 
      "attrs": {
        "dtype": "int32", 
        "span": "0", 
        "value": "64"
      }
    }, 
    {
      "type_key": "relay.Constant", 
      "attrs": {
        "_checked_type_": "205", 
        "data": "41", 
        "span": "0", 
        "virtual_device_": "4"
      }
    }, 
    {
      "type_key": "relay.TensorType", 
      "attrs": {
        "dtype": "int32", 
        "shape": "206", 
        "span": "0"
      }
    }, 
    {
      "type_key": "Array", 
      "data": [207]
    }, 
    {
      "type_key": "IntImm", 
      "attrs": {
        "dtype": "int32", 
        "span": "0", 
        "value": "64"
      }
    }, 
    {
      "type_key": "relay.Constant", 
      "attrs": {
        "_checked_type_": "209", 
        "data": "42", 
        "span": "0", 
        "virtual_device_": "4"
      }
    }, 
    {
      "type_key": "relay.TensorType", 
      "attrs": {
        "dtype": "int8", 
        "shape": "210", 
        "span": "0"
      }
    }, 
    {
      "type_key": "Array", 
      "data": [211, 212, 213, 214]
    }, 
    {
      "type_key": "IntImm", 
      "attrs": {
        "dtype": "int32", 
        "span": "0", 
        "value": "3"
      }
    }, 
    {
      "type_key": "IntImm", 
      "attrs": {
        "dtype": "int32", 
        "span": "0", 
        "value": "3"
      }
    }, 
    {
      "type_key": "IntImm", 
      "attrs": {
        "dtype": "int32", 
        "span": "0", 
        "value": "64"
      }
    }, 
    {
      "type_key": "IntImm", 
      "attrs": {
        "dtype": "int32", 
        "span": "0", 
        "value": "1"
      }
    }, 
    {
      "type_key": "relay.Constant", 
      "attrs": {
        "_checked_type_": "216", 
        "data": "43", 
        "span": "0", 
        "virtual_device_": "4"
      }
    }, 
    {
      "type_key": "relay.TensorType", 
      "attrs": {
        "dtype": "int32", 
        "shape": "217", 
        "span": "0"
      }
    }, 
    {
      "type_key": "Array", 
      "data": [218]
    }, 
    {
      "type_key": "IntImm", 
      "attrs": {
        "dtype": "int32", 
        "span": "0", 
        "value": "64"
      }
    }, 
    {
      "type_key": "relay.Constant", 
      "attrs": {
        "_checked_type_": "222", 
        "data": "44", 
        "span": "220", 
        "virtual_device_": "4"
      }
    }, 
    {
      "type_key": "Span", 
      "attrs": {
        "column": "0", 
        "end_column": "0", 
        "end_line": "0", 
        "line": "0", 
        "source_name": "221"
      }
    }, 
    {
      "type_key": "SourceName", 
      "repr_str": "functional_1/activation_7/Relu;StatefulPartitionedCall/functional_1/activation_7/Relu;functional_1/batch_normalization_7/FusedBatchNormV3;StatefulPartitionedCall/functional_1/batch_normalization_7/FusedBatchNormV3;functional_1/depthwise_conv2d_3/depthwise;StatefulPartitionedCall/functional_1/depthwise_conv2d_3/depthwise;functional_1/depthwise_conv2d_3/BiasAdd;StatefulPartitionedCall/functional_1/depthwise_conv2d_3/BiasAdd;functional_1/conv2d_4/Conv2D;StatefulPartitionedCall/functional_1/conv2d_4/Conv2D;unknown_421"
    }, 
    {
      "type_key": "relay.TensorType", 
      "attrs": {
        "dtype": "float32", 
        "shape": "223", 
        "span": "0"
      }
    }, 
    {
      "type_key": "Array", 
      "data": [224]
    }, 
    {
      "type_key": "IntImm", 
      "attrs": {
        "dtype": "int32", 
        "span": "0", 
        "value": "64"
      }
    }, 
    {
      "type_key": "relay.Constant", 
      "attrs": {
        "_checked_type_": "226", 
        "data": "45", 
        "span": "0", 
        "virtual_device_": "4"
      }
    }, 
    {
      "type_key": "relay.TensorType", 
      "attrs": {
        "dtype": "int32", 
        "shape": "227", 
        "span": "0"
      }
    }, 
    {
      "type_key": "Array", 
      "data": [228]
    }, 
    {
      "type_key": "IntImm", 
      "attrs": {
        "dtype": "int32", 
        "span": "0", 
        "value": "64"
      }
    }, 
    {
      "type_key": "relay.Constant", 
      "attrs": {
        "_checked_type_": "230", 
        "data": "46", 
        "span": "220", 
        "virtual_device_": "4"
      }
    }, 
    {
      "type_key": "relay.TensorType", 
      "attrs": {
        "dtype": "float32", 
        "shape": "231", 
        "span": "0"
      }
    }, 
    {
      "type_key": "Array", 
      "data": [232]
    }, 
    {
      "type_key": "IntImm", 
      "attrs": {
        "dtype": "int32", 
        "span": "0", 
        "value": "64"
      }
    }, 
    {
      "type_key": "relay.Constant", 
      "attrs": {
        "_checked_type_": "234", 
        "data": "47", 
        "span": "0", 
        "virtual_device_": "4"
      }
    }, 
    {
      "type_key": "relay.TensorType", 
      "attrs": {
        "dtype": "int32", 
        "shape": "235", 
        "span": "0"
      }
    }, 
    {
      "type_key": "Array", 
      "data": [236]
    }, 
    {
      "type_key": "IntImm", 
      "attrs": {
        "dtype": "int32", 
        "span": "0", 
        "value": "64"
      }
    }, 
    {
      "type_key": "relay.Constant", 
      "attrs": {
        "_checked_type_": "238", 
        "data": "48", 
        "span": "0", 
        "virtual_device_": "4"
      }
    }, 
    {
      "type_key": "relay.TensorType", 
      "attrs": {
        "dtype": "int8", 
        "shape": "239", 
        "span": "0"
      }
    }, 
    {
      "type_key": "Array", 
      "data": [240, 241, 242, 243]
    }, 
    {
      "type_key": "IntImm", 
      "attrs": {
        "dtype": "int32", 
        "span": "0", 
        "value": "64"
      }
    }, 
    {
      "type_key": "IntImm", 
      "attrs": {
        "dtype": "int32", 
        "span": "0", 
        "value": "1"
      }
    }, 
    {
      "type_key": "IntImm", 
      "attrs": {
        "dtype": "int32", 
        "span": "0", 
        "value": "1"
      }
    }, 
    {
      "type_key": "IntImm", 
      "attrs": {
        "dtype": "int32", 
        "span": "0", 
        "value": "64"
      }
    }, 
    {
      "type_key": "relay.Constant", 
      "attrs": {
        "_checked_type_": "245", 
        "data": "49", 
        "span": "0", 
        "virtual_device_": "4"
      }
    }, 
    {
      "type_key": "relay.TensorType", 
      "attrs": {
        "dtype": "int32", 
        "shape": "246", 
        "span": "0"
      }
    }, 
    {
      "type_key": "Array", 
      "data": [247]
    }, 
    {
      "type_key": "IntImm", 
      "attrs": {
        "dtype": "int32", 
        "span": "0", 
        "value": "64"
      }
    }, 
    {
      "type_key": "relay.Constant", 
      "attrs": {
        "_checked_type_": "251", 
        "data": "50", 
        "span": "249", 
        "virtual_device_": "4"
      }
    }, 
    {
      "type_key": "Span", 
      "attrs": {
        "column": "0", 
        "end_column": "0", 
        "end_line": "0", 
        "line": "0", 
        "source_name": "250"
      }
    }, 
    {
      "type_key": "SourceName", 
      "repr_str": "functional_1/activation_8/Relu;StatefulPartitionedCall/functional_1/activation_8/Relu;functional_1/batch_normalization_8/FusedBatchNormV3;StatefulPartitionedCall/functional_1/batch_normalization_8/FusedBatchNormV3;unknown_48;functional_1/conv2d_4/BiasAdd;StatefulPartitionedCall/functional_1/conv2d_4/BiasAdd;functional_1/conv2d_4/Conv2D;StatefulPartitionedCall/functional_1/conv2d_4/Conv2D1"
    }, 
    {
      "type_key": "relay.TensorType", 
      "attrs": {
        "dtype": "float32", 
        "shape": "252", 
        "span": "0"
      }
    }, 
    {
      "type_key": "Array", 
      "data": [253]
    }, 
    {
      "type_key": "IntImm", 
      "attrs": {
        "dtype": "int32", 
        "span": "0", 
        "value": "64"
      }
    }, 
    {
      "type_key": "relay.Constant", 
      "attrs": {
        "_checked_type_": "255", 
        "data": "51", 
        "span": "0", 
        "virtual_device_": "4"
      }
    }, 
    {
      "type_key": "relay.TensorType", 
      "attrs": {
        "dtype": "int32", 
        "shape": "256", 
        "span": "0"
      }
    }, 
    {
      "type_key": "Array", 
      "data": [257]
    }, 
    {
      "type_key": "IntImm", 
      "attrs": {
        "dtype": "int32", 
        "span": "0", 
        "value": "64"
      }
    }, 
    {
      "type_key": "relay.Constant", 
      "attrs": {
        "_checked_type_": "259", 
        "data": "52", 
        "span": "249", 
        "virtual_device_": "4"
      }
    }, 
    {
      "type_key": "relay.TensorType", 
      "attrs": {
        "dtype": "float32", 
        "shape": "260", 
        "span": "0"
      }
    }, 
    {
      "type_key": "Array", 
      "data": [261]
    }, 
    {
      "type_key": "IntImm", 
      "attrs": {
        "dtype": "int32", 
        "span": "0", 
        "value": "64"
      }
    }, 
    {
      "type_key": "relay.Constant", 
      "attrs": {
        "_checked_type_": "263", 
        "data": "53", 
        "span": "0", 
        "virtual_device_": "4"
      }
    }, 
    {
      "type_key": "relay.TensorType", 
      "attrs": {
        "dtype": "int32", 
        "shape": "264", 
        "span": "0"
      }
    }, 
    {
      "type_key": "Array", 
      "data": [265]
    }, 
    {
      "type_key": "IntImm", 
      "attrs": {
        "dtype": "int32", 
        "span": "0", 
        "value": "64"
      }
    }, 
    {
      "type_key": "relay.Constant", 
      "attrs": {
        "_checked_type_": "267", 
        "data": "54", 
        "span": "0", 
        "virtual_device_": "4"
      }
    }, 
    {
      "type_key": "relay.TensorType", 
      "attrs": {
        "dtype": "int8", 
        "shape": "268", 
        "span": "0"
      }
    }, 
    {
      "type_key": "Array", 
      "data": [269, 270]
    }, 
    {
      "type_key": "IntImm", 
      "attrs": {
        "dtype": "int32", 
        "span": "0", 
        "value": "12"
      }
    }, 
    {
      "type_key": "IntImm", 
      "attrs": {
        "dtype": "int32", 
        "span": "0", 
        "value": "64"
      }
    }, 
    {
      "type_key": "relay.Constant", 
      "attrs": {
        "_checked_type_": "272", 
        "data": "55", 
        "span": "0", 
        "virtual_device_": "4"
      }
    }, 
    {
      "type_key": "relay.TensorType", 
      "attrs": {
        "dtype": "int32", 
        "shape": "273", 
        "span": "0"
      }
    }, 
    {
      "type_key": "Array", 
      "data": [274]
    }, 
    {
      "type_key": "IntImm", 
      "attrs": {
        "dtype": "int32", 
        "span": "0", 
        "value": "12"
      }
    }
  ], 
  "b64ndarrays": [
    "…", 
    "…", 
    "…", 
    "…", 
    "…", 
    "…", 
    "…", 
    "…", 
    "…", 
    "…", 
    "…", 
    "…", 
    "…", 
    "…", 
    "…", 
    "…", 
    "…", 
    "…", 
    "…", 
    "…", 
    "…", 
    "…", 
    "…", 
    "…", 
    "…", 
    "…", 
    "…", 
    "…", 
    "…", 
    "…", 
    "…", 
    "…", 
    "…", 
    "…", 
    "…", 
    "…", 
    "…", 
    "…", 
    "…", 
    "…", 
    "…", 
    "…", 
    "…", 
    "…", 
    "…", 
    "…", 
    "…", 
    "…", 
    "…", 
    "…", 
    "…", 
    "…", 
    "…", 
    "…", 
    "…", 
    "P6G0lvBAXt0AAAAAAAAAAAEAAAAAAAAAAQAAAAAgAQAMAAAAAAAAADAAAAAAAAAAYP////b///+z////mf///8L///+j////S////53////x////hf///2D///+mAAAA"
  ], 
  "attrs": {"tvm_version": "0.17.0"}
}