def @main(%input_1_int8: Tensor[(1, 96, 96, 3), int8] /* ty=Tensor[(1, 96, 96, 3), int8] span=input_1_int8:0:0 */, output_tensor_names=["Identity_int8"]) -> Tensor[(1, 2), int8] {
  %0 = @tvmgen_default_cmsis_nn_main_0(%input_1_int8, meta[relay.Constant][0] /* ty=Tensor[(8, 3, 3, 3), int8] */, meta[relay.Constant][1] /* ty=Tensor[(8), int32] */, meta[relay.Constant][2] /* ty=Tensor[(8), float32] span=model/activation/Relu;model/batch_normalization/FusedBatchNormV3;model/conv2d/BiasAdd/ReadVariableOp/resource;model/conv2d/BiasAdd;model/depthwise_conv2d/depthwise;model/conv2d/Conv2D1:0:0 */, meta[relay.Constant][3] /* ty=Tensor[(8), int32] */, meta[relay.Constant][4] /* ty=Tensor[(8), float32] span=model/activation/Relu;model/batch_normalization/FusedBatchNormV3;model/conv2d/BiasAdd/ReadVariableOp/resource;model/conv2d/BiasAdd;model/depthwise_conv2d/depthwise;model/conv2d/Conv2D1:0:0 */, meta[relay.Constant][5] /* ty=Tensor[(8), int32] */) /* ty=Tensor[(1, 48, 48, 8), int8] */;
  %1 = @tvmgen_default_cmsis_nn_main_1(%0, meta[relay.Constant][6] /* ty=Tensor[(3, 3, 8, 1), int8] */, meta[relay.Constant][7] /* ty=Tensor[(8), int32] */, meta[relay.Constant][8] /* ty=Tensor[(8), float32] span=model/activation_1/Relu;model/batch_normalization_1/FusedBatchNormV3;model/depthwise_conv2d/depthwise;model/depthwise_conv2d/BiasAdd;model/depthwise_conv2d/BiasAdd/ReadVariableOp/resource1:0:0 */, meta[relay.Constant][9] /* ty=Tensor[(8), int32] */, meta[relay.Constant][10] /* ty=Tensor[(8), float32] span=model/activation_1/Relu;model/batch_normalization_1/FusedBatchNormV3;model/depthwise_conv2d/depthwise;model/depthwise_conv2d/BiasAdd;model/depthwise_conv2d/BiasAdd/ReadVariableOp/resource1:0:0 */, meta[relay.Constant][11] /* ty=Tensor[(8), int32] */) /* ty=Tensor[(1, 48, 48, 8), int8] */;
  %2 = @tvmgen_default_cmsis_nn_main_2(%1, meta[relay.Constant][12] /* ty=Tensor[(16, 1, 1, 8), int8] */, meta[relay.Constant][13] /* ty=Tensor[(16), int32] */, meta[relay.Constant][14] /* ty=Tensor[(16), float32] span=model/activation_2/Relu;model/batch_normalization_2/FusedBatchNormV3;model/conv2d_1/BiasAdd/ReadVariableOp/resource;model/conv2d_1/BiasAdd;model/depthwise_conv2d_1/depthwise;model/conv2d_1/Conv2D1:0:0 */, meta[relay.Constant][15] /* ty=Tensor[(16), int32] */, meta[relay.Constant][16] /* ty=Tensor[(16), float32] span=model/activation_2/Relu;model/batch_normalization_2/FusedBatchNormV3;model/conv2d_1/BiasAdd/ReadVariableOp/resource;model/conv2d_1/BiasAdd;model/depthwise_conv2d_1/depthwise;model/conv2d_1/Conv2D1:0:0 */, meta[relay.Constant][17] /* ty=Tensor[(16), int32] */) /* ty=Tensor[(1, 48, 48, 16), int8] */;
  %3 = @tvmgen_default_cmsis_nn_main_3(%2, meta[relay.Constant][18] /* ty=Tensor[(3, 3, 16, 1), int8] */, meta[relay.Constant][19] /* ty=Tensor[(16), int32] */, meta[relay.Constant][20] /* ty=Tensor[(16), float32] span=model/activation_3/Relu;model/batch_normalization_3/FusedBatchNormV3;model/depthwise_conv2d_1/depthwise;model/depthwise_conv2d_1/BiasAdd;model/depthwise_conv2d_1/BiasAdd/ReadVariableOp/resource1:0:0 */, meta[relay.Constant][21] /* ty=Tensor[(16), int32] */, meta[relay.Constant][22] /* ty=Tensor[(16), float32] span=model/activation_3/Relu;model/batch_normalization_3/FusedBatchNormV3;model/depthwise_conv2d_1/depthwise;model/depthwise_conv2d_1/BiasAdd;model/depthwise_conv2d_1/BiasAdd/ReadVariableOp/resource1:0:0 */, meta[relay.Constant][23] /* ty=Tensor[(16), int32] */) /* ty=Tensor[(1, 24, 24, 16), int8] */;
  %4 = @tvmgen_default_cmsis_nn_main_4(%3, meta[relay.Constant][24] /* ty=Tensor[(32, 1, 1, 16), int8] */, meta[relay.Constant][25] /* ty=Tensor[(32), int32] */, meta[relay.Constant][26] /* ty=Tensor[(32), float32] span=model/activation_4/Relu;model/batch_normalization_4/FusedBatchNormV3;model/conv2d_2/BiasAdd/ReadVariableOp/resource;model/conv2d_2/BiasAdd;model/depthwise_conv2d_3/depthwise;model/conv2d_2/Conv2D1:0:0 */, meta[relay.Constant][27] /* ty=Tensor[(32), int32] */, meta[relay.Constant][28] /* ty=Tensor[(32), float32] span=model/activation_4/Relu;model/batch_normalization_4/FusedBatchNormV3;model/conv2d_2/BiasAdd/ReadVariableOp/resource;model/conv2d_2/BiasAdd;model/depthwise_conv2d_3/depthwise;model/conv2d_2/Conv2D1:0:0 */, meta[relay.Constant][29] /* ty=Tensor[(32), int32] */) /* ty=Tensor[(1, 24, 24, 32), int8] */;
  %5 = @tvmgen_default_cmsis_nn_main_5(%4, meta[relay.Constant][30] /* ty=Tensor[(3, 3, 32, 1), int8] */, meta[relay.Constant][31] /* ty=Tensor[(32), int32] */, meta[relay.Constant][32] /* ty=Tensor[(32), float32] span=model/activation_5/Relu;model/batch_normalization_5/FusedBatchNormV3;model/depthwise_conv2d_2/depthwise;model/depthwise_conv2d_2/BiasAdd;model/depthwise_conv2d_3/depthwise;model/depthwise_conv2d_2/BiasAdd/ReadVariableOp/resource1:0:0 */, meta[relay.Constant][33] /* ty=Tensor[(32), int32] */, meta[relay.Constant][34] /* ty=Tensor[(32), float32] span=model/activation_5/Relu;model/batch_normalization_5/FusedBatchNormV3;model/depthwise_conv2d_2/depthwise;model/depthwise_conv2d_2/BiasAdd;model/depthwise_conv2d_3/depthwise;model/depthwise_conv2d_2/BiasAdd/ReadVariableOp/resource1:0:0 */, meta[relay.Constant][35] /* ty=Tensor[(32), int32] */) /* ty=Tensor[(1, 24, 24, 32), int8] */;
  %6 = @tvmgen_default_cmsis_nn_main_6(%5, meta[relay.Constant][36] /* ty=Tensor[(32, 1, 1, 32), int8] */, meta[relay.Constant][37] /* ty=Tensor[(32), int32] */, meta[relay.Constant][38] /* ty=Tensor[(32), float32] span=model/activation_6/Relu;model/batch_normalization_6/FusedBatchNormV3;model/conv2d_3/BiasAdd/ReadVariableOp/resource;model/conv2d_3/BiasAdd;model/depthwise_conv2d_3/depthwise;model/conv2d_3/Conv2D1:0:0 */, meta[relay.Constant][39] /* ty=Tensor[(32), int32] */, meta[relay.Constant][40] /* ty=Tensor[(32), float32] span=model/activation_6/Relu;model/batch_normalization_6/FusedBatchNormV3;model/conv2d_3/BiasAdd/ReadVariableOp/resource;model/conv2d_3/BiasAdd;model/depthwise_conv2d_3/depthwise;model/conv2d_3/Conv2D1:0:0 */, meta[relay.Constant][41] /* ty=Tensor[(32), int32] */) /* ty=Tensor[(1, 24, 24, 32), int8] */;
  %7 = @tvmgen_default_cmsis_nn_main_7(%6, meta[relay.Constant][42] /* ty=Tensor[(3, 3, 32, 1), int8] */, meta[relay.Constant][43] /* ty=Tensor[(32), int32] */, meta[relay.Constant][44] /* ty=Tensor[(32), float32] span=model/activation_7/Relu;model/batch_normalization_7/FusedBatchNormV3;model/depthwise_conv2d_3/depthwise;model/depthwise_conv2d_3/BiasAdd;model/depthwise_conv2d_3/BiasAdd/ReadVariableOp/resource1:0:0 */, meta[relay.Constant][45] /* ty=Tensor[(32), int32] */, meta[relay.Constant][46] /* ty=Tensor[(32), float32] span=model/activation_7/Relu;model/batch_normalization_7/FusedBatchNormV3;model/depthwise_conv2d_3/depthwise;model/depthwise_conv2d_3/BiasAdd;model/depthwise_conv2d_3/BiasAdd/ReadVariableOp/resource1:0:0 */, meta[relay.Constant][47] /* ty=Tensor[(32), int32] */) /* ty=Tensor[(1, 12, 12, 32), int8] */;
  %8 = @tvmgen_default_cmsis_nn_main_8(%7, meta[relay.Constant][48] /* ty=Tensor[(64, 1, 1, 32), int8] */, meta[relay.Constant][49] /* ty=Tensor[(64), int32] */, meta[relay.Constant][50] /* ty=Tensor[(64), float32] span=model/activation_8/Relu;model/batch_normalization_8/FusedBatchNormV3;model/conv2d_4/BiasAdd/ReadVariableOp/resource;model/conv2d_4/BiasAdd;model/depthwise_conv2d_5/depthwise;model/conv2d_4/Conv2D1:0:0 */, meta[relay.Constant][51] /* ty=Tensor[(64), int32] */, meta[relay.Constant][52] /* ty=Tensor[(64), float32] span=model/activation_8/Relu;model/batch_normalization_8/FusedBatchNormV3;model/conv2d_4/BiasAdd/ReadVariableOp/resource;model/conv2d_4/BiasAdd;model/depthwise_conv2d_5/depthwise;model/conv2d_4/Conv2D1:0:0 */, meta[relay.Constant][53] /* ty=Tensor[(64), int32] */) /* ty=Tensor[(1, 12, 12, 64), int8] */;
  %9 = @tvmgen_default_cmsis_nn_main_9(%8, meta[relay.Constant][54] /* ty=Tensor[(3, 3, 64, 1), int8] */, meta[relay.Constant][55] /* ty=Tensor[(64), int32] */, meta[relay.Constant][56] /* ty=Tensor[(64), float32] span=model/activation_9/Relu;model/batch_normalization_9/FusedBatchNormV3;model/depthwise_conv2d_4/depthwise;model/depthwise_conv2d_4/BiasAdd;model/depthwise_conv2d_5/depthwise;model/depthwise_conv2d_4/BiasAdd/ReadVariableOp/resource1:0:0 */, meta[relay.Constant][57] /* ty=Tensor[(64), int32] */, meta[relay.Constant][58] /* ty=Tensor[(64), float32] span=model/activation_9/Relu;model/batch_normalization_9/FusedBatchNormV3;model/depthwise_conv2d_4/depthwise;model/depthwise_conv2d_4/BiasAdd;model/depthwise_conv2d_5/depthwise;model/depthwise_conv2d_4/BiasAdd/ReadVariableOp/resource1:0:0 */, meta[relay.Constant][59] /* ty=Tensor[(64), int32] */) /* ty=Tensor[(1, 12, 12, 64), int8] */;
  %10 = @tvmgen_default_cmsis_nn_main_10(%9, meta[relay.Constant][60] /* ty=Tensor[(64, 1, 1, 64), int8] */, meta[relay.Constant][61] /* ty=Tensor[(64), int32] */, meta[relay.Constant][62] /* ty=Tensor[(64), float32] span=model/activation_10/Relu;model/batch_normalization_10/FusedBatchNormV3;model/conv2d_5/BiasAdd/ReadVariableOp/resource;model/conv2d_5/BiasAdd;model/depthwise_conv2d_5/depthwise;model/conv2d_5/Conv2D1:0:0 */, meta[relay.Constant][63] /* ty=Tensor[(64), int32] */, meta[relay.Constant][64] /* ty=Tensor[(64), float32] span=model/activation_10/Relu;model/batch_normalization_10/FusedBatchNormV3;model/conv2d_5/BiasAdd/ReadVariableOp/resource;model/conv2d_5/BiasAdd;model/depthwise_conv2d_5/depthwise;model/conv2d_5/Conv2D1:0:0 */, meta[relay.Constant][65] /* ty=Tensor[(64), int32] */) /* ty=Tensor[(1, 12, 12, 64), int8] */;
  %11 = @tvmgen_default_cmsis_nn_main_11(%10, meta[relay.Constant][66] /* ty=Tensor[(3, 3, 64, 1), int8] */, meta[relay.Constant][67] /* ty=Tensor[(64), int32] */, meta[relay.Constant][68] /* ty=Tensor[(64), float32] span=model/activation_11/Relu;model/batch_normalization_11/FusedBatchNormV3;model/depthwise_conv2d_5/depthwise;model/depthwise_conv2d_5/BiasAdd;model/depthwise_conv2d_5/BiasAdd/ReadVariableOp/resource1:0:0 */, meta[relay.Constant][69] /* ty=Tensor[(64), int32] */, meta[relay.Constant][70] /* ty=Tensor[(64), float32] span=model/activation_11/Relu;model/batch_normalization_11/FusedBatchNormV3;model/depthwise_conv2d_5/depthwise;model/depthwise_conv2d_5/BiasAdd;model/depthwise_conv2d_5/BiasAdd/ReadVariableOp/resource1:0:0 */, meta[relay.Constant][71] /* ty=Tensor[(64), int32] */) /* ty=Tensor[(1, 6, 6, 64), int8] */;
  %12 = @tvmgen_default_cmsis_nn_main_12(%11, meta[relay.Constant][72] /* ty=Tensor[(128, 1, 1, 64), int8] */, meta[relay.Constant][73] /* ty=Tensor[(128), int32] */, meta[relay.Constant][74] /* ty=Tensor[(128), float32] span=model/activation_12/Relu;model/batch_normalization_12/FusedBatchNormV3;model/conv2d_6/BiasAdd/ReadVariableOp/resource;model/conv2d_6/BiasAdd;model/depthwise_conv2d_11/depthwise;model/conv2d_6/Conv2D1:0:0 */, meta[relay.Constant][75] /* ty=Tensor[(128), int32] */, meta[relay.Constant][76] /* ty=Tensor[(128), float32] span=model/activation_12/Relu;model/batch_normalization_12/FusedBatchNormV3;model/conv2d_6/BiasAdd/ReadVariableOp/resource;model/conv2d_6/BiasAdd;model/depthwise_conv2d_11/depthwise;model/conv2d_6/Conv2D1:0:0 */, meta[relay.Constant][77] /* ty=Tensor[(128), int32] */) /* ty=Tensor[(1, 6, 6, 128), int8] */;
  %13 = @tvmgen_default_cmsis_nn_main_13(%12, meta[relay.Constant][78] /* ty=Tensor[(3, 3, 128, 1), int8] */, meta[relay.Constant][79] /* ty=Tensor[(128), int32] */, meta[relay.Constant][80] /* ty=Tensor[(128), float32] span=model/activation_13/Relu;model/batch_normalization_13/FusedBatchNormV3;model/depthwise_conv2d_6/depthwise;model/depthwise_conv2d_6/BiasAdd;model/depthwise_conv2d_11/depthwise;model/depthwise_conv2d_6/BiasAdd/ReadVariableOp/resource1:0:0 */, meta[relay.Constant][81] /* ty=Tensor[(128), int32] */, meta[relay.Constant][82] /* ty=Tensor[(128), float32] span=model/activation_13/Relu;model/batch_normalization_13/FusedBatchNormV3;model/depthwise_conv2d_6/depthwise;model/depthwise_conv2d_6/BiasAdd;model/depthwise_conv2d_11/depthwise;model/depthwise_conv2d_6/BiasAdd/ReadVariableOp/resource1:0:0 */, meta[relay.Constant][83] /* ty=Tensor[(128), int32] */) /* ty=Tensor[(1, 6, 6, 128), int8] */;
  %14 = @tvmgen_default_cmsis_nn_main_14(%13, meta[relay.Constant][84] /* ty=Tensor[(128, 1, 1, 128), int8] */, meta[relay.Constant][85] /* ty=Tensor[(128), int32] */, meta[relay.Constant][86] /* ty=Tensor[(128), float32] span=model/activation_14/Relu;model/batch_normalization_14/FusedBatchNormV3;model/conv2d_7/BiasAdd/ReadVariableOp/resource;model/conv2d_7/BiasAdd;model/depthwise_conv2d_11/depthwise;model/conv2d_7/Conv2D1:0:0 */, meta[relay.Constant][87] /* ty=Tensor[(128), int32] */, meta[relay.Constant][88] /* ty=Tensor[(128), float32] span=model/activation_14/Relu;model/batch_normalization_14/FusedBatchNormV3;model/conv2d_7/BiasAdd/ReadVariableOp/resource;model/conv2d_7/BiasAdd;model/depthwise_conv2d_11/depthwise;model/conv2d_7/Conv2D1:0:0 */, meta[relay.Constant][89] /* ty=Tensor[(128), int32] */) /* ty=Tensor[(1, 6, 6, 128), int8] */;
  %15 = @tvmgen_default_cmsis_nn_main_15(%14, meta[relay.Constant][90] /* ty=Tensor[(3, 3, 128, 1), int8] */, meta[relay.Constant][91] /* ty=Tensor[(128), int32] */, meta[relay.Constant][92] /* ty=Tensor[(128), float32] span=model/activation_15/Relu;model/batch_normalization_15/FusedBatchNormV3;model/depthwise_conv2d_7/depthwise;model/depthwise_conv2d_7/BiasAdd;model/depthwise_conv2d_11/depthwise;model/depthwise_conv2d_7/BiasAdd/ReadVariableOp/resource1:0:0 */, meta[relay.Constant][93] /* ty=Tensor[(128), int32] */, meta[relay.Constant][94] /* ty=Tensor[(128), float32] span=model/activation_15/Relu;model/batch_normalization_15/FusedBatchNormV3;model/depthwise_conv2d_7/depthwise;model/depthwise_conv2d_7/BiasAdd;model/depthwise_conv2d_11/depthwise;model/depthwise_conv2d_7/BiasAdd/ReadVariableOp/resource1:0:0 */, meta[relay.Constant][95] /* ty=Tensor[(128), int32] */) /* ty=Tensor[(1, 6, 6, 128), int8] */;
  %16 = @tvmgen_default_cmsis_nn_main_16(%15, meta[relay.Constant][96] /* ty=Tensor[(128, 1, 1, 128), int8] */, meta[relay.Constant][97] /* ty=Tensor[(128), int32] */, meta[relay.Constant][98] /* ty=Tensor[(128), float32] span=model/activation_16/Relu;model/batch_normalization_16/FusedBatchNormV3;model/conv2d_8/BiasAdd/ReadVariableOp/resource;model/conv2d_8/BiasAdd;model/depthwise_conv2d_11/depthwise;model/conv2d_8/Conv2D1:0:0 */, meta[relay.Constant][99] /* ty=Tensor[(128), int32] */, meta[relay.Constant][100] /* ty=Tensor[(128), float32] span=model/activation_16/Relu;model/batch_normalization_16/FusedBatchNormV3;model/conv2d_8/BiasAdd/ReadVariableOp/resource;model/conv2d_8/BiasAdd;model/depthwise_conv2d_11/depthwise;model/conv2d_8/Conv2D1:0:0 */, meta[relay.Constant][101] /* ty=Tensor[(128), int32] */) /* ty=Tensor[(1, 6, 6, 128), int8] */;
  %17 = @tvmgen_default_cmsis_nn_main_17(%16, meta[relay.Constant][102] /* ty=Tensor[(3, 3, 128, 1), int8] */, meta[relay.Constant][103] /* ty=Tensor[(128), int32] */, meta[relay.Constant][104] /* ty=Tensor[(128), float32] span=model/activation_17/Relu;model/batch_normalization_17/FusedBatchNormV3;model/depthwise_conv2d_8/depthwise;model/depthwise_conv2d_8/BiasAdd;model/depthwise_conv2d_11/depthwise;model/depthwise_conv2d_8/BiasAdd/ReadVariableOp/resource1:0:0 */, meta[relay.Constant][105] /* ty=Tensor[(128), int32] */, meta[relay.Constant][106] /* ty=Tensor[(128), float32] span=model/activation_17/Relu;model/batch_normalization_17/FusedBatchNormV3;model/depthwise_conv2d_8/depthwise;model/depthwise_conv2d_8/BiasAdd;model/depthwise_conv2d_11/depthwise;model/depthwise_conv2d_8/BiasAdd/ReadVariableOp/resource1:0:0 */, meta[relay.Constant][107] /* ty=Tensor[(128), int32] */) /* ty=Tensor[(1, 6, 6, 128), int8] */;
  %18 = @tvmgen_default_cmsis_nn_main_18(%17, meta[relay.Constant][108] /* ty=Tensor[(128, 1, 1, 128), int8] */, meta[relay.Constant][109] /* ty=Tensor[(128), int32] */, meta[relay.Constant][110] /* ty=Tensor[(128), float32] span=model/activation_18/Relu;model/batch_normalization_18/FusedBatchNormV3;model/conv2d_9/BiasAdd/ReadVariableOp/resource;model/conv2d_9/BiasAdd;model/depthwise_conv2d_11/depthwise;model/conv2d_9/Conv2D1:0:0 */, meta[relay.Constant][111] /* ty=Tensor[(128), int32] */, meta[relay.Constant][112] /* ty=Tensor[(128), float32] span=model/activation_18/Relu;model/batch_normalization_18/FusedBatchNormV3;model/conv2d_9/BiasAdd/ReadVariableOp/resource;model/conv2d_9/BiasAdd;model/depthwise_conv2d_11/depthwise;model/conv2d_9/Conv2D1:0:0 */, meta[relay.Constant][113] /* ty=Tensor[(128), int32] */) /* ty=Tensor[(1, 6, 6, 128), int8] */;
  %19 = @tvmgen_default_cmsis_nn_main_19(%18, meta[relay.Constant][114] /* ty=Tensor[(3, 3, 128, 1), int8] */, meta[relay.Constant][115] /* ty=Tensor[(128), int32] */, meta[relay.Constant][116] /* ty=Tensor[(128), float32] span=model/activation_19/Relu;model/batch_normalization_19/FusedBatchNormV3;model/depthwise_conv2d_9/depthwise;model/depthwise_conv2d_9/BiasAdd;model/depthwise_conv2d_11/depthwise;model/depthwise_conv2d_9/BiasAdd/ReadVariableOp/resource1:0:0 */, meta[relay.Constant][117] /* ty=Tensor[(128), int32] */, meta[relay.Constant][118] /* ty=Tensor[(128), float32] span=model/activation_19/Relu;model/batch_normalization_19/FusedBatchNormV3;model/depthwise_conv2d_9/depthwise;model/depthwise_conv2d_9/BiasAdd;model/depthwise_conv2d_11/depthwise;model/depthwise_conv2d_9/BiasAdd/ReadVariableOp/resource1:0:0 */, meta[relay.Constant][119] /* ty=Tensor[(128), int32] */) /* ty=Tensor[(1, 6, 6, 128), int8] */;
  %20 = @tvmgen_default_cmsis_nn_main_20(%19, meta[relay.Constant][120] /* ty=Tensor[(128, 1, 1, 128), int8] */, meta[relay.Constant][121] /* ty=Tensor[(128), int32] */, meta[relay.Constant][122] /* ty=Tensor[(128), float32] span=model/activation_20/Relu;model/batch_normalization_20/FusedBatchNormV3;model/conv2d_10/BiasAdd/ReadVariableOp/resource;model/conv2d_10/BiasAdd;model/depthwise_conv2d_11/depthwise;model/conv2d_10/Conv2D1:0:0 */, meta[relay.Constant][123] /* ty=Tensor[(128), int32] */, meta[relay.Constant][124] /* ty=Tensor[(128), float32] span=model/activation_20/Relu;model/batch_normalization_20/FusedBatchNormV3;model/conv2d_10/BiasAdd/ReadVariableOp/resource;model/conv2d_10/BiasAdd;model/depthwise_conv2d_11/depthwise;model/conv2d_10/Conv2D1:0:0 */, meta[relay.Constant][125] /* ty=Tensor[(128), int32] */) /* ty=Tensor[(1, 6, 6, 128), int8] */;
  %21 = @tvmgen_default_cmsis_nn_main_21(%20, meta[relay.Constant][126] /* ty=Tensor[(3, 3, 128, 1), int8] */, meta[relay.Constant][127] /* ty=Tensor[(128), int32] */, meta[relay.Constant][128] /* ty=Tensor[(128), float32] span=model/activation_21/Relu;model/batch_normalization_21/FusedBatchNormV3;model/depthwise_conv2d_10/depthwise;model/depthwise_conv2d_10/BiasAdd;model/depthwise_conv2d_11/depthwise;model/depthwise_conv2d_10/BiasAdd/ReadVariableOp/resource1:0:0 */, meta[relay.Constant][129] /* ty=Tensor[(128), int32] */, meta[relay.Constant][130] /* ty=Tensor[(128), float32] span=model/activation_21/Relu;model/batch_normalization_21/FusedBatchNormV3;model/depthwise_conv2d_10/depthwise;model/depthwise_conv2d_10/BiasAdd;model/depthwise_conv2d_11/depthwise;model/depthwise_conv2d_10/BiasAdd/ReadVariableOp/resource1:0:0 */, meta[relay.Constant][131] /* ty=Tensor[(128), int32] */) /* ty=Tensor[(1, 6, 6, 128), int8] */;
  %22 = @tvmgen_default_cmsis_nn_main_22(%21, meta[relay.Constant][132] /* ty=Tensor[(128, 1, 1, 128), int8] */, meta[relay.Constant][133] /* ty=Tensor[(128), int32] */, meta[relay.Constant][134] /* ty=Tensor[(128), float32] span=model/activation_22/Relu;model/batch_normalization_22/FusedBatchNormV3;model/conv2d_11/BiasAdd/ReadVariableOp/resource;model/conv2d_11/BiasAdd;model/depthwise_conv2d_11/depthwise;model/conv2d_11/Conv2D1:0:0 */, meta[relay.Constant][135] /* ty=Tensor[(128), int32] */, meta[relay.Constant][136] /* ty=Tensor[(128), float32] span=model/activation_22/Relu;model/batch_normalization_22/FusedBatchNormV3;model/conv2d_11/BiasAdd/ReadVariableOp/resource;model/conv2d_11/BiasAdd;model/depthwise_conv2d_11/depthwise;model/conv2d_11/Conv2D1:0:0 */, meta[relay.Constant][137] /* ty=Tensor[(128), int32] */) /* ty=Tensor[(1, 6, 6, 128), int8] */;
  %23 = @tvmgen_default_cmsis_nn_main_23(%22, meta[relay.Constant][138] /* ty=Tensor[(3, 3, 128, 1), int8] */, meta[relay.Constant][139] /* ty=Tensor[(128), int32] */, meta[relay.Constant][140] /* ty=Tensor[(128), float32] span=model/activation_23/Relu;model/batch_normalization_23/FusedBatchNormV3;model/depthwise_conv2d_11/depthwise;model/depthwise_conv2d_11/BiasAdd;model/depthwise_conv2d_11/BiasAdd/ReadVariableOp/resource1:0:0 */, meta[relay.Constant][141] /* ty=Tensor[(128), int32] */, meta[relay.Constant][142] /* ty=Tensor[(128), float32] span=model/activation_23/Relu;model/batch_normalization_23/FusedBatchNormV3;model/depthwise_conv2d_11/depthwise;model/depthwise_conv2d_11/BiasAdd;model/depthwise_conv2d_11/BiasAdd/ReadVariableOp/resource1:0:0 */, meta[relay.Constant][143] /* ty=Tensor[(128), int32] */) /* ty=Tensor[(1, 3, 3, 128), int8] */;
  %24 = @tvmgen_default_cmsis_nn_main_24(%23, meta[relay.Constant][144] /* ty=Tensor[(256, 1, 1, 128), int8] */, meta[relay.Constant][145] /* ty=Tensor[(256), int32] */, meta[relay.Constant][146] /* ty=Tensor[(256), float32] span=model/activation_24/Relu;model/batch_normalization_24/FusedBatchNormV3;model/conv2d_12/BiasAdd/ReadVariableOp/resource;model/conv2d_12/BiasAdd;model/conv2d_13/Conv2D;model/conv2d_12/Conv2D1:0:0 */, meta[relay.Constant][147] /* ty=Tensor[(256), int32] */, meta[relay.Constant][148] /* ty=Tensor[(256), float32] span=model/activation_24/Relu;model/batch_normalization_24/FusedBatchNormV3;model/conv2d_12/BiasAdd/ReadVariableOp/resource;model/conv2d_12/BiasAdd;model/conv2d_13/Conv2D;model/conv2d_12/Conv2D1:0:0 */, meta[relay.Constant][149] /* ty=Tensor[(256), int32] */) /* ty=Tensor[(1, 3, 3, 256), int8] */;
  %25 = @tvmgen_default_cmsis_nn_main_25(%24, meta[relay.Constant][150] /* ty=Tensor[(3, 3, 256, 1), int8] */, meta[relay.Constant][151] /* ty=Tensor[(256), int32] */, meta[relay.Constant][152] /* ty=Tensor[(256), float32] span=model/activation_25/Relu;model/batch_normalization_25/FusedBatchNormV3;model/depthwise_conv2d_12/depthwise;model/depthwise_conv2d_12/BiasAdd;model/conv2d_13/Conv2D;model/depthwise_conv2d_12/BiasAdd/ReadVariableOp/resource1:0:0 */, meta[relay.Constant][153] /* ty=Tensor[(256), int32] */, meta[relay.Constant][154] /* ty=Tensor[(256), float32] span=model/activation_25/Relu;model/batch_normalization_25/FusedBatchNormV3;model/depthwise_conv2d_12/depthwise;model/depthwise_conv2d_12/BiasAdd;model/conv2d_13/Conv2D;model/depthwise_conv2d_12/BiasAdd/ReadVariableOp/resource1:0:0 */, meta[relay.Constant][155] /* ty=Tensor[(256), int32] */) /* ty=Tensor[(1, 3, 3, 256), int8] */;
  %26 = @tvmgen_default_cmsis_nn_main_26(%25, meta[relay.Constant][156] /* ty=Tensor[(256, 1, 1, 256), int8] */, meta[relay.Constant][157] /* ty=Tensor[(256), int32] */, meta[relay.Constant][158] /* ty=Tensor[(256), float32] span=model/activation_26/Relu;model/batch_normalization_26/FusedBatchNormV3;model/conv2d_13/BiasAdd/ReadVariableOp/resource;model/conv2d_13/BiasAdd;model/conv2d_13/Conv2D1:0:0 */, meta[relay.Constant][159] /* ty=Tensor[(256), int32] */, meta[relay.Constant][160] /* ty=Tensor[(256), float32] span=model/activation_26/Relu;model/batch_normalization_26/FusedBatchNormV3;model/conv2d_13/BiasAdd/ReadVariableOp/resource;model/conv2d_13/BiasAdd;model/conv2d_13/Conv2D1:0:0 */, meta[relay.Constant][161] /* ty=Tensor[(256), int32] */) /* ty=Tensor[(1, 3, 3, 256), int8] */;
  %27 = @tvmgen_default_cmsis_nn_main_27(%26) /* ty=Tensor[(1, 1, 1, 256), int8] */;
  %28 = reshape(%27, newshape=[-1, 256]) /* ty=Tensor[(1, 256), int8] span=model/flatten/Reshape:0:0 */;
  %29 = reshape(%28, newshape=[-1, 256]) /* ty=Tensor[(1, 256), int8] span=model/dense/MatMul;model/dense/BiasAdd:0:0 */;
  %30 = @tvmgen_default_cmsis_nn_main_28(%29, meta[relay.Constant][162] /* ty=Tensor[(2, 256), int8] */, meta[relay.Constant][163] /* ty=Tensor[(2), int32] */) /* ty=Tensor[(1, 2), int8] */;
  @tvmgen_default_cmsis_nn_main_29(%30) /* ty=Tensor[(1, 2), int8] */
}

def @tvmgen_default_cmsis_nn_main_0(%cmsis-nn_0_i0: Tensor[(1, 96, 96, 3), int8] /* ty=Tensor[(1, 96, 96, 3), int8] */, %tvm_var_extract_const_6: Tensor[(8, 3, 3, 3), int8] /* ty=Tensor[(8, 3, 3, 3), int8] */, %tvm_var_extract_const_7: Tensor[(8), int32] /* ty=Tensor[(8), int32] */, %tvm_var_extract_const_8: Tensor[(8), float32] /* ty=Tensor[(8), float32] */, %tvm_var_extract_const_9: Tensor[(8), int32] /* ty=Tensor[(8), int32] */, %tvm_var_extract_const_10: Tensor[(8), float32] /* ty=Tensor[(8), float32] */, %tvm_var_extract_const_11: Tensor[(8), int32] /* ty=Tensor[(8), int32] */, Compiler="cmsis-nn", Primitive=1, Inline=1, global_symbol="tvmgen_default_cmsis_nn_main_0") -> Tensor[(1, 48, 48, 8), int8] {
  %34 = fn (%FunctionVar_26_0: Tensor[(1, 96, 96, 3), int8] /* ty=Tensor[(1, 96, 96, 3), int8] */, %tvm_var_extract_const_0: Tensor[(8, 3, 3, 3), int8] /* ty=Tensor[(8, 3, 3, 3), int8] */, %tvm_var_extract_const_1: Tensor[(8), int32] /* ty=Tensor[(8), int32] */, %tvm_var_extract_const_2: Tensor[(8), float32] /* ty=Tensor[(8), float32] */, %tvm_var_extract_const_3: Tensor[(8), int32] /* ty=Tensor[(8), int32] */, %tvm_var_extract_const_4: Tensor[(8), float32] /* ty=Tensor[(8), float32] */, %tvm_var_extract_const_5: Tensor[(8), int32] /* ty=Tensor[(8), int32] */, PartitionedFromPattern="qnn.conv2d_nn.bias_add_qnn.requantize_clip_", Composite="cmsis-nn.qnn_conv2d") -> Tensor[(1, 48, 48, 8), int8] {
    %31 = qnn.conv2d(%FunctionVar_26_0, %tvm_var_extract_const_0, -128 /* ty=int32 span=model/activation/Relu;model/batch_normalization/FusedBatchNormV3;model/conv2d/BiasAdd/ReadVariableOp/resource;model/conv2d/BiasAdd;model/depthwise_conv2d/depthwise;model/conv2d/Conv2D1:0:0 */, %tvm_var_extract_const_1, 0.00392157f /* ty=float32 span=model/activation/Relu;model/batch_normalization/FusedBatchNormV3;model/conv2d/BiasAdd/ReadVariableOp/resource;model/conv2d/BiasAdd;model/depthwise_conv2d/depthwise;model/conv2d/Conv2D1:0:0 */, %tvm_var_extract_const_2, strides=[2, 2], padding=[0, 0, 1, 1], channels=8, kernel_size=[3, 3], data_layout="NHWC", kernel_layout="OHWI", out_dtype="int32") /* ty=Tensor[(1, 48, 48, 8), int32] span=model/activation/Relu;model/batch_normalization/FusedBatchNormV3;model/conv2d/BiasAdd/ReadVariableOp/resource;model/conv2d/BiasAdd;model/depthwise_conv2d/depthwise;model/conv2d/Conv2D1:0:0 */;
    %32 = nn.bias_add(%31, %tvm_var_extract_const_3, axis=3) /* ty=Tensor[(1, 48, 48, 8), int32] span=model/activation/Relu;model/batch_normalization/FusedBatchNormV3;model/conv2d/BiasAdd/ReadVariableOp/resource;model/conv2d/BiasAdd;model/depthwise_conv2d/depthwise;model/conv2d/Conv2D1:0:0 */;
    %33 = qnn.requantize(%32, %tvm_var_extract_const_4, %tvm_var_extract_const_5, 0.01497f /* ty=float32 span=model/activation/Relu;model/batch_normalization/FusedBatchNormV3;model/conv2d/BiasAdd/ReadVariableOp/resource;model/conv2d/BiasAdd;model/depthwise_conv2d/depthwise;model/conv2d/Conv2D1:0:0 */, -128 /* ty=int32 span=model/activation/Relu;model/batch_normalization/FusedBatchNormV3;model/conv2d/BiasAdd/ReadVariableOp/resource;model/conv2d/BiasAdd;model/depthwise_conv2d/depthwise;model/conv2d/Conv2D1:0:0 */, axis=3, out_dtype="int8") /* ty=Tensor[(1, 48, 48, 8), int8] span=model/activation/Relu;model/batch_normalization/FusedBatchNormV3;model/conv2d/BiasAdd/ReadVariableOp/resource;model/conv2d/BiasAdd;model/depthwise_conv2d/depthwise;model/conv2d/Conv2D1:0:0 */;
    clip(%33, a_min=-128f, a_max=127f) /* ty=Tensor[(1, 48, 48, 8), int8] span=model/activation/Relu;model/batch_normalization/FusedBatchNormV3;model/conv2d/BiasAdd/ReadVariableOp/resource;model/conv2d/BiasAdd;model/depthwise_conv2d/depthwise;model/conv2d/Conv2D1:0:0 */
  } /* ty=fn (Tensor[(1, 96, 96, 3), int8], Tensor[(8, 3, 3, 3), int8], Tensor[(8), int32], Tensor[(8), float32], Tensor[(8), int32], Tensor[(8), float32], Tensor[(8), int32]) -> Tensor[(1, 48, 48, 8), int8] */;
  %34(%cmsis-nn_0_i0, %tvm_var_extract_const_6, %tvm_var_extract_const_7, %tvm_var_extract_const_8, %tvm_var_extract_const_9, %tvm_var_extract_const_10, %tvm_var_extract_const_11) /* ty=Tensor[(1, 48, 48, 8), int8] */
}

def @tvmgen_default_cmsis_nn_main_1(%cmsis-nn_1_i0: Tensor[(1, 48, 48, 8), int8] /* ty=Tensor[(1, 48, 48, 8), int8] */, %tvm_var_extract_const_24: Tensor[(3, 3, 8, 1), int8] /* ty=Tensor[(3, 3, 8, 1), int8] */, %tvm_var_extract_const_25: Tensor[(8), int32] /* ty=Tensor[(8), int32] */, %tvm_var_extract_const_26: Tensor[(8), float32] /* ty=Tensor[(8), float32] */, %tvm_var_extract_const_27: Tensor[(8), int32] /* ty=Tensor[(8), int32] */, %tvm_var_extract_const_28: Tensor[(8), float32] /* ty=Tensor[(8), float32] */, %tvm_var_extract_const_29: Tensor[(8), int32] /* ty=Tensor[(8), int32] */, Compiler="cmsis-nn", Primitive=1, Inline=1, global_symbol="tvmgen_default_cmsis_nn_main_1") -> Tensor[(1, 48, 48, 8), int8] {
  %38 = fn (%FunctionVar_25_0: Tensor[(1, 48, 48, 8), int8] /* ty=Tensor[(1, 48, 48, 8), int8] */, %tvm_var_extract_const_18: Tensor[(3, 3, 8, 1), int8] /* ty=Tensor[(3, 3, 8, 1), int8] */, %tvm_var_extract_const_19: Tensor[(8), int32] /* ty=Tensor[(8), int32] */, %tvm_var_extract_const_20: Tensor[(8), float32] /* ty=Tensor[(8), float32] */, %tvm_var_extract_const_21: Tensor[(8), int32] /* ty=Tensor[(8), int32] */, %tvm_var_extract_const_22: Tensor[(8), float32] /* ty=Tensor[(8), float32] */, %tvm_var_extract_const_23: Tensor[(8), int32] /* ty=Tensor[(8), int32] */, PartitionedFromPattern="qnn.conv2d_nn.bias_add_qnn.requantize_clip_", Composite="cmsis-nn.qnn_conv2d") -> Tensor[(1, 48, 48, 8), int8] {
    %35 = qnn.conv2d(%FunctionVar_25_0, %tvm_var_extract_const_18, -128 /* ty=int32 span=model/activation_1/Relu;model/batch_normalization_1/FusedBatchNormV3;model/depthwise_conv2d/depthwise;model/depthwise_conv2d/BiasAdd;model/depthwise_conv2d/BiasAdd/ReadVariableOp/resource1:0:0 */, %tvm_var_extract_const_19, 0.01497f /* ty=float32 span=model/activation_1/Relu;model/batch_normalization_1/FusedBatchNormV3;model/depthwise_conv2d/depthwise;model/depthwise_conv2d/BiasAdd;model/depthwise_conv2d/BiasAdd/ReadVariableOp/resource1:0:0 */, %tvm_var_extract_const_20, padding=[1, 1, 1, 1], groups=8, channels=8, kernel_size=[3, 3], data_layout="NHWC", kernel_layout="HWOI", out_dtype="int32") /* ty=Tensor[(1, 48, 48, 8), int32] span=model/activation_1/Relu;model/batch_normalization_1/FusedBatchNormV3;model/depthwise_conv2d/depthwise;model/depthwise_conv2d/BiasAdd;model/depthwise_conv2d/BiasAdd/ReadVariableOp/resource1:0:0 */;
    %36 = nn.bias_add(%35, %tvm_var_extract_const_21, axis=3) /* ty=Tensor[(1, 48, 48, 8), int32] span=model/activation_1/Relu;model/batch_normalization_1/FusedBatchNormV3;model/depthwise_conv2d/depthwise;model/depthwise_conv2d/BiasAdd;model/depthwise_conv2d/BiasAdd/ReadVariableOp/resource1:0:0 */;
    %37 = qnn.requantize(%36, %tvm_var_extract_const_22, %tvm_var_extract_const_23, 0.0483876f /* ty=float32 span=model/activation_1/Relu;model/batch_normalization_1/FusedBatchNormV3;model/depthwise_conv2d/depthwise;model/depthwise_conv2d/BiasAdd;model/depthwise_conv2d/BiasAdd/ReadVariableOp/resource1:0:0 */, -128 /* ty=int32 span=model/activation_1/Relu;model/batch_normalization_1/FusedBatchNormV3;model/depthwise_conv2d/depthwise;model/depthwise_conv2d/BiasAdd;model/depthwise_conv2d/BiasAdd/ReadVariableOp/resource1:0:0 */, axis=3, out_dtype="int8") /* ty=Tensor[(1, 48, 48, 8), int8] span=model/activation_1/Relu;model/batch_normalization_1/FusedBatchNormV3;model/depthwise_conv2d/depthwise;model/depthwise_conv2d/BiasAdd;model/depthwise_conv2d/BiasAdd/ReadVariableOp/resource1:0:0 */;
    clip(%37, a_min=-128f, a_max=127f) /* ty=Tensor[(1, 48, 48, 8), int8] span=model/activation_1/Relu;model/batch_normalization_1/FusedBatchNormV3;model/depthwise_conv2d/depthwise;model/depthwise_conv2d/BiasAdd;model/depthwise_conv2d/BiasAdd/ReadVariableOp/resource1:0:0 */
  } /* ty=fn (Tensor[(1, 48, 48, 8), int8], Tensor[(3, 3, 8, 1), int8], Tensor[(8), int32], Tensor[(8), float32], Tensor[(8), int32], Tensor[(8), float32], Tensor[(8), int32]) -> Tensor[(1, 48, 48, 8), int8] */;
  %38(%cmsis-nn_1_i0, %tvm_var_extract_const_24, %tvm_var_extract_const_25, %tvm_var_extract_const_26, %tvm_var_extract_const_27, %tvm_var_extract_const_28, %tvm_var_extract_const_29) /* ty=Tensor[(1, 48, 48, 8), int8] */
}

def @tvmgen_default_cmsis_nn_main_10(%cmsis-nn_10_i0: Tensor[(1, 12, 12, 64), int8] /* ty=Tensor[(1, 12, 12, 64), int8] */, %tvm_var_extract_const_186: Tensor[(64, 1, 1, 64), int8] /* ty=Tensor[(64, 1, 1, 64), int8] */, %tvm_var_extract_const_187: Tensor[(64), int32] /* ty=Tensor[(64), int32] */, %tvm_var_extract_const_188: Tensor[(64), float32] /* ty=Tensor[(64), float32] */, %tvm_var_extract_const_189: Tensor[(64), int32] /* ty=Tensor[(64), int32] */, %tvm_var_extract_const_190: Tensor[(64), float32] /* ty=Tensor[(64), float32] */, %tvm_var_extract_const_191: Tensor[(64), int32] /* ty=Tensor[(64), int32] */, Compiler="cmsis-nn", Primitive=1, Inline=1, global_symbol="tvmgen_default_cmsis_nn_main_10") -> Tensor[(1, 12, 12, 64), int8] {
  %42 = fn (%FunctionVar_16_0: Tensor[(1, 12, 12, 64), int8] /* ty=Tensor[(1, 12, 12, 64), int8] */, %tvm_var_extract_const_180: Tensor[(64, 1, 1, 64), int8] /* ty=Tensor[(64, 1, 1, 64), int8] */, %tvm_var_extract_const_181: Tensor[(64), int32] /* ty=Tensor[(64), int32] */, %tvm_var_extract_const_182: Tensor[(64), float32] /* ty=Tensor[(64), float32] */, %tvm_var_extract_const_183: Tensor[(64), int32] /* ty=Tensor[(64), int32] */, %tvm_var_extract_const_184: Tensor[(64), float32] /* ty=Tensor[(64), float32] */, %tvm_var_extract_const_185: Tensor[(64), int32] /* ty=Tensor[(64), int32] */, PartitionedFromPattern="qnn.conv2d_nn.bias_add_qnn.requantize_clip_", Composite="cmsis-nn.qnn_conv2d") -> Tensor[(1, 12, 12, 64), int8] {
    %39 = qnn.conv2d(%FunctionVar_16_0, %tvm_var_extract_const_180, -128 /* ty=int32 span=model/activation_10/Relu;model/batch_normalization_10/FusedBatchNormV3;model/conv2d_5/BiasAdd/ReadVariableOp/resource;model/conv2d_5/BiasAdd;model/depthwise_conv2d_5/depthwise;model/conv2d_5/Conv2D1:0:0 */, %tvm_var_extract_const_181, 0.0315622f /* ty=float32 span=model/activation_10/Relu;model/batch_normalization_10/FusedBatchNormV3;model/conv2d_5/BiasAdd/ReadVariableOp/resource;model/conv2d_5/BiasAdd;model/depthwise_conv2d_5/depthwise;model/conv2d_5/Conv2D1:0:0 */, %tvm_var_extract_const_182, padding=[0, 0, 0, 0], channels=64, kernel_size=[1, 1], data_layout="NHWC", kernel_layout="OHWI", out_dtype="int32") /* ty=Tensor[(1, 12, 12, 64), int32] span=model/activation_10/Relu;model/batch_normalization_10/FusedBatchNormV3;model/conv2d_5/BiasAdd/ReadVariableOp/resource;model/conv2d_5/BiasAdd;model/depthwise_conv2d_5/depthwise;model/conv2d_5/Conv2D1:0:0 */;
    %40 = nn.bias_add(%39, %tvm_var_extract_const_183, axis=3) /* ty=Tensor[(1, 12, 12, 64), int32] span=model/activation_10/Relu;model/batch_normalization_10/FusedBatchNormV3;model/conv2d_5/BiasAdd/ReadVariableOp/resource;model/conv2d_5/BiasAdd;model/depthwise_conv2d_5/depthwise;model/conv2d_5/Conv2D1:0:0 */;
    %41 = qnn.requantize(%40, %tvm_var_extract_const_184, %tvm_var_extract_const_185, 0.0296601f /* ty=float32 span=model/activation_10/Relu;model/batch_normalization_10/FusedBatchNormV3;model/conv2d_5/BiasAdd/ReadVariableOp/resource;model/conv2d_5/BiasAdd;model/depthwise_conv2d_5/depthwise;model/conv2d_5/Conv2D1:0:0 */, -128 /* ty=int32 span=model/activation_10/Relu;model/batch_normalization_10/FusedBatchNormV3;model/conv2d_5/BiasAdd/ReadVariableOp/resource;model/conv2d_5/BiasAdd;model/depthwise_conv2d_5/depthwise;model/conv2d_5/Conv2D1:0:0 */, axis=3, out_dtype="int8") /* ty=Tensor[(1, 12, 12, 64), int8] span=model/activation_10/Relu;model/batch_normalization_10/FusedBatchNormV3;model/conv2d_5/BiasAdd/ReadVariableOp/resource;model/conv2d_5/BiasAdd;model/depthwise_conv2d_5/depthwise;model/conv2d_5/Conv2D1:0:0 */;
    clip(%41, a_min=-128f, a_max=127f) /* ty=Tensor[(1, 12, 12, 64), int8] span=model/activation_10/Relu;model/batch_normalization_10/FusedBatchNormV3;model/conv2d_5/BiasAdd/ReadVariableOp/resource;model/conv2d_5/BiasAdd;model/depthwise_conv2d_5/depthwise;model/conv2d_5/Conv2D1:0:0 */
  } /* ty=fn (Tensor[(1, 12, 12, 64), int8], Tensor[(64, 1, 1, 64), int8], Tensor[(64), int32], Tensor[(64), float32], Tensor[(64), int32], Tensor[(64), float32], Tensor[(64), int32]) -> Tensor[(1, 12, 12, 64), int8] */;
  %42(%cmsis-nn_10_i0, %tvm_var_extract_const_186, %tvm_var_extract_const_187, %tvm_var_extract_const_188, %tvm_var_extract_const_189, %tvm_var_extract_const_190, %tvm_var_extract_const_191) /* ty=Tensor[(1, 12, 12, 64), int8] */
}

def @tvmgen_default_cmsis_nn_main_11(%cmsis-nn_11_i0: Tensor[(1, 12, 12, 64), int8] /* ty=Tensor[(1, 12, 12, 64), int8] */, %tvm_var_extract_const_204: Tensor[(3, 3, 64, 1), int8] /* ty=Tensor[(3, 3, 64, 1), int8] */, %tvm_var_extract_const_205: Tensor[(64), int32] /* ty=Tensor[(64), int32] */, %tvm_var_extract_const_206: Tensor[(64), float32] /* ty=Tensor[(64), float32] */, %tvm_var_extract_const_207: Tensor[(64), int32] /* ty=Tensor[(64), int32] */, %tvm_var_extract_const_208: Tensor[(64), float32] /* ty=Tensor[(64), float32] */, %tvm_var_extract_const_209: Tensor[(64), int32] /* ty=Tensor[(64), int32] */, Compiler="cmsis-nn", Primitive=1, Inline=1, global_symbol="tvmgen_default_cmsis_nn_main_11") -> Tensor[(1, 6, 6, 64), int8] {
  %46 = fn (%FunctionVar_15_0: Tensor[(1, 12, 12, 64), int8] /* ty=Tensor[(1, 12, 12, 64), int8] */, %tvm_var_extract_const_198: Tensor[(3, 3, 64, 1), int8] /* ty=Tensor[(3, 3, 64, 1), int8] */, %tvm_var_extract_const_199: Tensor[(64), int32] /* ty=Tensor[(64), int32] */, %tvm_var_extract_const_200: Tensor[(64), float32] /* ty=Tensor[(64), float32] */, %tvm_var_extract_const_201: Tensor[(64), int32] /* ty=Tensor[(64), int32] */, %tvm_var_extract_const_202: Tensor[(64), float32] /* ty=Tensor[(64), float32] */, %tvm_var_extract_const_203: Tensor[(64), int32] /* ty=Tensor[(64), int32] */, PartitionedFromPattern="qnn.conv2d_nn.bias_add_qnn.requantize_clip_", Composite="cmsis-nn.qnn_conv2d") -> Tensor[(1, 6, 6, 64), int8] {
    %43 = qnn.conv2d(%FunctionVar_15_0, %tvm_var_extract_const_198, -128 /* ty=int32 span=model/activation_11/Relu;model/batch_normalization_11/FusedBatchNormV3;model/depthwise_conv2d_5/depthwise;model/depthwise_conv2d_5/BiasAdd;model/depthwise_conv2d_5/BiasAdd/ReadVariableOp/resource1:0:0 */, %tvm_var_extract_const_199, 0.0296601f /* ty=float32 span=model/activation_11/Relu;model/batch_normalization_11/FusedBatchNormV3;model/depthwise_conv2d_5/depthwise;model/depthwise_conv2d_5/BiasAdd;model/depthwise_conv2d_5/BiasAdd/ReadVariableOp/resource1:0:0 */, %tvm_var_extract_const_200, strides=[2, 2], padding=[0, 0, 1, 1], groups=64, channels=64, kernel_size=[3, 3], data_layout="NHWC", kernel_layout="HWOI", out_dtype="int32") /* ty=Tensor[(1, 6, 6, 64), int32] span=model/activation_11/Relu;model/batch_normalization_11/FusedBatchNormV3;model/depthwise_conv2d_5/depthwise;model/depthwise_conv2d_5/BiasAdd;model/depthwise_conv2d_5/BiasAdd/ReadVariableOp/resource1:0:0 */;
    %44 = nn.bias_add(%43, %tvm_var_extract_const_201, axis=3) /* ty=Tensor[(1, 6, 6, 64), int32] span=model/activation_11/Relu;model/batch_normalization_11/FusedBatchNormV3;model/depthwise_conv2d_5/depthwise;model/depthwise_conv2d_5/BiasAdd;model/depthwise_conv2d_5/BiasAdd/ReadVariableOp/resource1:0:0 */;
    %45 = qnn.requantize(%44, %tvm_var_extract_const_202, %tvm_var_extract_const_203, 0.0324266f /* ty=float32 span=model/activation_11/Relu;model/batch_normalization_11/FusedBatchNormV3;model/depthwise_conv2d_5/depthwise;model/depthwise_conv2d_5/BiasAdd;model/depthwise_conv2d_5/BiasAdd/ReadVariableOp/resource1:0:0 */, -128 /* ty=int32 span=model/activation_11/Relu;model/batch_normalization_11/FusedBatchNormV3;model/depthwise_conv2d_5/depthwise;model/depthwise_conv2d_5/BiasAdd;model/depthwise_conv2d_5/BiasAdd/ReadVariableOp/resource1:0:0 */, axis=3, out_dtype="int8") /* ty=Tensor[(1, 6, 6, 64), int8] span=model/activation_11/Relu;model/batch_normalization_11/FusedBatchNormV3;model/depthwise_conv2d_5/depthwise;model/depthwise_conv2d_5/BiasAdd;model/depthwise_conv2d_5/BiasAdd/ReadVariableOp/resource1:0:0 */;
    clip(%45, a_min=-128f, a_max=127f) /* ty=Tensor[(1, 6, 6, 64), int8] span=model/activation_11/Relu;model/batch_normalization_11/FusedBatchNormV3;model/depthwise_conv2d_5/depthwise;model/depthwise_conv2d_5/BiasAdd;model/depthwise_conv2d_5/BiasAdd/ReadVariableOp/resource1:0:0 */
  } /* ty=fn (Tensor[(1, 12, 12, 64), int8], Tensor[(3, 3, 64, 1), int8], Tensor[(64), int32], Tensor[(64), float32], Tensor[(64), int32], Tensor[(64), float32], Tensor[(64), int32]) -> Tensor[(1, 6, 6, 64), int8] */;
  %46(%cmsis-nn_11_i0, %tvm_var_extract_const_204, %tvm_var_extract_const_205, %tvm_var_extract_const_206, %tvm_var_extract_const_207, %tvm_var_extract_const_208, %tvm_var_extract_const_209) /* ty=Tensor[(1, 6, 6, 64), int8] */
}

def @tvmgen_default_cmsis_nn_main_12(%cmsis-nn_12_i0: Tensor[(1, 6, 6, 64), int8] /* ty=Tensor[(1, 6, 6, 64), int8] */, %tvm_var_extract_const_222: Tensor[(128, 1, 1, 64), int8] /* ty=Tensor[(128, 1, 1, 64), int8] */, %tvm_var_extract_const_223: Tensor[(128), int32] /* ty=Tensor[(128), int32] */, %tvm_var_extract_const_224: Tensor[(128), float32] /* ty=Tensor[(128), float32] */, %tvm_var_extract_const_225: Tensor[(128), int32] /* ty=Tensor[(128), int32] */, %tvm_var_extract_const_226: Tensor[(128), float32] /* ty=Tensor[(128), float32] */, %tvm_var_extract_const_227: Tensor[(128), int32] /* ty=Tensor[(128), int32] */, Compiler="cmsis-nn", Primitive=1, Inline=1, global_symbol="tvmgen_default_cmsis_nn_main_12") -> Tensor[(1, 6, 6, 128), int8] {
  %50 = fn (%FunctionVar_14_0: Tensor[(1, 6, 6, 64), int8] /* ty=Tensor[(1, 6, 6, 64), int8] */, %tvm_var_extract_const_216: Tensor[(128, 1, 1, 64), int8] /* ty=Tensor[(128, 1, 1, 64), int8] */, %tvm_var_extract_const_217: Tensor[(128), int32] /* ty=Tensor[(128), int32] */, %tvm_var_extract_const_218: Tensor[(128), float32] /* ty=Tensor[(128), float32] */, %tvm_var_extract_const_219: Tensor[(128), int32] /* ty=Tensor[(128), int32] */, %tvm_var_extract_const_220: Tensor[(128), float32] /* ty=Tensor[(128), float32] */, %tvm_var_extract_const_221: Tensor[(128), int32] /* ty=Tensor[(128), int32] */, PartitionedFromPattern="qnn.conv2d_nn.bias_add_qnn.requantize_clip_", Composite="cmsis-nn.qnn_conv2d") -> Tensor[(1, 6, 6, 128), int8] {
    %47 = qnn.conv2d(%FunctionVar_14_0, %tvm_var_extract_const_216, -128 /* ty=int32 span=model/activation_12/Relu;model/batch_normalization_12/FusedBatchNormV3;model/conv2d_6/BiasAdd/ReadVariableOp/resource;model/conv2d_6/BiasAdd;model/depthwise_conv2d_11/depthwise;model/conv2d_6/Conv2D1:0:0 */, %tvm_var_extract_const_217, 0.0324266f /* ty=float32 span=model/activation_12/Relu;model/batch_normalization_12/FusedBatchNormV3;model/conv2d_6/BiasAdd/ReadVariableOp/resource;model/conv2d_6/BiasAdd;model/depthwise_conv2d_11/depthwise;model/conv2d_6/Conv2D1:0:0 */, %tvm_var_extract_const_218, padding=[0, 0, 0, 0], channels=128, kernel_size=[1, 1], data_layout="NHWC", kernel_layout="OHWI", out_dtype="int32") /* ty=Tensor[(1, 6, 6, 128), int32] span=model/activation_12/Relu;model/batch_normalization_12/FusedBatchNormV3;model/conv2d_6/BiasAdd/ReadVariableOp/resource;model/conv2d_6/BiasAdd;model/depthwise_conv2d_11/depthwise;model/conv2d_6/Conv2D1:0:0 */;
    %48 = nn.bias_add(%47, %tvm_var_extract_const_219, axis=3) /* ty=Tensor[(1, 6, 6, 128), int32] span=model/activation_12/Relu;model/batch_normalization_12/FusedBatchNormV3;model/conv2d_6/BiasAdd/ReadVariableOp/resource;model/conv2d_6/BiasAdd;model/depthwise_conv2d_11/depthwise;model/conv2d_6/Conv2D1:0:0 */;
    %49 = qnn.requantize(%48, %tvm_var_extract_const_220, %tvm_var_extract_const_221, 0.030614f /* ty=float32 span=model/activation_12/Relu;model/batch_normalization_12/FusedBatchNormV3;model/conv2d_6/BiasAdd/ReadVariableOp/resource;model/conv2d_6/BiasAdd;model/depthwise_conv2d_11/depthwise;model/conv2d_6/Conv2D1:0:0 */, -128 /* ty=int32 span=model/activation_12/Relu;model/batch_normalization_12/FusedBatchNormV3;model/conv2d_6/BiasAdd/ReadVariableOp/resource;model/conv2d_6/BiasAdd;model/depthwise_conv2d_11/depthwise;model/conv2d_6/Conv2D1:0:0 */, axis=3, out_dtype="int8") /* ty=Tensor[(1, 6, 6, 128), int8] span=model/activation_12/Relu;model/batch_normalization_12/FusedBatchNormV3;model/conv2d_6/BiasAdd/ReadVariableOp/resource;model/conv2d_6/BiasAdd;model/depthwise_conv2d_11/depthwise;model/conv2d_6/Conv2D1:0:0 */;
    clip(%49, a_min=-128f, a_max=127f) /* ty=Tensor[(1, 6, 6, 128), int8] span=model/activation_12/Relu;model/batch_normalization_12/FusedBatchNormV3;model/conv2d_6/BiasAdd/ReadVariableOp/resource;model/conv2d_6/BiasAdd;model/depthwise_conv2d_11/depthwise;model/conv2d_6/Conv2D1:0:0 */
  } /* ty=fn (Tensor[(1, 6, 6, 64), int8], Tensor[(128, 1, 1, 64), int8], Tensor[(128), int32], Tensor[(128), float32], Tensor[(128), int32], Tensor[(128), float32], Tensor[(128), int32]) -> Tensor[(1, 6, 6, 128), int8] */;
  %50(%cmsis-nn_12_i0, %tvm_var_extract_const_222, %tvm_var_extract_const_223, %tvm_var_extract_const_224, %tvm_var_extract_const_225, %tvm_var_extract_const_226, %tvm_var_extract_const_227) /* ty=Tensor[(1, 6, 6, 128), int8] */
}

def @tvmgen_default_cmsis_nn_main_13(%cmsis-nn_13_i0: Tensor[(1, 6, 6, 128), int8] /* ty=Tensor[(1, 6, 6, 128), int8] */, %tvm_var_extract_const_240: Tensor[(3, 3, 128, 1), int8] /* ty=Tensor[(3, 3, 128, 1), int8] */, %tvm_var_extract_const_241: Tensor[(128), int32] /* ty=Tensor[(128), int32] */, %tvm_var_extract_const_242: Tensor[(128), float32] /* ty=Tensor[(128), float32] */, %tvm_var_extract_const_243: Tensor[(128), int32] /* ty=Tensor[(128), int32] */, %tvm_var_extract_const_244: Tensor[(128), float32] /* ty=Tensor[(128), float32] */, %tvm_var_extract_const_245: Tensor[(128), int32] /* ty=Tensor[(128), int32] */, Compiler="cmsis-nn", Primitive=1, Inline=1, global_symbol="tvmgen_default_cmsis_nn_main_13") -> Tensor[(1, 6, 6, 128), int8] {
  %54 = fn (%FunctionVar_13_0: Tensor[(1, 6, 6, 128), int8] /* ty=Tensor[(1, 6, 6, 128), int8] */, %tvm_var_extract_const_234: Tensor[(3, 3, 128, 1), int8] /* ty=Tensor[(3, 3, 128, 1), int8] */, %tvm_var_extract_const_235: Tensor[(128), int32] /* ty=Tensor[(128), int32] */, %tvm_var_extract_const_236: Tensor[(128), float32] /* ty=Tensor[(128), float32] */, %tvm_var_extract_const_237: Tensor[(128), int32] /* ty=Tensor[(128), int32] */, %tvm_var_extract_const_238: Tensor[(128), float32] /* ty=Tensor[(128), float32] */, %tvm_var_extract_const_239: Tensor[(128), int32] /* ty=Tensor[(128), int32] */, PartitionedFromPattern="qnn.conv2d_nn.bias_add_qnn.requantize_clip_", Composite="cmsis-nn.qnn_conv2d") -> Tensor[(1, 6, 6, 128), int8] {
    %51 = qnn.conv2d(%FunctionVar_13_0, %tvm_var_extract_const_234, -128 /* ty=int32 span=model/activation_13/Relu;model/batch_normalization_13/FusedBatchNormV3;model/depthwise_conv2d_6/depthwise;model/depthwise_conv2d_6/BiasAdd;model/depthwise_conv2d_11/depthwise;model/depthwise_conv2d_6/BiasAdd/ReadVariableOp/resource1:0:0 */, %tvm_var_extract_const_235, 0.030614f /* ty=float32 span=model/activation_13/Relu;model/batch_normalization_13/FusedBatchNormV3;model/depthwise_conv2d_6/depthwise;model/depthwise_conv2d_6/BiasAdd;model/depthwise_conv2d_11/depthwise;model/depthwise_conv2d_6/BiasAdd/ReadVariableOp/resource1:0:0 */, %tvm_var_extract_const_236, padding=[1, 1, 1, 1], groups=128, channels=128, kernel_size=[3, 3], data_layout="NHWC", kernel_layout="HWOI", out_dtype="int32") /* ty=Tensor[(1, 6, 6, 128), int32] span=model/activation_13/Relu;model/batch_normalization_13/FusedBatchNormV3;model/depthwise_conv2d_6/depthwise;model/depthwise_conv2d_6/BiasAdd;model/depthwise_conv2d_11/depthwise;model/depthwise_conv2d_6/BiasAdd/ReadVariableOp/resource1:0:0 */;
    %52 = nn.bias_add(%51, %tvm_var_extract_const_237, axis=3) /* ty=Tensor[(1, 6, 6, 128), int32] span=model/activation_13/Relu;model/batch_normalization_13/FusedBatchNormV3;model/depthwise_conv2d_6/depthwise;model/depthwise_conv2d_6/BiasAdd;model/depthwise_conv2d_11/depthwise;model/depthwise_conv2d_6/BiasAdd/ReadVariableOp/resource1:0:0 */;
    %53 = qnn.requantize(%52, %tvm_var_extract_const_238, %tvm_var_extract_const_239, 0.0296805f /* ty=float32 span=model/activation_13/Relu;model/batch_normalization_13/FusedBatchNormV3;model/depthwise_conv2d_6/depthwise;model/depthwise_conv2d_6/BiasAdd;model/depthwise_conv2d_11/depthwise;model/depthwise_conv2d_6/BiasAdd/ReadVariableOp/resource1:0:0 */, -128 /* ty=int32 span=model/activation_13/Relu;model/batch_normalization_13/FusedBatchNormV3;model/depthwise_conv2d_6/depthwise;model/depthwise_conv2d_6/BiasAdd;model/depthwise_conv2d_11/depthwise;model/depthwise_conv2d_6/BiasAdd/ReadVariableOp/resource1:0:0 */, axis=3, out_dtype="int8") /* ty=Tensor[(1, 6, 6, 128), int8] span=model/activation_13/Relu;model/batch_normalization_13/FusedBatchNormV3;model/depthwise_conv2d_6/depthwise;model/depthwise_conv2d_6/BiasAdd;model/depthwise_conv2d_11/depthwise;model/depthwise_conv2d_6/BiasAdd/ReadVariableOp/resource1:0:0 */;
    clip(%53, a_min=-128f, a_max=127f) /* ty=Tensor[(1, 6, 6, 128), int8] span=model/activation_13/Relu;model/batch_normalization_13/FusedBatchNormV3;model/depthwise_conv2d_6/depthwise;model/depthwise_conv2d_6/BiasAdd;model/depthwise_conv2d_11/depthwise;model/depthwise_conv2d_6/BiasAdd/ReadVariableOp/resource1:0:0 */
  } /* ty=fn (Tensor[(1, 6, 6, 128), int8], Tensor[(3, 3, 128, 1), int8], Tensor[(128), int32], Tensor[(128), float32], Tensor[(128), int32], Tensor[(128), float32], Tensor[(128), int32]) -> Tensor[(1, 6, 6, 128), int8] */;
  %54(%cmsis-nn_13_i0, %tvm_var_extract_const_240, %tvm_var_extract_const_241, %tvm_var_extract_const_242, %tvm_var_extract_const_243, %tvm_var_extract_const_244, %tvm_var_extract_const_245) /* ty=Tensor[(1, 6, 6, 128), int8] */
}

def @tvmgen_default_cmsis_nn_main_14(%cmsis-nn_14_i0: Tensor[(1, 6, 6, 128), int8] /* ty=Tensor[(1, 6, 6, 128), int8] */, %tvm_var_extract_const_258: Tensor[(128, 1, 1, 128), int8] /* ty=Tensor[(128, 1, 1, 128), int8] */, %tvm_var_extract_const_259: Tensor[(128), int32] /* ty=Tensor[(128), int32] */, %tvm_var_extract_const_260: Tensor[(128), float32] /* ty=Tensor[(128), float32] */, %tvm_var_extract_const_261: Tensor[(128), int32] /* ty=Tensor[(128), int32] */, %tvm_var_extract_const_262: Tensor[(128), float32] /* ty=Tensor[(128), float32] */, %tvm_var_extract_const_263: Tensor[(128), int32] /* ty=Tensor[(128), int32] */, Compiler="cmsis-nn", Primitive=1, Inline=1, global_symbol="tvmgen_default_cmsis_nn_main_14") -> Tensor[(1, 6, 6, 128), int8] {
  %58 = fn (%FunctionVar_12_0: Tensor[(1, 6, 6, 128), int8] /* ty=Tensor[(1, 6, 6, 128), int8] */, %tvm_var_extract_const_252: Tensor[(128, 1, 1, 128), int8] /* ty=Tensor[(128, 1, 1, 128), int8] */, %tvm_var_extract_const_253: Tensor[(128), int32] /* ty=Tensor[(128), int32] */, %tvm_var_extract_const_254: Tensor[(128), float32] /* ty=Tensor[(128), float32] */, %tvm_var_extract_const_255: Tensor[(128), int32] /* ty=Tensor[(128), int32] */, %tvm_var_extract_const_256: Tensor[(128), float32] /* ty=Tensor[(128), float32] */, %tvm_var_extract_const_257: Tensor[(128), int32] /* ty=Tensor[(128), int32] */, PartitionedFromPattern="qnn.conv2d_nn.bias_add_qnn.requantize_clip_", Composite="cmsis-nn.qnn_conv2d") -> Tensor[(1, 6, 6, 128), int8] {
    %55 = qnn.conv2d(%FunctionVar_12_0, %tvm_var_extract_const_252, -128 /* ty=int32 span=model/activation_14/Relu;model/batch_normalization_14/FusedBatchNormV3;model/conv2d_7/BiasAdd/ReadVariableOp/resource;model/conv2d_7/BiasAdd;model/depthwise_conv2d_11/depthwise;model/conv2d_7/Conv2D1:0:0 */, %tvm_var_extract_const_253, 0.0296805f /* ty=float32 span=model/activation_14/Relu;model/batch_normalization_14/FusedBatchNormV3;model/conv2d_7/BiasAdd/ReadVariableOp/resource;model/conv2d_7/BiasAdd;model/depthwise_conv2d_11/depthwise;model/conv2d_7/Conv2D1:0:0 */, %tvm_var_extract_const_254, padding=[0, 0, 0, 0], channels=128, kernel_size=[1, 1], data_layout="NHWC", kernel_layout="OHWI", out_dtype="int32") /* ty=Tensor[(1, 6, 6, 128), int32] span=model/activation_14/Relu;model/batch_normalization_14/FusedBatchNormV3;model/conv2d_7/BiasAdd/ReadVariableOp/resource;model/conv2d_7/BiasAdd;model/depthwise_conv2d_11/depthwise;model/conv2d_7/Conv2D1:0:0 */;
    %56 = nn.bias_add(%55, %tvm_var_extract_const_255, axis=3) /* ty=Tensor[(1, 6, 6, 128), int32] span=model/activation_14/Relu;model/batch_normalization_14/FusedBatchNormV3;model/conv2d_7/BiasAdd/ReadVariableOp/resource;model/conv2d_7/BiasAdd;model/depthwise_conv2d_11/depthwise;model/conv2d_7/Conv2D1:0:0 */;
    %57 = qnn.requantize(%56, %tvm_var_extract_const_256, %tvm_var_extract_const_257, 0.0238827f /* ty=float32 span=model/activation_14/Relu;model/batch_normalization_14/FusedBatchNormV3;model/conv2d_7/BiasAdd/ReadVariableOp/resource;model/conv2d_7/BiasAdd;model/depthwise_conv2d_11/depthwise;model/conv2d_7/Conv2D1:0:0 */, -128 /* ty=int32 span=model/activation_14/Relu;model/batch_normalization_14/FusedBatchNormV3;model/conv2d_7/BiasAdd/ReadVariableOp/resource;model/conv2d_7/BiasAdd;model/depthwise_conv2d_11/depthwise;model/conv2d_7/Conv2D1:0:0 */, axis=3, out_dtype="int8") /* ty=Tensor[(1, 6, 6, 128), int8] span=model/activation_14/Relu;model/batch_normalization_14/FusedBatchNormV3;model/conv2d_7/BiasAdd/ReadVariableOp/resource;model/conv2d_7/BiasAdd;model/depthwise_conv2d_11/depthwise;model/conv2d_7/Conv2D1:0:0 */;
    clip(%57, a_min=-128f, a_max=127f) /* ty=Tensor[(1, 6, 6, 128), int8] span=model/activation_14/Relu;model/batch_normalization_14/FusedBatchNormV3;model/conv2d_7/BiasAdd/ReadVariableOp/resource;model/conv2d_7/BiasAdd;model/depthwise_conv2d_11/depthwise;model/conv2d_7/Conv2D1:0:0 */
  } /* ty=fn (Tensor[(1, 6, 6, 128), int8], Tensor[(128, 1, 1, 128), int8], Tensor[(128), int32], Tensor[(128), float32], Tensor[(128), int32], Tensor[(128), float32], Tensor[(128), int32]) -> Tensor[(1, 6, 6, 128), int8] */;
  %58(%cmsis-nn_14_i0, %tvm_var_extract_const_258, %tvm_var_extract_const_259, %tvm_var_extract_const_260, %tvm_var_extract_const_261, %tvm_var_extract_const_262, %tvm_var_extract_const_263) /* ty=Tensor[(1, 6, 6, 128), int8] */
}

def @tvmgen_default_cmsis_nn_main_15(%cmsis-nn_15_i0: Tensor[(1, 6, 6, 128), int8] /* ty=Tensor[(1, 6, 6, 128), int8] */, %tvm_var_extract_const_276: Tensor[(3, 3, 128, 1), int8] /* ty=Tensor[(3, 3, 128, 1), int8] */, %tvm_var_extract_const_277: Tensor[(128), int32] /* ty=Tensor[(128), int32] */, %tvm_var_extract_const_278: Tensor[(128), float32] /* ty=Tensor[(128), float32] */, %tvm_var_extract_const_279: Tensor[(128), int32] /* ty=Tensor[(128), int32] */, %tvm_var_extract_const_280: Tensor[(128), float32] /* ty=Tensor[(128), float32] */, %tvm_var_extract_const_281: Tensor[(128), int32] /* ty=Tensor[(128), int32] */, Compiler="cmsis-nn", Primitive=1, Inline=1, global_symbol="tvmgen_default_cmsis_nn_main_15") -> Tensor[(1, 6, 6, 128), int8] {
  %62 = fn (%FunctionVar_11_0: Tensor[(1, 6, 6, 128), int8] /* ty=Tensor[(1, 6, 6, 128), int8] */, %tvm_var_extract_const_270: Tensor[(3, 3, 128, 1), int8] /* ty=Tensor[(3, 3, 128, 1), int8] */, %tvm_var_extract_const_271: Tensor[(128), int32] /* ty=Tensor[(128), int32] */, %tvm_var_extract_const_272: Tensor[(128), float32] /* ty=Tensor[(128), float32] */, %tvm_var_extract_const_273: Tensor[(128), int32] /* ty=Tensor[(128), int32] */, %tvm_var_extract_const_274: Tensor[(128), float32] /* ty=Tensor[(128), float32] */, %tvm_var_extract_const_275: Tensor[(128), int32] /* ty=Tensor[(128), int32] */, PartitionedFromPattern="qnn.conv2d_nn.bias_add_qnn.requantize_clip_", Composite="cmsis-nn.qnn_conv2d") -> Tensor[(1, 6, 6, 128), int8] {
    %59 = qnn.conv2d(%FunctionVar_11_0, %tvm_var_extract_const_270, -128 /* ty=int32 span=model/activation_15/Relu;model/batch_normalization_15/FusedBatchNormV3;model/depthwise_conv2d_7/depthwise;model/depthwise_conv2d_7/BiasAdd;model/depthwise_conv2d_11/depthwise;model/depthwise_conv2d_7/BiasAdd/ReadVariableOp/resource1:0:0 */, %tvm_var_extract_const_271, 0.0238827f /* ty=float32 span=model/activation_15/Relu;model/batch_normalization_15/FusedBatchNormV3;model/depthwise_conv2d_7/depthwise;model/depthwise_conv2d_7/BiasAdd;model/depthwise_conv2d_11/depthwise;model/depthwise_conv2d_7/BiasAdd/ReadVariableOp/resource1:0:0 */, %tvm_var_extract_const_272, padding=[1, 1, 1, 1], groups=128, channels=128, kernel_size=[3, 3], data_layout="NHWC", kernel_layout="HWOI", out_dtype="int32") /* ty=Tensor[(1, 6, 6, 128), int32] span=model/activation_15/Relu;model/batch_normalization_15/FusedBatchNormV3;model/depthwise_conv2d_7/depthwise;model/depthwise_conv2d_7/BiasAdd;model/depthwise_conv2d_11/depthwise;model/depthwise_conv2d_7/BiasAdd/ReadVariableOp/resource1:0:0 */;
    %60 = nn.bias_add(%59, %tvm_var_extract_const_273, axis=3) /* ty=Tensor[(1, 6, 6, 128), int32] span=model/activation_15/Relu;model/batch_normalization_15/FusedBatchNormV3;model/depthwise_conv2d_7/depthwise;model/depthwise_conv2d_7/BiasAdd;model/depthwise_conv2d_11/depthwise;model/depthwise_conv2d_7/BiasAdd/ReadVariableOp/resource1:0:0 */;
    %61 = qnn.requantize(%60, %tvm_var_extract_const_274, %tvm_var_extract_const_275, 0.0365413f /* ty=float32 span=model/activation_15/Relu;model/batch_normalization_15/FusedBatchNormV3;model/depthwise_conv2d_7/depthwise;model/depthwise_conv2d_7/BiasAdd;model/depthwise_conv2d_11/depthwise;model/depthwise_conv2d_7/BiasAdd/ReadVariableOp/resource1:0:0 */, -128 /* ty=int32 span=model/activation_15/Relu;model/batch_normalization_15/FusedBatchNormV3;model/depthwise_conv2d_7/depthwise;model/depthwise_conv2d_7/BiasAdd;model/depthwise_conv2d_11/depthwise;model/depthwise_conv2d_7/BiasAdd/ReadVariableOp/resource1:0:0 */, axis=3, out_dtype="int8") /* ty=Tensor[(1, 6, 6, 128), int8] span=model/activation_15/Relu;model/batch_normalization_15/FusedBatchNormV3;model/depthwise_conv2d_7/depthwise;model/depthwise_conv2d_7/BiasAdd;model/depthwise_conv2d_11/depthwise;model/depthwise_conv2d_7/BiasAdd/ReadVariableOp/resource1:0:0 */;
    clip(%61, a_min=-128f, a_max=127f) /* ty=Tensor[(1, 6, 6, 128), int8] span=model/activation_15/Relu;model/batch_normalization_15/FusedBatchNormV3;model/depthwise_conv2d_7/depthwise;model/depthwise_conv2d_7/BiasAdd;model/depthwise_conv2d_11/depthwise;model/depthwise_conv2d_7/BiasAdd/ReadVariableOp/resource1:0:0 */
  } /* ty=fn (Tensor[(1, 6, 6, 128), int8], Tensor[(3, 3, 128, 1), int8], Tensor[(128), int32], Tensor[(128), float32], Tensor[(128), int32], Tensor[(128), float32], Tensor[(128), int32]) -> Tensor[(1, 6, 6, 128), int8] */;
  %62(%cmsis-nn_15_i0, %tvm_var_extract_const_276, %tvm_var_extract_const_277, %tvm_var_extract_const_278, %tvm_var_extract_const_279, %tvm_var_extract_const_280, %tvm_var_extract_const_281) /* ty=Tensor[(1, 6, 6, 128), int8] */
}

def @tvmgen_default_cmsis_nn_main_16(%cmsis-nn_16_i0: Tensor[(1, 6, 6, 128), int8] /* ty=Tensor[(1, 6, 6, 128), int8] */, %tvm_var_extract_const_294: Tensor[(128, 1, 1, 128), int8] /* ty=Tensor[(128, 1, 1, 128), int8] */, %tvm_var_extract_const_295: Tensor[(128), int32] /* ty=Tensor[(128), int32] */, %tvm_var_extract_const_296: Tensor[(128), float32] /* ty=Tensor[(128), float32] */, %tvm_var_extract_const_297: Tensor[(128), int32] /* ty=Tensor[(128), int32] */, %tvm_var_extract_const_298: Tensor[(128), float32] /* ty=Tensor[(128), float32] */, %tvm_var_extract_const_299: Tensor[(128), int32] /* ty=Tensor[(128), int32] */, Compiler="cmsis-nn", Primitive=1, Inline=1, global_symbol="tvmgen_default_cmsis_nn_main_16") -> Tensor[(1, 6, 6, 128), int8] {
  %66 = fn (%FunctionVar_10_0: Tensor[(1, 6, 6, 128), int8] /* ty=Tensor[(1, 6, 6, 128), int8] */, %tvm_var_extract_const_288: Tensor[(128, 1, 1, 128), int8] /* ty=Tensor[(128, 1, 1, 128), int8] */, %tvm_var_extract_const_289: Tensor[(128), int32] /* ty=Tensor[(128), int32] */, %tvm_var_extract_const_290: Tensor[(128), float32] /* ty=Tensor[(128), float32] */, %tvm_var_extract_const_291: Tensor[(128), int32] /* ty=Tensor[(128), int32] */, %tvm_var_extract_const_292: Tensor[(128), float32] /* ty=Tensor[(128), float32] */, %tvm_var_extract_const_293: Tensor[(128), int32] /* ty=Tensor[(128), int32] */, PartitionedFromPattern="qnn.conv2d_nn.bias_add_qnn.requantize_clip_", Composite="cmsis-nn.qnn_conv2d") -> Tensor[(1, 6, 6, 128), int8] {
    %63 = qnn.conv2d(%FunctionVar_10_0, %tvm_var_extract_const_288, -128 /* ty=int32 span=model/activation_16/Relu;model/batch_normalization_16/FusedBatchNormV3;model/conv2d_8/BiasAdd/ReadVariableOp/resource;model/conv2d_8/BiasAdd;model/depthwise_conv2d_11/depthwise;model/conv2d_8/Conv2D1:0:0 */, %tvm_var_extract_const_289, 0.0365413f /* ty=float32 span=model/activation_16/Relu;model/batch_normalization_16/FusedBatchNormV3;model/conv2d_8/BiasAdd/ReadVariableOp/resource;model/conv2d_8/BiasAdd;model/depthwise_conv2d_11/depthwise;model/conv2d_8/Conv2D1:0:0 */, %tvm_var_extract_const_290, padding=[0, 0, 0, 0], channels=128, kernel_size=[1, 1], data_layout="NHWC", kernel_layout="OHWI", out_dtype="int32") /* ty=Tensor[(1, 6, 6, 128), int32] span=model/activation_16/Relu;model/batch_normalization_16/FusedBatchNormV3;model/conv2d_8/BiasAdd/ReadVariableOp/resource;model/conv2d_8/BiasAdd;model/depthwise_conv2d_11/depthwise;model/conv2d_8/Conv2D1:0:0 */;
    %64 = nn.bias_add(%63, %tvm_var_extract_const_291, axis=3) /* ty=Tensor[(1, 6, 6, 128), int32] span=model/activation_16/Relu;model/batch_normalization_16/FusedBatchNormV3;model/conv2d_8/BiasAdd/ReadVariableOp/resource;model/conv2d_8/BiasAdd;model/depthwise_conv2d_11/depthwise;model/conv2d_8/Conv2D1:0:0 */;
    %65 = qnn.requantize(%64, %tvm_var_extract_const_292, %tvm_var_extract_const_293, 0.0365f /* ty=float32 span=model/activation_16/Relu;model/batch_normalization_16/FusedBatchNormV3;model/conv2d_8/BiasAdd/ReadVariableOp/resource;model/conv2d_8/BiasAdd;model/depthwise_conv2d_11/depthwise;model/conv2d_8/Conv2D1:0:0 */, -128 /* ty=int32 span=model/activation_16/Relu;model/batch_normalization_16/FusedBatchNormV3;model/conv2d_8/BiasAdd/ReadVariableOp/resource;model/conv2d_8/BiasAdd;model/depthwise_conv2d_11/depthwise;model/conv2d_8/Conv2D1:0:0 */, axis=3, out_dtype="int8") /* ty=Tensor[(1, 6, 6, 128), int8] span=model/activation_16/Relu;model/batch_normalization_16/FusedBatchNormV3;model/conv2d_8/BiasAdd/ReadVariableOp/resource;model/conv2d_8/BiasAdd;model/depthwise_conv2d_11/depthwise;model/conv2d_8/Conv2D1:0:0 */;
    clip(%65, a_min=-128f, a_max=127f) /* ty=Tensor[(1, 6, 6, 128), int8] span=model/activation_16/Relu;model/batch_normalization_16/FusedBatchNormV3;model/conv2d_8/BiasAdd/ReadVariableOp/resource;model/conv2d_8/BiasAdd;model/depthwise_conv2d_11/depthwise;model/conv2d_8/Conv2D1:0:0 */
  } /* ty=fn (Tensor[(1, 6, 6, 128), int8], Tensor[(128, 1, 1, 128), int8], Tensor[(128), int32], Tensor[(128), float32], Tensor[(128), int32], Tensor[(128), float32], Tensor[(128), int32]) -> Tensor[(1, 6, 6, 128), int8] */;
  %66(%cmsis-nn_16_i0, %tvm_var_extract_const_294, %tvm_var_extract_const_295, %tvm_var_extract_const_296, %tvm_var_extract_const_297, %tvm_var_extract_const_298, %tvm_var_extract_const_299) /* ty=Tensor[(1, 6, 6, 128), int8] */
}

def @tvmgen_default_cmsis_nn_main_17(%cmsis-nn_17_i0: Tensor[(1, 6, 6, 128), int8] /* ty=Tensor[(1, 6, 6, 128), int8] */, %tvm_var_extract_const_312: Tensor[(3, 3, 128, 1), int8] /* ty=Tensor[(3, 3, 128, 1), int8] */, %tvm_var_extract_const_313: Tensor[(128), int32] /* ty=Tensor[(128), int32] */, %tvm_var_extract_const_314: Tensor[(128), float32] /* ty=Tensor[(128), float32] */, %tvm_var_extract_const_315: Tensor[(128), int32] /* ty=Tensor[(128), int32] */, %tvm_var_extract_const_316: Tensor[(128), float32] /* ty=Tensor[(128), float32] */, %tvm_var_extract_const_317: Tensor[(128), int32] /* ty=Tensor[(128), int32] */, Compiler="cmsis-nn", Primitive=1, Inline=1, global_symbol="tvmgen_default_cmsis_nn_main_17") -> Tensor[(1, 6, 6, 128), int8] {
  %70 = fn (%FunctionVar_9_0: Tensor[(1, 6, 6, 128), int8] /* ty=Tensor[(1, 6, 6, 128), int8] */, %tvm_var_extract_const_306: Tensor[(3, 3, 128, 1), int8] /* ty=Tensor[(3, 3, 128, 1), int8] */, %tvm_var_extract_const_307: Tensor[(128), int32] /* ty=Tensor[(128), int32] */, %tvm_var_extract_const_308: Tensor[(128), float32] /* ty=Tensor[(128), float32] */, %tvm_var_extract_const_309: Tensor[(128), int32] /* ty=Tensor[(128), int32] */, %tvm_var_extract_const_310: Tensor[(128), float32] /* ty=Tensor[(128), float32] */, %tvm_var_extract_const_311: Tensor[(128), int32] /* ty=Tensor[(128), int32] */, PartitionedFromPattern="qnn.conv2d_nn.bias_add_qnn.requantize_clip_", Composite="cmsis-nn.qnn_conv2d") -> Tensor[(1, 6, 6, 128), int8] {
    %67 = qnn.conv2d(%FunctionVar_9_0, %tvm_var_extract_const_306, -128 /* ty=int32 span=model/activation_17/Relu;model/batch_normalization_17/FusedBatchNormV3;model/depthwise_conv2d_8/depthwise;model/depthwise_conv2d_8/BiasAdd;model/depthwise_conv2d_11/depthwise;model/depthwise_conv2d_8/BiasAdd/ReadVariableOp/resource1:0:0 */, %tvm_var_extract_const_307, 0.0365f /* ty=float32 span=model/activation_17/Relu;model/batch_normalization_17/FusedBatchNormV3;model/depthwise_conv2d_8/depthwise;model/depthwise_conv2d_8/BiasAdd;model/depthwise_conv2d_11/depthwise;model/depthwise_conv2d_8/BiasAdd/ReadVariableOp/resource1:0:0 */, %tvm_var_extract_const_308, padding=[1, 1, 1, 1], groups=128, channels=128, kernel_size=[3, 3], data_layout="NHWC", kernel_layout="HWOI", out_dtype="int32") /* ty=Tensor[(1, 6, 6, 128), int32] span=model/activation_17/Relu;model/batch_normalization_17/FusedBatchNormV3;model/depthwise_conv2d_8/depthwise;model/depthwise_conv2d_8/BiasAdd;model/depthwise_conv2d_11/depthwise;model/depthwise_conv2d_8/BiasAdd/ReadVariableOp/resource1:0:0 */;
    %68 = nn.bias_add(%67, %tvm_var_extract_const_309, axis=3) /* ty=Tensor[(1, 6, 6, 128), int32] span=model/activation_17/Relu;model/batch_normalization_17/FusedBatchNormV3;model/depthwise_conv2d_8/depthwise;model/depthwise_conv2d_8/BiasAdd;model/depthwise_conv2d_11/depthwise;model/depthwise_conv2d_8/BiasAdd/ReadVariableOp/resource1:0:0 */;
    %69 = qnn.requantize(%68, %tvm_var_extract_const_310, %tvm_var_extract_const_311, 0.0378104f /* ty=float32 span=model/activation_17/Relu;model/batch_normalization_17/FusedBatchNormV3;model/depthwise_conv2d_8/depthwise;model/depthwise_conv2d_8/BiasAdd;model/depthwise_conv2d_11/depthwise;model/depthwise_conv2d_8/BiasAdd/ReadVariableOp/resource1:0:0 */, -128 /* ty=int32 span=model/activation_17/Relu;model/batch_normalization_17/FusedBatchNormV3;model/depthwise_conv2d_8/depthwise;model/depthwise_conv2d_8/BiasAdd;model/depthwise_conv2d_11/depthwise;model/depthwise_conv2d_8/BiasAdd/ReadVariableOp/resource1:0:0 */, axis=3, out_dtype="int8") /* ty=Tensor[(1, 6, 6, 128), int8] span=model/activation_17/Relu;model/batch_normalization_17/FusedBatchNormV3;model/depthwise_conv2d_8/depthwise;model/depthwise_conv2d_8/BiasAdd;model/depthwise_conv2d_11/depthwise;model/depthwise_conv2d_8/BiasAdd/ReadVariableOp/resource1:0:0 */;
    clip(%69, a_min=-128f, a_max=127f) /* ty=Tensor[(1, 6, 6, 128), int8] span=model/activation_17/Relu;model/batch_normalization_17/FusedBatchNormV3;model/depthwise_conv2d_8/depthwise;model/depthwise_conv2d_8/BiasAdd;model/depthwise_conv2d_11/depthwise;model/depthwise_conv2d_8/BiasAdd/ReadVariableOp/resource1:0:0 */
  } /* ty=fn (Tensor[(1, 6, 6, 128), int8], Tensor[(3, 3, 128, 1), int8], Tensor[(128), int32], Tensor[(128), float32], Tensor[(128), int32], Tensor[(128), float32], Tensor[(128), int32]) -> Tensor[(1, 6, 6, 128), int8] */;
  %70(%cmsis-nn_17_i0, %tvm_var_extract_const_312, %tvm_var_extract_const_313, %tvm_var_extract_const_314, %tvm_var_extract_const_315, %tvm_var_extract_const_316, %tvm_var_extract_const_317) /* ty=Tensor[(1, 6, 6, 128), int8] */
}

def @tvmgen_default_cmsis_nn_main_18(%cmsis-nn_18_i0: Tensor[(1, 6, 6, 128), int8] /* ty=Tensor[(1, 6, 6, 128), int8] */, %tvm_var_extract_const_330: Tensor[(128, 1, 1, 128), int8] /* ty=Tensor[(128, 1, 1, 128), int8] */, %tvm_var_extract_const_331: Tensor[(128), int32] /* ty=Tensor[(128), int32] */, %tvm_var_extract_const_332: Tensor[(128), float32] /* ty=Tensor[(128), float32] */, %tvm_var_extract_const_333: Tensor[(128), int32] /* ty=Tensor[(128), int32] */, %tvm_var_extract_const_334: Tensor[(128), float32] /* ty=Tensor[(128), float32] */, %tvm_var_extract_const_335: Tensor[(128), int32] /* ty=Tensor[(128), int32] */, Compiler="cmsis-nn", Primitive=1, Inline=1, global_symbol="tvmgen_default_cmsis_nn_main_18") -> Tensor[(1, 6, 6, 128), int8] {
  %74 = fn (%FunctionVar_8_0: Tensor[(1, 6, 6, 128), int8] /* ty=Tensor[(1, 6, 6, 128), int8] */, %tvm_var_extract_const_324: Tensor[(128, 1, 1, 128), int8] /* ty=Tensor[(128, 1, 1, 128), int8] */, %tvm_var_extract_const_325: Tensor[(128), int32] /* ty=Tensor[(128), int32] */, %tvm_var_extract_const_326: Tensor[(128), float32] /* ty=Tensor[(128), float32] */, %tvm_var_extract_const_327: Tensor[(128), int32] /* ty=Tensor[(128), int32] */, %tvm_var_extract_const_328: Tensor[(128), float32] /* ty=Tensor[(128), float32] */, %tvm_var_extract_const_329: Tensor[(128), int32] /* ty=Tensor[(128), int32] */, PartitionedFromPattern="qnn.conv2d_nn.bias_add_qnn.requantize_clip_", Composite="cmsis-nn.qnn_conv2d") -> Tensor[(1, 6, 6, 128), int8] {
    %71 = qnn.conv2d(%FunctionVar_8_0, %tvm_var_extract_const_324, -128 /* ty=int32 span=model/activation_18/Relu;model/batch_normalization_18/FusedBatchNormV3;model/conv2d_9/BiasAdd/ReadVariableOp/resource;model/conv2d_9/BiasAdd;model/depthwise_conv2d_11/depthwise;model/conv2d_9/Conv2D1:0:0 */, %tvm_var_extract_const_325, 0.0378104f /* ty=float32 span=model/activation_18/Relu;model/batch_normalization_18/FusedBatchNormV3;model/conv2d_9/BiasAdd/ReadVariableOp/resource;model/conv2d_9/BiasAdd;model/depthwise_conv2d_11/depthwise;model/conv2d_9/Conv2D1:0:0 */, %tvm_var_extract_const_326, padding=[0, 0, 0, 0], channels=128, kernel_size=[1, 1], data_layout="NHWC", kernel_layout="OHWI", out_dtype="int32") /* ty=Tensor[(1, 6, 6, 128), int32] span=model/activation_18/Relu;model/batch_normalization_18/FusedBatchNormV3;model/conv2d_9/BiasAdd/ReadVariableOp/resource;model/conv2d_9/BiasAdd;model/depthwise_conv2d_11/depthwise;model/conv2d_9/Conv2D1:0:0 */;
    %72 = nn.bias_add(%71, %tvm_var_extract_const_327, axis=3) /* ty=Tensor[(1, 6, 6, 128), int32] span=model/activation_18/Relu;model/batch_normalization_18/FusedBatchNormV3;model/conv2d_9/BiasAdd/ReadVariableOp/resource;model/conv2d_9/BiasAdd;model/depthwise_conv2d_11/depthwise;model/conv2d_9/Conv2D1:0:0 */;
    %73 = qnn.requantize(%72, %tvm_var_extract_const_328, %tvm_var_extract_const_329, 0.0206044f /* ty=float32 span=model/activation_18/Relu;model/batch_normalization_18/FusedBatchNormV3;model/conv2d_9/BiasAdd/ReadVariableOp/resource;model/conv2d_9/BiasAdd;model/depthwise_conv2d_11/depthwise;model/conv2d_9/Conv2D1:0:0 */, -128 /* ty=int32 span=model/activation_18/Relu;model/batch_normalization_18/FusedBatchNormV3;model/conv2d_9/BiasAdd/ReadVariableOp/resource;model/conv2d_9/BiasAdd;model/depthwise_conv2d_11/depthwise;model/conv2d_9/Conv2D1:0:0 */, axis=3, out_dtype="int8") /* ty=Tensor[(1, 6, 6, 128), int8] span=model/activation_18/Relu;model/batch_normalization_18/FusedBatchNormV3;model/conv2d_9/BiasAdd/ReadVariableOp/resource;model/conv2d_9/BiasAdd;model/depthwise_conv2d_11/depthwise;model/conv2d_9/Conv2D1:0:0 */;
    clip(%73, a_min=-128f, a_max=127f) /* ty=Tensor[(1, 6, 6, 128), int8] span=model/activation_18/Relu;model/batch_normalization_18/FusedBatchNormV3;model/conv2d_9/BiasAdd/ReadVariableOp/resource;model/conv2d_9/BiasAdd;model/depthwise_conv2d_11/depthwise;model/conv2d_9/Conv2D1:0:0 */
  } /* ty=fn (Tensor[(1, 6, 6, 128), int8], Tensor[(128, 1, 1, 128), int8], Tensor[(128), int32], Tensor[(128), float32], Tensor[(128), int32], Tensor[(128), float32], Tensor[(128), int32]) -> Tensor[(1, 6, 6, 128), int8] */;
  %74(%cmsis-nn_18_i0, %tvm_var_extract_const_330, %tvm_var_extract_const_331, %tvm_var_extract_const_332, %tvm_var_extract_const_333, %tvm_var_extract_const_334, %tvm_var_extract_const_335) /* ty=Tensor[(1, 6, 6, 128), int8] */
}

def @tvmgen_default_cmsis_nn_main_19(%cmsis-nn_19_i0: Tensor[(1, 6, 6, 128), int8] /* ty=Tensor[(1, 6, 6, 128), int8] */, %tvm_var_extract_const_348: Tensor[(3, 3, 128, 1), int8] /* ty=Tensor[(3, 3, 128, 1), int8] */, %tvm_var_extract_const_349: Tensor[(128), int32] /* ty=Tensor[(128), int32] */, %tvm_var_extract_const_350: Tensor[(128), float32] /* ty=Tensor[(128), float32] */, %tvm_var_extract_const_351: Tensor[(128), int32] /* ty=Tensor[(128), int32] */, %tvm_var_extract_const_352: Tensor[(128), float32] /* ty=Tensor[(128), float32] */, %tvm_var_extract_const_353: Tensor[(128), int32] /* ty=Tensor[(128), int32] */, Compiler="cmsis-nn", Primitive=1, Inline=1, global_symbol="tvmgen_default_cmsis_nn_main_19") -> Tensor[(1, 6, 6, 128), int8] {
  %78 = fn (%FunctionVar_7_0: Tensor[(1, 6, 6, 128), int8] /* ty=Tensor[(1, 6, 6, 128), int8] */, %tvm_var_extract_const_342: Tensor[(3, 3, 128, 1), int8] /* ty=Tensor[(3, 3, 128, 1), int8] */, %tvm_var_extract_const_343: Tensor[(128), int32] /* ty=Tensor[(128), int32] */, %tvm_var_extract_const_344: Tensor[(128), float32] /* ty=Tensor[(128), float32] */, %tvm_var_extract_const_345: Tensor[(128), int32] /* ty=Tensor[(128), int32] */, %tvm_var_extract_const_346: Tensor[(128), float32] /* ty=Tensor[(128), float32] */, %tvm_var_extract_const_347: Tensor[(128), int32] /* ty=Tensor[(128), int32] */, PartitionedFromPattern="qnn.conv2d_nn.bias_add_qnn.requantize_clip_", Composite="cmsis-nn.qnn_conv2d") -> Tensor[(1, 6, 6, 128), int8] {
    %75 = qnn.conv2d(%FunctionVar_7_0, %tvm_var_extract_const_342, -128 /* ty=int32 span=model/activation_19/Relu;model/batch_normalization_19/FusedBatchNormV3;model/depthwise_conv2d_9/depthwise;model/depthwise_conv2d_9/BiasAdd;model/depthwise_conv2d_11/depthwise;model/depthwise_conv2d_9/BiasAdd/ReadVariableOp/resource1:0:0 */, %tvm_var_extract_const_343, 0.0206044f /* ty=float32 span=model/activation_19/Relu;model/batch_normalization_19/FusedBatchNormV3;model/depthwise_conv2d_9/depthwise;model/depthwise_conv2d_9/BiasAdd;model/depthwise_conv2d_11/depthwise;model/depthwise_conv2d_9/BiasAdd/ReadVariableOp/resource1:0:0 */, %tvm_var_extract_const_344, padding=[1, 1, 1, 1], groups=128, channels=128, kernel_size=[3, 3], data_layout="NHWC", kernel_layout="HWOI", out_dtype="int32") /* ty=Tensor[(1, 6, 6, 128), int32] span=model/activation_19/Relu;model/batch_normalization_19/FusedBatchNormV3;model/depthwise_conv2d_9/depthwise;model/depthwise_conv2d_9/BiasAdd;model/depthwise_conv2d_11/depthwise;model/depthwise_conv2d_9/BiasAdd/ReadVariableOp/resource1:0:0 */;
    %76 = nn.bias_add(%75, %tvm_var_extract_const_345, axis=3) /* ty=Tensor[(1, 6, 6, 128), int32] span=model/activation_19/Relu;model/batch_normalization_19/FusedBatchNormV3;model/depthwise_conv2d_9/depthwise;model/depthwise_conv2d_9/BiasAdd;model/depthwise_conv2d_11/depthwise;model/depthwise_conv2d_9/BiasAdd/ReadVariableOp/resource1:0:0 */;
    %77 = qnn.requantize(%76, %tvm_var_extract_const_346, %tvm_var_extract_const_347, 0.0332261f /* ty=float32 span=model/activation_19/Relu;model/batch_normalization_19/FusedBatchNormV3;model/depthwise_conv2d_9/depthwise;model/depthwise_conv2d_9/BiasAdd;model/depthwise_conv2d_11/depthwise;model/depthwise_conv2d_9/BiasAdd/ReadVariableOp/resource1:0:0 */, -128 /* ty=int32 span=model/activation_19/Relu;model/batch_normalization_19/FusedBatchNormV3;model/depthwise_conv2d_9/depthwise;model/depthwise_conv2d_9/BiasAdd;model/depthwise_conv2d_11/depthwise;model/depthwise_conv2d_9/BiasAdd/ReadVariableOp/resource1:0:0 */, axis=3, out_dtype="int8") /* ty=Tensor[(1, 6, 6, 128), int8] span=model/activation_19/Relu;model/batch_normalization_19/FusedBatchNormV3;model/depthwise_conv2d_9/depthwise;model/depthwise_conv2d_9/BiasAdd;model/depthwise_conv2d_11/depthwise;model/depthwise_conv2d_9/BiasAdd/ReadVariableOp/resource1:0:0 */;
    clip(%77, a_min=-128f, a_max=127f) /* ty=Tensor[(1, 6, 6, 128), int8] span=model/activation_19/Relu;model/batch_normalization_19/FusedBatchNormV3;model/depthwise_conv2d_9/depthwise;model/depthwise_conv2d_9/BiasAdd;model/depthwise_conv2d_11/depthwise;model/depthwise_conv2d_9/BiasAdd/ReadVariableOp/resource1:0:0 */
  } /* ty=fn (Tensor[(1, 6, 6, 128), int8], Tensor[(3, 3, 128, 1), int8], Tensor[(128), int32], Tensor[(128), float32], Tensor[(128), int32], Tensor[(128), float32], Tensor[(128), int32]) -> Tensor[(1, 6, 6, 128), int8] */;
  %78(%cmsis-nn_19_i0, %tvm_var_extract_const_348, %tvm_var_extract_const_349, %tvm_var_extract_const_350, %tvm_var_extract_const_351, %tvm_var_extract_const_352, %tvm_var_extract_const_353) /* ty=Tensor[(1, 6, 6, 128), int8] */
}

def @tvmgen_default_cmsis_nn_main_2(%cmsis-nn_2_i0: Tensor[(1, 48, 48, 8), int8] /* ty=Tensor[(1, 48, 48, 8), int8] */, %tvm_var_extract_const_42: Tensor[(16, 1, 1, 8), int8] /* ty=Tensor[(16, 1, 1, 8), int8] */, %tvm_var_extract_const_43: Tensor[(16), int32] /* ty=Tensor[(16), int32] */, %tvm_var_extract_const_44: Tensor[(16), float32] /* ty=Tensor[(16), float32] */, %tvm_var_extract_const_45: Tensor[(16), int32] /* ty=Tensor[(16), int32] */, %tvm_var_extract_const_46: Tensor[(16), float32] /* ty=Tensor[(16), float32] */, %tvm_var_extract_const_47: Tensor[(16), int32] /* ty=Tensor[(16), int32] */, Compiler="cmsis-nn", Primitive=1, Inline=1, global_symbol="tvmgen_default_cmsis_nn_main_2") -> Tensor[(1, 48, 48, 16), int8] {
  %82 = fn (%FunctionVar_24_0: Tensor[(1, 48, 48, 8), int8] /* ty=Tensor[(1, 48, 48, 8), int8] */, %tvm_var_extract_const_36: Tensor[(16, 1, 1, 8), int8] /* ty=Tensor[(16, 1, 1, 8), int8] */, %tvm_var_extract_const_37: Tensor[(16), int32] /* ty=Tensor[(16), int32] */, %tvm_var_extract_const_38: Tensor[(16), float32] /* ty=Tensor[(16), float32] */, %tvm_var_extract_const_39: Tensor[(16), int32] /* ty=Tensor[(16), int32] */, %tvm_var_extract_const_40: Tensor[(16), float32] /* ty=Tensor[(16), float32] */, %tvm_var_extract_const_41: Tensor[(16), int32] /* ty=Tensor[(16), int32] */, PartitionedFromPattern="qnn.conv2d_nn.bias_add_qnn.requantize_clip_", Composite="cmsis-nn.qnn_conv2d") -> Tensor[(1, 48, 48, 16), int8] {
    %79 = qnn.conv2d(%FunctionVar_24_0, %tvm_var_extract_const_36, -128 /* ty=int32 span=model/activation_2/Relu;model/batch_normalization_2/FusedBatchNormV3;model/conv2d_1/BiasAdd/ReadVariableOp/resource;model/conv2d_1/BiasAdd;model/depthwise_conv2d_1/depthwise;model/conv2d_1/Conv2D1:0:0 */, %tvm_var_extract_const_37, 0.0483876f /* ty=float32 span=model/activation_2/Relu;model/batch_normalization_2/FusedBatchNormV3;model/conv2d_1/BiasAdd/ReadVariableOp/resource;model/conv2d_1/BiasAdd;model/depthwise_conv2d_1/depthwise;model/conv2d_1/Conv2D1:0:0 */, %tvm_var_extract_const_38, padding=[0, 0, 0, 0], channels=16, kernel_size=[1, 1], data_layout="NHWC", kernel_layout="OHWI", out_dtype="int32") /* ty=Tensor[(1, 48, 48, 16), int32] span=model/activation_2/Relu;model/batch_normalization_2/FusedBatchNormV3;model/conv2d_1/BiasAdd/ReadVariableOp/resource;model/conv2d_1/BiasAdd;model/depthwise_conv2d_1/depthwise;model/conv2d_1/Conv2D1:0:0 */;
    %80 = nn.bias_add(%79, %tvm_var_extract_const_39, axis=3) /* ty=Tensor[(1, 48, 48, 16), int32] span=model/activation_2/Relu;model/batch_normalization_2/FusedBatchNormV3;model/conv2d_1/BiasAdd/ReadVariableOp/resource;model/conv2d_1/BiasAdd;model/depthwise_conv2d_1/depthwise;model/conv2d_1/Conv2D1:0:0 */;
    %81 = qnn.requantize(%80, %tvm_var_extract_const_40, %tvm_var_extract_const_41, 0.0341311f /* ty=float32 span=model/activation_2/Relu;model/batch_normalization_2/FusedBatchNormV3;model/conv2d_1/BiasAdd/ReadVariableOp/resource;model/conv2d_1/BiasAdd;model/depthwise_conv2d_1/depthwise;model/conv2d_1/Conv2D1:0:0 */, -128 /* ty=int32 span=model/activation_2/Relu;model/batch_normalization_2/FusedBatchNormV3;model/conv2d_1/BiasAdd/ReadVariableOp/resource;model/conv2d_1/BiasAdd;model/depthwise_conv2d_1/depthwise;model/conv2d_1/Conv2D1:0:0 */, axis=3, out_dtype="int8") /* ty=Tensor[(1, 48, 48, 16), int8] span=model/activation_2/Relu;model/batch_normalization_2/FusedBatchNormV3;model/conv2d_1/BiasAdd/ReadVariableOp/resource;model/conv2d_1/BiasAdd;model/depthwise_conv2d_1/depthwise;model/conv2d_1/Conv2D1:0:0 */;
    clip(%81, a_min=-128f, a_max=127f) /* ty=Tensor[(1, 48, 48, 16), int8] span=model/activation_2/Relu;model/batch_normalization_2/FusedBatchNormV3;model/conv2d_1/BiasAdd/ReadVariableOp/resource;model/conv2d_1/BiasAdd;model/depthwise_conv2d_1/depthwise;model/conv2d_1/Conv2D1:0:0 */
  } /* ty=fn (Tensor[(1, 48, 48, 8), int8], Tensor[(16, 1, 1, 8), int8], Tensor[(16), int32], Tensor[(16), float32], Tensor[(16), int32], Tensor[(16), float32], Tensor[(16), int32]) -> Tensor[(1, 48, 48, 16), int8] */;
  %82(%cmsis-nn_2_i0, %tvm_var_extract_const_42, %tvm_var_extract_const_43, %tvm_var_extract_const_44, %tvm_var_extract_const_45, %tvm_var_extract_const_46, %tvm_var_extract_const_47) /* ty=Tensor[(1, 48, 48, 16), int8] */
}

def @tvmgen_default_cmsis_nn_main_20(%cmsis-nn_20_i0: Tensor[(1, 6, 6, 128), int8] /* ty=Tensor[(1, 6, 6, 128), int8] */, %tvm_var_extract_const_366: Tensor[(128, 1, 1, 128), int8] /* ty=Tensor[(128, 1, 1, 128), int8] */, %tvm_var_extract_const_367: Tensor[(128), int32] /* ty=Tensor[(128), int32] */, %tvm_var_extract_const_368: Tensor[(128), float32] /* ty=Tensor[(128), float32] */, %tvm_var_extract_const_369: Tensor[(128), int32] /* ty=Tensor[(128), int32] */, %tvm_var_extract_const_370: Tensor[(128), float32] /* ty=Tensor[(128), float32] */, %tvm_var_extract_const_371: Tensor[(128), int32] /* ty=Tensor[(128), int32] */, Compiler="cmsis-nn", Primitive=1, Inline=1, global_symbol="tvmgen_default_cmsis_nn_main_20") -> Tensor[(1, 6, 6, 128), int8] {
  %86 = fn (%FunctionVar_6_0: Tensor[(1, 6, 6, 128), int8] /* ty=Tensor[(1, 6, 6, 128), int8] */, %tvm_var_extract_const_360: Tensor[(128, 1, 1, 128), int8] /* ty=Tensor[(128, 1, 1, 128), int8] */, %tvm_var_extract_const_361: Tensor[(128), int32] /* ty=Tensor[(128), int32] */, %tvm_var_extract_const_362: Tensor[(128), float32] /* ty=Tensor[(128), float32] */, %tvm_var_extract_const_363: Tensor[(128), int32] /* ty=Tensor[(128), int32] */, %tvm_var_extract_const_364: Tensor[(128), float32] /* ty=Tensor[(128), float32] */, %tvm_var_extract_const_365: Tensor[(128), int32] /* ty=Tensor[(128), int32] */, PartitionedFromPattern="qnn.conv2d_nn.bias_add_qnn.requantize_clip_", Composite="cmsis-nn.qnn_conv2d") -> Tensor[(1, 6, 6, 128), int8] {
    %83 = qnn.conv2d(%FunctionVar_6_0, %tvm_var_extract_const_360, -128 /* ty=int32 span=model/activation_20/Relu;model/batch_normalization_20/FusedBatchNormV3;model/conv2d_10/BiasAdd/ReadVariableOp/resource;model/conv2d_10/BiasAdd;model/depthwise_conv2d_11/depthwise;model/conv2d_10/Conv2D1:0:0 */, %tvm_var_extract_const_361, 0.0332261f /* ty=float32 span=model/activation_20/Relu;model/batch_normalization_20/FusedBatchNormV3;model/conv2d_10/BiasAdd/ReadVariableOp/resource;model/conv2d_10/BiasAdd;model/depthwise_conv2d_11/depthwise;model/conv2d_10/Conv2D1:0:0 */, %tvm_var_extract_const_362, padding=[0, 0, 0, 0], channels=128, kernel_size=[1, 1], data_layout="NHWC", kernel_layout="OHWI", out_dtype="int32") /* ty=Tensor[(1, 6, 6, 128), int32] span=model/activation_20/Relu;model/batch_normalization_20/FusedBatchNormV3;model/conv2d_10/BiasAdd/ReadVariableOp/resource;model/conv2d_10/BiasAdd;model/depthwise_conv2d_11/depthwise;model/conv2d_10/Conv2D1:0:0 */;
    %84 = nn.bias_add(%83, %tvm_var_extract_const_363, axis=3) /* ty=Tensor[(1, 6, 6, 128), int32] span=model/activation_20/Relu;model/batch_normalization_20/FusedBatchNormV3;model/conv2d_10/BiasAdd/ReadVariableOp/resource;model/conv2d_10/BiasAdd;model/depthwise_conv2d_11/depthwise;model/conv2d_10/Conv2D1:0:0 */;
    %85 = qnn.requantize(%84, %tvm_var_extract_const_364, %tvm_var_extract_const_365, 0.018733f /* ty=float32 span=model/activation_20/Relu;model/batch_normalization_20/FusedBatchNormV3;model/conv2d_10/BiasAdd/ReadVariableOp/resource;model/conv2d_10/BiasAdd;model/depthwise_conv2d_11/depthwise;model/conv2d_10/Conv2D1:0:0 */, -128 /* ty=int32 span=model/activation_20/Relu;model/batch_normalization_20/FusedBatchNormV3;model/conv2d_10/BiasAdd/ReadVariableOp/resource;model/conv2d_10/BiasAdd;model/depthwise_conv2d_11/depthwise;model/conv2d_10/Conv2D1:0:0 */, axis=3, out_dtype="int8") /* ty=Tensor[(1, 6, 6, 128), int8] span=model/activation_20/Relu;model/batch_normalization_20/FusedBatchNormV3;model/conv2d_10/BiasAdd/ReadVariableOp/resource;model/conv2d_10/BiasAdd;model/depthwise_conv2d_11/depthwise;model/conv2d_10/Conv2D1:0:0 */;
    clip(%85, a_min=-128f, a_max=127f) /* ty=Tensor[(1, 6, 6, 128), int8] span=model/activation_20/Relu;model/batch_normalization_20/FusedBatchNormV3;model/conv2d_10/BiasAdd/ReadVariableOp/resource;model/conv2d_10/BiasAdd;model/depthwise_conv2d_11/depthwise;model/conv2d_10/Conv2D1:0:0 */
  } /* ty=fn (Tensor[(1, 6, 6, 128), int8], Tensor[(128, 1, 1, 128), int8], Tensor[(128), int32], Tensor[(128), float32], Tensor[(128), int32], Tensor[(128), float32], Tensor[(128), int32]) -> Tensor[(1, 6, 6, 128), int8] */;
  %86(%cmsis-nn_20_i0, %tvm_var_extract_const_366, %tvm_var_extract_const_367, %tvm_var_extract_const_368, %tvm_var_extract_const_369, %tvm_var_extract_const_370, %tvm_var_extract_const_371) /* ty=Tensor[(1, 6, 6, 128), int8] */
}

def @tvmgen_default_cmsis_nn_main_21(%cmsis-nn_21_i0: Tensor[(1, 6, 6, 128), int8] /* ty=Tensor[(1, 6, 6, 128), int8] */, %tvm_var_extract_const_384: Tensor[(3, 3, 128, 1), int8] /* ty=Tensor[(3, 3, 128, 1), int8] */, %tvm_var_extract_const_385: Tensor[(128), int32] /* ty=Tensor[(128), int32] */, %tvm_var_extract_const_386: Tensor[(128), float32] /* ty=Tensor[(128), float32] */, %tvm_var_extract_const_387: Tensor[(128), int32] /* ty=Tensor[(128), int32] */, %tvm_var_extract_const_388: Tensor[(128), float32] /* ty=Tensor[(128), float32] */, %tvm_var_extract_const_389: Tensor[(128), int32] /* ty=Tensor[(128), int32] */, Compiler="cmsis-nn", Primitive=1, Inline=1, global_symbol="tvmgen_default_cmsis_nn_main_21") -> Tensor[(1, 6, 6, 128), int8] {
  %90 = fn (%FunctionVar_5_0: Tensor[(1, 6, 6, 128), int8] /* ty=Tensor[(1, 6, 6, 128), int8] */, %tvm_var_extract_const_378: Tensor[(3, 3, 128, 1), int8] /* ty=Tensor[(3, 3, 128, 1), int8] */, %tvm_var_extract_const_379: Tensor[(128), int32] /* ty=Tensor[(128), int32] */, %tvm_var_extract_const_380: Tensor[(128), float32] /* ty=Tensor[(128), float32] */, %tvm_var_extract_const_381: Tensor[(128), int32] /* ty=Tensor[(128), int32] */, %tvm_var_extract_const_382: Tensor[(128), float32] /* ty=Tensor[(128), float32] */, %tvm_var_extract_const_383: Tensor[(128), int32] /* ty=Tensor[(128), int32] */, PartitionedFromPattern="qnn.conv2d_nn.bias_add_qnn.requantize_clip_", Composite="cmsis-nn.qnn_conv2d") -> Tensor[(1, 6, 6, 128), int8] {
    %87 = qnn.conv2d(%FunctionVar_5_0, %tvm_var_extract_const_378, -128 /* ty=int32 span=model/activation_21/Relu;model/batch_normalization_21/FusedBatchNormV3;model/depthwise_conv2d_10/depthwise;model/depthwise_conv2d_10/BiasAdd;model/depthwise_conv2d_11/depthwise;model/depthwise_conv2d_10/BiasAdd/ReadVariableOp/resource1:0:0 */, %tvm_var_extract_const_379, 0.018733f /* ty=float32 span=model/activation_21/Relu;model/batch_normalization_21/FusedBatchNormV3;model/depthwise_conv2d_10/depthwise;model/depthwise_conv2d_10/BiasAdd;model/depthwise_conv2d_11/depthwise;model/depthwise_conv2d_10/BiasAdd/ReadVariableOp/resource1:0:0 */, %tvm_var_extract_const_380, padding=[1, 1, 1, 1], groups=128, channels=128, kernel_size=[3, 3], data_layout="NHWC", kernel_layout="HWOI", out_dtype="int32") /* ty=Tensor[(1, 6, 6, 128), int32] span=model/activation_21/Relu;model/batch_normalization_21/FusedBatchNormV3;model/depthwise_conv2d_10/depthwise;model/depthwise_conv2d_10/BiasAdd;model/depthwise_conv2d_11/depthwise;model/depthwise_conv2d_10/BiasAdd/ReadVariableOp/resource1:0:0 */;
    %88 = nn.bias_add(%87, %tvm_var_extract_const_381, axis=3) /* ty=Tensor[(1, 6, 6, 128), int32] span=model/activation_21/Relu;model/batch_normalization_21/FusedBatchNormV3;model/depthwise_conv2d_10/depthwise;model/depthwise_conv2d_10/BiasAdd;model/depthwise_conv2d_11/depthwise;model/depthwise_conv2d_10/BiasAdd/ReadVariableOp/resource1:0:0 */;
    %89 = qnn.requantize(%88, %tvm_var_extract_const_382, %tvm_var_extract_const_383, 0.0341283f /* ty=float32 span=model/activation_21/Relu;model/batch_normalization_21/FusedBatchNormV3;model/depthwise_conv2d_10/depthwise;model/depthwise_conv2d_10/BiasAdd;model/depthwise_conv2d_11/depthwise;model/depthwise_conv2d_10/BiasAdd/ReadVariableOp/resource1:0:0 */, -128 /* ty=int32 span=model/activation_21/Relu;model/batch_normalization_21/FusedBatchNormV3;model/depthwise_conv2d_10/depthwise;model/depthwise_conv2d_10/BiasAdd;model/depthwise_conv2d_11/depthwise;model/depthwise_conv2d_10/BiasAdd/ReadVariableOp/resource1:0:0 */, axis=3, out_dtype="int8") /* ty=Tensor[(1, 6, 6, 128), int8] span=model/activation_21/Relu;model/batch_normalization_21/FusedBatchNormV3;model/depthwise_conv2d_10/depthwise;model/depthwise_conv2d_10/BiasAdd;model/depthwise_conv2d_11/depthwise;model/depthwise_conv2d_10/BiasAdd/ReadVariableOp/resource1:0:0 */;
    clip(%89, a_min=-128f, a_max=127f) /* ty=Tensor[(1, 6, 6, 128), int8] span=model/activation_21/Relu;model/batch_normalization_21/FusedBatchNormV3;model/depthwise_conv2d_10/depthwise;model/depthwise_conv2d_10/BiasAdd;model/depthwise_conv2d_11/depthwise;model/depthwise_conv2d_10/BiasAdd/ReadVariableOp/resource1:0:0 */
  } /* ty=fn (Tensor[(1, 6, 6, 128), int8], Tensor[(3, 3, 128, 1), int8], Tensor[(128), int32], Tensor[(128), float32], Tensor[(128), int32], Tensor[(128), float32], Tensor[(128), int32]) -> Tensor[(1, 6, 6, 128), int8] */;
  %90(%cmsis-nn_21_i0, %tvm_var_extract_const_384, %tvm_var_extract_const_385, %tvm_var_extract_const_386, %tvm_var_extract_const_387, %tvm_var_extract_const_388, %tvm_var_extract_const_389) /* ty=Tensor[(1, 6, 6, 128), int8] */
}

def @tvmgen_default_cmsis_nn_main_22(%cmsis-nn_22_i0: Tensor[(1, 6, 6, 128), int8] /* ty=Tensor[(1, 6, 6, 128), int8] */, %tvm_var_extract_const_402: Tensor[(128, 1, 1, 128), int8] /* ty=Tensor[(128, 1, 1, 128), int8] */, %tvm_var_extract_const_403: Tensor[(128), int32] /* ty=Tensor[(128), int32] */, %tvm_var_extract_const_404: Tensor[(128), float32] /* ty=Tensor[(128), float32] */, %tvm_var_extract_const_405: Tensor[(128), int32] /* ty=Tensor[(128), int32] */, %tvm_var_extract_const_406: Tensor[(128), float32] /* ty=Tensor[(128), float32] */, %tvm_var_extract_const_407: Tensor[(128), int32] /* ty=Tensor[(128), int32] */, Compiler="cmsis-nn", Primitive=1, Inline=1, global_symbol="tvmgen_default_cmsis_nn_main_22") -> Tensor[(1, 6, 6, 128), int8] {
  %94 = fn (%FunctionVar_4_0: Tensor[(1, 6, 6, 128), int8] /* ty=Tensor[(1, 6, 6, 128), int8] */, %tvm_var_extract_const_396: Tensor[(128, 1, 1, 128), int8] /* ty=Tensor[(128, 1, 1, 128), int8] */, %tvm_var_extract_const_397: Tensor[(128), int32] /* ty=Tensor[(128), int32] */, %tvm_var_extract_const_398: Tensor[(128), float32] /* ty=Tensor[(128), float32] */, %tvm_var_extract_const_399: Tensor[(128), int32] /* ty=Tensor[(128), int32] */, %tvm_var_extract_const_400: Tensor[(128), float32] /* ty=Tensor[(128), float32] */, %tvm_var_extract_const_401: Tensor[(128), int32] /* ty=Tensor[(128), int32] */, PartitionedFromPattern="qnn.conv2d_nn.bias_add_qnn.requantize_clip_", Composite="cmsis-nn.qnn_conv2d") -> Tensor[(1, 6, 6, 128), int8] {
    %91 = qnn.conv2d(%FunctionVar_4_0, %tvm_var_extract_const_396, -128 /* ty=int32 span=model/activation_22/Relu;model/batch_normalization_22/FusedBatchNormV3;model/conv2d_11/BiasAdd/ReadVariableOp/resource;model/conv2d_11/BiasAdd;model/depthwise_conv2d_11/depthwise;model/conv2d_11/Conv2D1:0:0 */, %tvm_var_extract_const_397, 0.0341283f /* ty=float32 span=model/activation_22/Relu;model/batch_normalization_22/FusedBatchNormV3;model/conv2d_11/BiasAdd/ReadVariableOp/resource;model/conv2d_11/BiasAdd;model/depthwise_conv2d_11/depthwise;model/conv2d_11/Conv2D1:0:0 */, %tvm_var_extract_const_398, padding=[0, 0, 0, 0], channels=128, kernel_size=[1, 1], data_layout="NHWC", kernel_layout="OHWI", out_dtype="int32") /* ty=Tensor[(1, 6, 6, 128), int32] span=model/activation_22/Relu;model/batch_normalization_22/FusedBatchNormV3;model/conv2d_11/BiasAdd/ReadVariableOp/resource;model/conv2d_11/BiasAdd;model/depthwise_conv2d_11/depthwise;model/conv2d_11/Conv2D1:0:0 */;
    %92 = nn.bias_add(%91, %tvm_var_extract_const_399, axis=3) /* ty=Tensor[(1, 6, 6, 128), int32] span=model/activation_22/Relu;model/batch_normalization_22/FusedBatchNormV3;model/conv2d_11/BiasAdd/ReadVariableOp/resource;model/conv2d_11/BiasAdd;model/depthwise_conv2d_11/depthwise;model/conv2d_11/Conv2D1:0:0 */;
    %93 = qnn.requantize(%92, %tvm_var_extract_const_400, %tvm_var_extract_const_401, 0.0188816f /* ty=float32 span=model/activation_22/Relu;model/batch_normalization_22/FusedBatchNormV3;model/conv2d_11/BiasAdd/ReadVariableOp/resource;model/conv2d_11/BiasAdd;model/depthwise_conv2d_11/depthwise;model/conv2d_11/Conv2D1:0:0 */, -128 /* ty=int32 span=model/activation_22/Relu;model/batch_normalization_22/FusedBatchNormV3;model/conv2d_11/BiasAdd/ReadVariableOp/resource;model/conv2d_11/BiasAdd;model/depthwise_conv2d_11/depthwise;model/conv2d_11/Conv2D1:0:0 */, axis=3, out_dtype="int8") /* ty=Tensor[(1, 6, 6, 128), int8] span=model/activation_22/Relu;model/batch_normalization_22/FusedBatchNormV3;model/conv2d_11/BiasAdd/ReadVariableOp/resource;model/conv2d_11/BiasAdd;model/depthwise_conv2d_11/depthwise;model/conv2d_11/Conv2D1:0:0 */;
    clip(%93, a_min=-128f, a_max=127f) /* ty=Tensor[(1, 6, 6, 128), int8] span=model/activation_22/Relu;model/batch_normalization_22/FusedBatchNormV3;model/conv2d_11/BiasAdd/ReadVariableOp/resource;model/conv2d_11/BiasAdd;model/depthwise_conv2d_11/depthwise;model/conv2d_11/Conv2D1:0:0 */
  } /* ty=fn (Tensor[(1, 6, 6, 128), int8], Tensor[(128, 1, 1, 128), int8], Tensor[(128), int32], Tensor[(128), float32], Tensor[(128), int32], Tensor[(128), float32], Tensor[(128), int32]) -> Tensor[(1, 6, 6, 128), int8] */;
  %94(%cmsis-nn_22_i0, %tvm_var_extract_const_402, %tvm_var_extract_const_403, %tvm_var_extract_const_404, %tvm_var_extract_const_405, %tvm_var_extract_const_406, %tvm_var_extract_const_407) /* ty=Tensor[(1, 6, 6, 128), int8] */
}

def @tvmgen_default_cmsis_nn_main_23(%cmsis-nn_23_i0: Tensor[(1, 6, 6, 128), int8] /* ty=Tensor[(1, 6, 6, 128), int8] */, %tvm_var_extract_const_420: Tensor[(3, 3, 128, 1), int8] /* ty=Tensor[(3, 3, 128, 1), int8] */, %tvm_var_extract_const_421: Tensor[(128), int32] /* ty=Tensor[(128), int32] */, %tvm_var_extract_const_422: Tensor[(128), float32] /* ty=Tensor[(128), float32] */, %tvm_var_extract_const_423: Tensor[(128), int32] /* ty=Tensor[(128), int32] */, %tvm_var_extract_const_424: Tensor[(128), float32] /* ty=Tensor[(128), float32] */, %tvm_var_extract_const_425: Tensor[(128), int32] /* ty=Tensor[(128), int32] */, Compiler="cmsis-nn", Primitive=1, Inline=1, global_symbol="tvmgen_default_cmsis_nn_main_23") -> Tensor[(1, 3, 3, 128), int8] {
  %98 = fn (%FunctionVar_3_0: Tensor[(1, 6, 6, 128), int8] /* ty=Tensor[(1, 6, 6, 128), int8] */, %tvm_var_extract_const_414: Tensor[(3, 3, 128, 1), int8] /* ty=Tensor[(3, 3, 128, 1), int8] */, %tvm_var_extract_const_415: Tensor[(128), int32] /* ty=Tensor[(128), int32] */, %tvm_var_extract_const_416: Tensor[(128), float32] /* ty=Tensor[(128), float32] */, %tvm_var_extract_const_417: Tensor[(128), int32] /* ty=Tensor[(128), int32] */, %tvm_var_extract_const_418: Tensor[(128), float32] /* ty=Tensor[(128), float32] */, %tvm_var_extract_const_419: Tensor[(128), int32] /* ty=Tensor[(128), int32] */, PartitionedFromPattern="qnn.conv2d_nn.bias_add_qnn.requantize_clip_", Composite="cmsis-nn.qnn_conv2d") -> Tensor[(1, 3, 3, 128), int8] {
    %95 = qnn.conv2d(%FunctionVar_3_0, %tvm_var_extract_const_414, -128 /* ty=int32 span=model/activation_23/Relu;model/batch_normalization_23/FusedBatchNormV3;model/depthwise_conv2d_11/depthwise;model/depthwise_conv2d_11/BiasAdd;model/depthwise_conv2d_11/BiasAdd/ReadVariableOp/resource1:0:0 */, %tvm_var_extract_const_415, 0.0188816f /* ty=float32 span=model/activation_23/Relu;model/batch_normalization_23/FusedBatchNormV3;model/depthwise_conv2d_11/depthwise;model/depthwise_conv2d_11/BiasAdd;model/depthwise_conv2d_11/BiasAdd/ReadVariableOp/resource1:0:0 */, %tvm_var_extract_const_416, strides=[2, 2], padding=[0, 0, 1, 1], groups=128, channels=128, kernel_size=[3, 3], data_layout="NHWC", kernel_layout="HWOI", out_dtype="int32") /* ty=Tensor[(1, 3, 3, 128), int32] span=model/activation_23/Relu;model/batch_normalization_23/FusedBatchNormV3;model/depthwise_conv2d_11/depthwise;model/depthwise_conv2d_11/BiasAdd;model/depthwise_conv2d_11/BiasAdd/ReadVariableOp/resource1:0:0 */;
    %96 = nn.bias_add(%95, %tvm_var_extract_const_417, axis=3) /* ty=Tensor[(1, 3, 3, 128), int32] span=model/activation_23/Relu;model/batch_normalization_23/FusedBatchNormV3;model/depthwise_conv2d_11/depthwise;model/depthwise_conv2d_11/BiasAdd;model/depthwise_conv2d_11/BiasAdd/ReadVariableOp/resource1:0:0 */;
    %97 = qnn.requantize(%96, %tvm_var_extract_const_418, %tvm_var_extract_const_419, 0.0252806f /* ty=float32 span=model/activation_23/Relu;model/batch_normalization_23/FusedBatchNormV3;model/depthwise_conv2d_11/depthwise;model/depthwise_conv2d_11/BiasAdd;model/depthwise_conv2d_11/BiasAdd/ReadVariableOp/resource1:0:0 */, -128 /* ty=int32 span=model/activation_23/Relu;model/batch_normalization_23/FusedBatchNormV3;model/depthwise_conv2d_11/depthwise;model/depthwise_conv2d_11/BiasAdd;model/depthwise_conv2d_11/BiasAdd/ReadVariableOp/resource1:0:0 */, axis=3, out_dtype="int8") /* ty=Tensor[(1, 3, 3, 128), int8] span=model/activation_23/Relu;model/batch_normalization_23/FusedBatchNormV3;model/depthwise_conv2d_11/depthwise;model/depthwise_conv2d_11/BiasAdd;model/depthwise_conv2d_11/BiasAdd/ReadVariableOp/resource1:0:0 */;
    clip(%97, a_min=-128f, a_max=127f) /* ty=Tensor[(1, 3, 3, 128), int8] span=model/activation_23/Relu;model/batch_normalization_23/FusedBatchNormV3;model/depthwise_conv2d_11/depthwise;model/depthwise_conv2d_11/BiasAdd;model/depthwise_conv2d_11/BiasAdd/ReadVariableOp/resource1:0:0 */
  } /* ty=fn (Tensor[(1, 6, 6, 128), int8], Tensor[(3, 3, 128, 1), int8], Tensor[(128), int32], Tensor[(128), float32], Tensor[(128), int32], Tensor[(128), float32], Tensor[(128), int32]) -> Tensor[(1, 3, 3, 128), int8] */;
  %98(%cmsis-nn_23_i0, %tvm_var_extract_const_420, %tvm_var_extract_const_421, %tvm_var_extract_const_422, %tvm_var_extract_const_423, %tvm_var_extract_const_424, %tvm_var_extract_const_425) /* ty=Tensor[(1, 3, 3, 128), int8] */
}

def @tvmgen_default_cmsis_nn_main_24(%cmsis-nn_24_i0: Tensor[(1, 3, 3, 128), int8] /* ty=Tensor[(1, 3, 3, 128), int8] */, %tvm_var_extract_const_438: Tensor[(256, 1, 1, 128), int8] /* ty=Tensor[(256, 1, 1, 128), int8] */, %tvm_var_extract_const_439: Tensor[(256), int32] /* ty=Tensor[(256), int32] */, %tvm_var_extract_const_440: Tensor[(256), float32] /* ty=Tensor[(256), float32] */, %tvm_var_extract_const_441: Tensor[(256), int32] /* ty=Tensor[(256), int32] */, %tvm_var_extract_const_442: Tensor[(256), float32] /* ty=Tensor[(256), float32] */, %tvm_var_extract_const_443: Tensor[(256), int32] /* ty=Tensor[(256), int32] */, Compiler="cmsis-nn", Primitive=1, Inline=1, global_symbol="tvmgen_default_cmsis_nn_main_24") -> Tensor[(1, 3, 3, 256), int8] {
  %102 = fn (%FunctionVar_2_0: Tensor[(1, 3, 3, 128), int8] /* ty=Tensor[(1, 3, 3, 128), int8] */, %tvm_var_extract_const_432: Tensor[(256, 1, 1, 128), int8] /* ty=Tensor[(256, 1, 1, 128), int8] */, %tvm_var_extract_const_433: Tensor[(256), int32] /* ty=Tensor[(256), int32] */, %tvm_var_extract_const_434: Tensor[(256), float32] /* ty=Tensor[(256), float32] */, %tvm_var_extract_const_435: Tensor[(256), int32] /* ty=Tensor[(256), int32] */, %tvm_var_extract_const_436: Tensor[(256), float32] /* ty=Tensor[(256), float32] */, %tvm_var_extract_const_437: Tensor[(256), int32] /* ty=Tensor[(256), int32] */, PartitionedFromPattern="qnn.conv2d_nn.bias_add_qnn.requantize_clip_", Composite="cmsis-nn.qnn_conv2d") -> Tensor[(1, 3, 3, 256), int8] {
    %99 = qnn.conv2d(%FunctionVar_2_0, %tvm_var_extract_const_432, -128 /* ty=int32 span=model/activation_24/Relu;model/batch_normalization_24/FusedBatchNormV3;model/conv2d_12/BiasAdd/ReadVariableOp/resource;model/conv2d_12/BiasAdd;model/conv2d_13/Conv2D;model/conv2d_12/Conv2D1:0:0 */, %tvm_var_extract_const_433, 0.0252806f /* ty=float32 span=model/activation_24/Relu;model/batch_normalization_24/FusedBatchNormV3;model/conv2d_12/BiasAdd/ReadVariableOp/resource;model/conv2d_12/BiasAdd;model/conv2d_13/Conv2D;model/conv2d_12/Conv2D1:0:0 */, %tvm_var_extract_const_434, padding=[0, 0, 0, 0], channels=256, kernel_size=[1, 1], data_layout="NHWC", kernel_layout="OHWI", out_dtype="int32") /* ty=Tensor[(1, 3, 3, 256), int32] span=model/activation_24/Relu;model/batch_normalization_24/FusedBatchNormV3;model/conv2d_12/BiasAdd/ReadVariableOp/resource;model/conv2d_12/BiasAdd;model/conv2d_13/Conv2D;model/conv2d_12/Conv2D1:0:0 */;
    %100 = nn.bias_add(%99, %tvm_var_extract_const_435, axis=3) /* ty=Tensor[(1, 3, 3, 256), int32] span=model/activation_24/Relu;model/batch_normalization_24/FusedBatchNormV3;model/conv2d_12/BiasAdd/ReadVariableOp/resource;model/conv2d_12/BiasAdd;model/conv2d_13/Conv2D;model/conv2d_12/Conv2D1:0:0 */;
    %101 = qnn.requantize(%100, %tvm_var_extract_const_436, %tvm_var_extract_const_437, 0.021838f /* ty=float32 span=model/activation_24/Relu;model/batch_normalization_24/FusedBatchNormV3;model/conv2d_12/BiasAdd/ReadVariableOp/resource;model/conv2d_12/BiasAdd;model/conv2d_13/Conv2D;model/conv2d_12/Conv2D1:0:0 */, -128 /* ty=int32 span=model/activation_24/Relu;model/batch_normalization_24/FusedBatchNormV3;model/conv2d_12/BiasAdd/ReadVariableOp/resource;model/conv2d_12/BiasAdd;model/conv2d_13/Conv2D;model/conv2d_12/Conv2D1:0:0 */, axis=3, out_dtype="int8") /* ty=Tensor[(1, 3, 3, 256), int8] span=model/activation_24/Relu;model/batch_normalization_24/FusedBatchNormV3;model/conv2d_12/BiasAdd/ReadVariableOp/resource;model/conv2d_12/BiasAdd;model/conv2d_13/Conv2D;model/conv2d_12/Conv2D1:0:0 */;
    clip(%101, a_min=-128f, a_max=127f) /* ty=Tensor[(1, 3, 3, 256), int8] span=model/activation_24/Relu;model/batch_normalization_24/FusedBatchNormV3;model/conv2d_12/BiasAdd/ReadVariableOp/resource;model/conv2d_12/BiasAdd;model/conv2d_13/Conv2D;model/conv2d_12/Conv2D1:0:0 */
  } /* ty=fn (Tensor[(1, 3, 3, 128), int8], Tensor[(256, 1, 1, 128), int8], Tensor[(256), int32], Tensor[(256), float32], Tensor[(256), int32], Tensor[(256), float32], Tensor[(256), int32]) -> Tensor[(1, 3, 3, 256), int8] */;
  %102(%cmsis-nn_24_i0, %tvm_var_extract_const_438, %tvm_var_extract_const_439, %tvm_var_extract_const_440, %tvm_var_extract_const_441, %tvm_var_extract_const_442, %tvm_var_extract_const_443) /* ty=Tensor[(1, 3, 3, 256), int8] */
}

def @tvmgen_default_cmsis_nn_main_25(%cmsis-nn_25_i0: Tensor[(1, 3, 3, 256), int8] /* ty=Tensor[(1, 3, 3, 256), int8] */, %tvm_var_extract_const_456: Tensor[(3, 3, 256, 1), int8] /* ty=Tensor[(3, 3, 256, 1), int8] */, %tvm_var_extract_const_457: Tensor[(256), int32] /* ty=Tensor[(256), int32] */, %tvm_var_extract_const_458: Tensor[(256), float32] /* ty=Tensor[(256), float32] */, %tvm_var_extract_const_459: Tensor[(256), int32] /* ty=Tensor[(256), int32] */, %tvm_var_extract_const_460: Tensor[(256), float32] /* ty=Tensor[(256), float32] */, %tvm_var_extract_const_461: Tensor[(256), int32] /* ty=Tensor[(256), int32] */, Compiler="cmsis-nn", Primitive=1, Inline=1, global_symbol="tvmgen_default_cmsis_nn_main_25") -> Tensor[(1, 3, 3, 256), int8] {
  %106 = fn (%FunctionVar_1_0: Tensor[(1, 3, 3, 256), int8] /* ty=Tensor[(1, 3, 3, 256), int8] */, %tvm_var_extract_const_450: Tensor[(3, 3, 256, 1), int8] /* ty=Tensor[(3, 3, 256, 1), int8] */, %tvm_var_extract_const_451: Tensor[(256), int32] /* ty=Tensor[(256), int32] */, %tvm_var_extract_const_452: Tensor[(256), float32] /* ty=Tensor[(256), float32] */, %tvm_var_extract_const_453: Tensor[(256), int32] /* ty=Tensor[(256), int32] */, %tvm_var_extract_const_454: Tensor[(256), float32] /* ty=Tensor[(256), float32] */, %tvm_var_extract_const_455: Tensor[(256), int32] /* ty=Tensor[(256), int32] */, PartitionedFromPattern="qnn.conv2d_nn.bias_add_qnn.requantize_clip_", Composite="cmsis-nn.qnn_conv2d") -> Tensor[(1, 3, 3, 256), int8] {
    %103 = qnn.conv2d(%FunctionVar_1_0, %tvm_var_extract_const_450, -128 /* ty=int32 span=model/activation_25/Relu;model/batch_normalization_25/FusedBatchNormV3;model/depthwise_conv2d_12/depthwise;model/depthwise_conv2d_12/BiasAdd;model/conv2d_13/Conv2D;model/depthwise_conv2d_12/BiasAdd/ReadVariableOp/resource1:0:0 */, %tvm_var_extract_const_451, 0.021838f /* ty=float32 span=model/activation_25/Relu;model/batch_normalization_25/FusedBatchNormV3;model/depthwise_conv2d_12/depthwise;model/depthwise_conv2d_12/BiasAdd;model/conv2d_13/Conv2D;model/depthwise_conv2d_12/BiasAdd/ReadVariableOp/resource1:0:0 */, %tvm_var_extract_const_452, padding=[1, 1, 1, 1], groups=256, channels=256, kernel_size=[3, 3], data_layout="NHWC", kernel_layout="HWOI", out_dtype="int32") /* ty=Tensor[(1, 3, 3, 256), int32] span=model/activation_25/Relu;model/batch_normalization_25/FusedBatchNormV3;model/depthwise_conv2d_12/depthwise;model/depthwise_conv2d_12/BiasAdd;model/conv2d_13/Conv2D;model/depthwise_conv2d_12/BiasAdd/ReadVariableOp/resource1:0:0 */;
    %104 = nn.bias_add(%103, %tvm_var_extract_const_453, axis=3) /* ty=Tensor[(1, 3, 3, 256), int32] span=model/activation_25/Relu;model/batch_normalization_25/FusedBatchNormV3;model/depthwise_conv2d_12/depthwise;model/depthwise_conv2d_12/BiasAdd;model/conv2d_13/Conv2D;model/depthwise_conv2d_12/BiasAdd/ReadVariableOp/resource1:0:0 */;
    %105 = qnn.requantize(%104, %tvm_var_extract_const_454, %tvm_var_extract_const_455, 0.0296261f /* ty=float32 span=model/activation_25/Relu;model/batch_normalization_25/FusedBatchNormV3;model/depthwise_conv2d_12/depthwise;model/depthwise_conv2d_12/BiasAdd;model/conv2d_13/Conv2D;model/depthwise_conv2d_12/BiasAdd/ReadVariableOp/resource1:0:0 */, -128 /* ty=int32 span=model/activation_25/Relu;model/batch_normalization_25/FusedBatchNormV3;model/depthwise_conv2d_12/depthwise;model/depthwise_conv2d_12/BiasAdd;model/conv2d_13/Conv2D;model/depthwise_conv2d_12/BiasAdd/ReadVariableOp/resource1:0:0 */, axis=3, out_dtype="int8") /* ty=Tensor[(1, 3, 3, 256), int8] span=model/activation_25/Relu;model/batch_normalization_25/FusedBatchNormV3;model/depthwise_conv2d_12/depthwise;model/depthwise_conv2d_12/BiasAdd;model/conv2d_13/Conv2D;model/depthwise_conv2d_12/BiasAdd/ReadVariableOp/resource1:0:0 */;
    clip(%105, a_min=-128f, a_max=127f) /* ty=Tensor[(1, 3, 3, 256), int8] span=model/activation_25/Relu;model/batch_normalization_25/FusedBatchNormV3;model/depthwise_conv2d_12/depthwise;model/depthwise_conv2d_12/BiasAdd;model/conv2d_13/Conv2D;model/depthwise_conv2d_12/BiasAdd/ReadVariableOp/resource1:0:0 */
  } /* ty=fn (Tensor[(1, 3, 3, 256), int8], Tensor[(3, 3, 256, 1), int8], Tensor[(256), int32], Tensor[(256), float32], Tensor[(256), int32], Tensor[(256), float32], Tensor[(256), int32]) -> Tensor[(1, 3, 3, 256), int8] */;
  %106(%cmsis-nn_25_i0, %tvm_var_extract_const_456, %tvm_var_extract_const_457, %tvm_var_extract_const_458, %tvm_var_extract_const_459, %tvm_var_extract_const_460, %tvm_var_extract_const_461) /* ty=Tensor[(1, 3, 3, 256), int8] */
}

def @tvmgen_default_cmsis_nn_main_26(%cmsis-nn_26_i0: Tensor[(1, 3, 3, 256), int8] /* ty=Tensor[(1, 3, 3, 256), int8] */, %tvm_var_extract_const_474: Tensor[(256, 1, 1, 256), int8] /* ty=Tensor[(256, 1, 1, 256), int8] */, %tvm_var_extract_const_475: Tensor[(256), int32] /* ty=Tensor[(256), int32] */, %tvm_var_extract_const_476: Tensor[(256), float32] /* ty=Tensor[(256), float32] */, %tvm_var_extract_const_477: Tensor[(256), int32] /* ty=Tensor[(256), int32] */, %tvm_var_extract_const_478: Tensor[(256), float32] /* ty=Tensor[(256), float32] */, %tvm_var_extract_const_479: Tensor[(256), int32] /* ty=Tensor[(256), int32] */, Compiler="cmsis-nn", Primitive=1, Inline=1, global_symbol="tvmgen_default_cmsis_nn_main_26") -> Tensor[(1, 3, 3, 256), int8] {
  %110 = fn (%FunctionVar_0_0: Tensor[(1, 3, 3, 256), int8] /* ty=Tensor[(1, 3, 3, 256), int8] */, %tvm_var_extract_const_468: Tensor[(256, 1, 1, 256), int8] /* ty=Tensor[(256, 1, 1, 256), int8] */, %tvm_var_extract_const_469: Tensor[(256), int32] /* ty=Tensor[(256), int32] */, %tvm_var_extract_const_470: Tensor[(256), float32] /* ty=Tensor[(256), float32] */, %tvm_var_extract_const_471: Tensor[(256), int32] /* ty=Tensor[(256), int32] */, %tvm_var_extract_const_472: Tensor[(256), float32] /* ty=Tensor[(256), float32] */, %tvm_var_extract_const_473: Tensor[(256), int32] /* ty=Tensor[(256), int32] */, PartitionedFromPattern="qnn.conv2d_nn.bias_add_qnn.requantize_clip_", Composite="cmsis-nn.qnn_conv2d") -> Tensor[(1, 3, 3, 256), int8] {
    %107 = qnn.conv2d(%FunctionVar_0_0, %tvm_var_extract_const_468, -128 /* ty=int32 span=model/activation_26/Relu;model/batch_normalization_26/FusedBatchNormV3;model/conv2d_13/BiasAdd/ReadVariableOp/resource;model/conv2d_13/BiasAdd;model/conv2d_13/Conv2D1:0:0 */, %tvm_var_extract_const_469, 0.0296261f /* ty=float32 span=model/activation_26/Relu;model/batch_normalization_26/FusedBatchNormV3;model/conv2d_13/BiasAdd/ReadVariableOp/resource;model/conv2d_13/BiasAdd;model/conv2d_13/Conv2D1:0:0 */, %tvm_var_extract_const_470, padding=[0, 0, 0, 0], channels=256, kernel_size=[1, 1], data_layout="NHWC", kernel_layout="OHWI", out_dtype="int32") /* ty=Tensor[(1, 3, 3, 256), int32] span=model/activation_26/Relu;model/batch_normalization_26/FusedBatchNormV3;model/conv2d_13/BiasAdd/ReadVariableOp/resource;model/conv2d_13/BiasAdd;model/conv2d_13/Conv2D1:0:0 */;
    %108 = nn.bias_add(%107, %tvm_var_extract_const_471, axis=3) /* ty=Tensor[(1, 3, 3, 256), int32] span=model/activation_26/Relu;model/batch_normalization_26/FusedBatchNormV3;model/conv2d_13/BiasAdd/ReadVariableOp/resource;model/conv2d_13/BiasAdd;model/conv2d_13/Conv2D1:0:0 */;
    %109 = qnn.requantize(%108, %tvm_var_extract_const_472, %tvm_var_extract_const_473, 0.0156569f /* ty=float32 span=model/activation_26/Relu;model/batch_normalization_26/FusedBatchNormV3;model/conv2d_13/BiasAdd/ReadVariableOp/resource;model/conv2d_13/BiasAdd;model/conv2d_13/Conv2D1:0:0 */, -128 /* ty=int32 span=model/activation_26/Relu;model/batch_normalization_26/FusedBatchNormV3;model/conv2d_13/BiasAdd/ReadVariableOp/resource;model/conv2d_13/BiasAdd;model/conv2d_13/Conv2D1:0:0 */, axis=3, out_dtype="int8") /* ty=Tensor[(1, 3, 3, 256), int8] span=model/activation_26/Relu;model/batch_normalization_26/FusedBatchNormV3;model/conv2d_13/BiasAdd/ReadVariableOp/resource;model/conv2d_13/BiasAdd;model/conv2d_13/Conv2D1:0:0 */;
    clip(%109, a_min=-128f, a_max=127f) /* ty=Tensor[(1, 3, 3, 256), int8] span=model/activation_26/Relu;model/batch_normalization_26/FusedBatchNormV3;model/conv2d_13/BiasAdd/ReadVariableOp/resource;model/conv2d_13/BiasAdd;model/conv2d_13/Conv2D1:0:0 */
  } /* ty=fn (Tensor[(1, 3, 3, 256), int8], Tensor[(256, 1, 1, 256), int8], Tensor[(256), int32], Tensor[(256), float32], Tensor[(256), int32], Tensor[(256), float32], Tensor[(256), int32]) -> Tensor[(1, 3, 3, 256), int8] */;
  %110(%cmsis-nn_26_i0, %tvm_var_extract_const_474, %tvm_var_extract_const_475, %tvm_var_extract_const_476, %tvm_var_extract_const_477, %tvm_var_extract_const_478, %tvm_var_extract_const_479) /* ty=Tensor[(1, 3, 3, 256), int8] */
}

def @tvmgen_default_cmsis_nn_main_27(%cmsis-nn_27_i0: Tensor[(1, 3, 3, 256), int8] /* ty=Tensor[(1, 3, 3, 256), int8] */, Compiler="cmsis-nn", Primitive=1, Inline=1, global_symbol="tvmgen_default_cmsis_nn_main_27") -> Tensor[(1, 1, 1, 256), int8] {
  %113 = fn (%FunctionVar_0_01: Tensor[(1, 3, 3, 256), int8] /* ty=Tensor[(1, 3, 3, 256), int8] */, PartitionedFromPattern="cast_nn.avg_pool2d_cast_", Composite="cmsis-nn.qnn_avg_pool2d") -> Tensor[(1, 1, 1, 256), int8] {
    %111 = cast(%FunctionVar_0_01, dtype="int32") /* ty=Tensor[(1, 3, 3, 256), int32] span=model/average_pooling2d/AvgPool:0:0 */;
    %112 = nn.avg_pool2d(%111, pool_size=[3, 3], strides=[3, 3], padding=[0, 0, 0, 0], layout="NHWC") /* ty=Tensor[(1, 1, 1, 256), int32] span=model/average_pooling2d/AvgPool:0:0 */;
    cast(%112, dtype="int8") /* ty=Tensor[(1, 1, 1, 256), int8] span=model/average_pooling2d/AvgPool:0:0 */
  } /* ty=fn (Tensor[(1, 3, 3, 256), int8]) -> Tensor[(1, 1, 1, 256), int8] */;
  %113(%cmsis-nn_27_i0) /* ty=Tensor[(1, 1, 1, 256), int8] */
}

def @tvmgen_default_cmsis_nn_main_28(%cmsis-nn_28_i0: Tensor[(1, 256), int8] /* ty=Tensor[(1, 256), int8] */, %tvm_var_extract_const_488: Tensor[(2, 256), int8] /* ty=Tensor[(2, 256), int8] */, %tvm_var_extract_const_489: Tensor[(2), int32] /* ty=Tensor[(2), int32] */, Compiler="cmsis-nn", Primitive=1, Inline=1, global_symbol="tvmgen_default_cmsis_nn_main_28") -> Tensor[(1, 2), int8] {
  %116 = fn (%FunctionVar_0_02: Tensor[(1, 256), int8] /* ty=Tensor[(1, 256), int8] */, %tvm_var_extract_const_486: Tensor[(2, 256), int8] /* ty=Tensor[(2, 256), int8] */, %tvm_var_extract_const_487: Tensor[(2), int32] /* ty=Tensor[(2), int32] */, PartitionedFromPattern="qnn.dense_nn.bias_add_qnn.requantize_", Composite="cmsis-nn.qnn_fully_connected") -> Tensor[(1, 2), int8] {
    %114 = qnn.dense(%FunctionVar_0_02, %tvm_var_extract_const_486, -128 /* ty=int32 span=model/dense/MatMul;model/dense/BiasAdd:0:0 */, 0 /* ty=int32 span=model/dense/MatMul;model/dense/BiasAdd:0:0 */, 0.0156569f /* ty=float32 span=model/dense/MatMul;model/dense/BiasAdd:0:0 */, 0.00472029f /* ty=float32 span=model/dense/MatMul;model/dense/BiasAdd:0:0 */, units=2, out_dtype="int32") /* ty=Tensor[(1, 2), int32] span=model/dense/MatMul;model/dense/BiasAdd:0:0 */;
    %115 = nn.bias_add(%114, %tvm_var_extract_const_487) /* ty=Tensor[(1, 2), int32] span=model/dense/MatMul;model/dense/BiasAdd:0:0 */;
    qnn.requantize(%115, 7.39052e-05f /* ty=float32 span=model/dense/MatMul;model/dense/BiasAdd:0:0 */, 0 /* ty=int32 span=model/dense/MatMul;model/dense/BiasAdd:0:0 */, 0.0146362f /* ty=float32 span=model/dense/MatMul;model/dense/BiasAdd:0:0 */, -5 /* ty=int32 span=model/dense/MatMul;model/dense/BiasAdd:0:0 */, out_dtype="int8") /* ty=Tensor[(1, 2), int8] span=model/dense/MatMul;model/dense/BiasAdd:0:0 */
  } /* ty=fn (Tensor[(1, 256), int8], Tensor[(2, 256), int8], Tensor[(2), int32]) -> Tensor[(1, 2), int8] */;
  %116(%cmsis-nn_28_i0, %tvm_var_extract_const_488, %tvm_var_extract_const_489) /* ty=Tensor[(1, 2), int8] */
}

def @tvmgen_default_cmsis_nn_main_29(%cmsis-nn_29_i0: Tensor[(1, 2), int8] /* ty=Tensor[(1, 2), int8] */, Compiler="cmsis-nn", Primitive=1, Inline=1, global_symbol="tvmgen_default_cmsis_nn_main_29") -> Tensor[(1, 2), int8] {
  %119 = fn (%FunctionVar_0_03: Tensor[(1, 2), int8] /* ty=Tensor[(1, 2), int8] */, PartitionedFromPattern="qnn.dequantize_nn.softmax_qnn.quantize_", Composite="cmsis-nn.qnn_softmax") -> Tensor[(1, 2), int8] {
    %117 = qnn.dequantize(%FunctionVar_0_03, 0.0146362f /* ty=float32 span=Identity_int8:0:0 */, -5 /* ty=int32 span=Identity_int8:0:0 */, out_dtype="float32") /* ty=Tensor[(1, 2), float32] span=Identity_int8:0:0 */;
    %118 = nn.softmax(%117) /* ty=Tensor[(1, 2), float32] span=Identity_int8:0:0 */;
    qnn.quantize(%118, 0.00390625f /* ty=float32 span=Identity_int8:0:0 */, -128 /* ty=int32 span=Identity_int8:0:0 */, out_dtype="int8") /* ty=Tensor[(1, 2), int8] span=Identity_int8:0:0 */
  } /* ty=fn (Tensor[(1, 2), int8]) -> Tensor[(1, 2), int8] */;
  %119(%cmsis-nn_29_i0) /* ty=Tensor[(1, 2), int8] */
}

def @tvmgen_default_cmsis_nn_main_3(%cmsis-nn_3_i0: Tensor[(1, 48, 48, 16), int8] /* ty=Tensor[(1, 48, 48, 16), int8] */, %tvm_var_extract_const_60: Tensor[(3, 3, 16, 1), int8] /* ty=Tensor[(3, 3, 16, 1), int8] */, %tvm_var_extract_const_61: Tensor[(16), int32] /* ty=Tensor[(16), int32] */, %tvm_var_extract_const_62: Tensor[(16), float32] /* ty=Tensor[(16), float32] */, %tvm_var_extract_const_63: Tensor[(16), int32] /* ty=Tensor[(16), int32] */, %tvm_var_extract_const_64: Tensor[(16), float32] /* ty=Tensor[(16), float32] */, %tvm_var_extract_const_65: Tensor[(16), int32] /* ty=Tensor[(16), int32] */, Compiler="cmsis-nn", Primitive=1, Inline=1, global_symbol="tvmgen_default_cmsis_nn_main_3") -> Tensor[(1, 24, 24, 16), int8] {
  %123 = fn (%FunctionVar_23_0: Tensor[(1, 48, 48, 16), int8] /* ty=Tensor[(1, 48, 48, 16), int8] */, %tvm_var_extract_const_54: Tensor[(3, 3, 16, 1), int8] /* ty=Tensor[(3, 3, 16, 1), int8] */, %tvm_var_extract_const_55: Tensor[(16), int32] /* ty=Tensor[(16), int32] */, %tvm_var_extract_const_56: Tensor[(16), float32] /* ty=Tensor[(16), float32] */, %tvm_var_extract_const_57: Tensor[(16), int32] /* ty=Tensor[(16), int32] */, %tvm_var_extract_const_58: Tensor[(16), float32] /* ty=Tensor[(16), float32] */, %tvm_var_extract_const_59: Tensor[(16), int32] /* ty=Tensor[(16), int32] */, PartitionedFromPattern="qnn.conv2d_nn.bias_add_qnn.requantize_clip_", Composite="cmsis-nn.qnn_conv2d") -> Tensor[(1, 24, 24, 16), int8] {
    %120 = qnn.conv2d(%FunctionVar_23_0, %tvm_var_extract_const_54, -128 /* ty=int32 span=model/activation_3/Relu;model/batch_normalization_3/FusedBatchNormV3;model/depthwise_conv2d_1/depthwise;model/depthwise_conv2d_1/BiasAdd;model/depthwise_conv2d_1/BiasAdd/ReadVariableOp/resource1:0:0 */, %tvm_var_extract_const_55, 0.0341311f /* ty=float32 span=model/activation_3/Relu;model/batch_normalization_3/FusedBatchNormV3;model/depthwise_conv2d_1/depthwise;model/depthwise_conv2d_1/BiasAdd;model/depthwise_conv2d_1/BiasAdd/ReadVariableOp/resource1:0:0 */, %tvm_var_extract_const_56, strides=[2, 2], padding=[0, 0, 1, 1], groups=16, channels=16, kernel_size=[3, 3], data_layout="NHWC", kernel_layout="HWOI", out_dtype="int32") /* ty=Tensor[(1, 24, 24, 16), int32] span=model/activation_3/Relu;model/batch_normalization_3/FusedBatchNormV3;model/depthwise_conv2d_1/depthwise;model/depthwise_conv2d_1/BiasAdd;model/depthwise_conv2d_1/BiasAdd/ReadVariableOp/resource1:0:0 */;
    %121 = nn.bias_add(%120, %tvm_var_extract_const_57, axis=3) /* ty=Tensor[(1, 24, 24, 16), int32] span=model/activation_3/Relu;model/batch_normalization_3/FusedBatchNormV3;model/depthwise_conv2d_1/depthwise;model/depthwise_conv2d_1/BiasAdd;model/depthwise_conv2d_1/BiasAdd/ReadVariableOp/resource1:0:0 */;
    %122 = qnn.requantize(%121, %tvm_var_extract_const_58, %tvm_var_extract_const_59, 0.0304951f /* ty=float32 span=model/activation_3/Relu;model/batch_normalization_3/FusedBatchNormV3;model/depthwise_conv2d_1/depthwise;model/depthwise_conv2d_1/BiasAdd;model/depthwise_conv2d_1/BiasAdd/ReadVariableOp/resource1:0:0 */, -128 /* ty=int32 span=model/activation_3/Relu;model/batch_normalization_3/FusedBatchNormV3;model/depthwise_conv2d_1/depthwise;model/depthwise_conv2d_1/BiasAdd;model/depthwise_conv2d_1/BiasAdd/ReadVariableOp/resource1:0:0 */, axis=3, out_dtype="int8") /* ty=Tensor[(1, 24, 24, 16), int8] span=model/activation_3/Relu;model/batch_normalization_3/FusedBatchNormV3;model/depthwise_conv2d_1/depthwise;model/depthwise_conv2d_1/BiasAdd;model/depthwise_conv2d_1/BiasAdd/ReadVariableOp/resource1:0:0 */;
    clip(%122, a_min=-128f, a_max=127f) /* ty=Tensor[(1, 24, 24, 16), int8] span=model/activation_3/Relu;model/batch_normalization_3/FusedBatchNormV3;model/depthwise_conv2d_1/depthwise;model/depthwise_conv2d_1/BiasAdd;model/depthwise_conv2d_1/BiasAdd/ReadVariableOp/resource1:0:0 */
  } /* ty=fn (Tensor[(1, 48, 48, 16), int8], Tensor[(3, 3, 16, 1), int8], Tensor[(16), int32], Tensor[(16), float32], Tensor[(16), int32], Tensor[(16), float32], Tensor[(16), int32]) -> Tensor[(1, 24, 24, 16), int8] */;
  %123(%cmsis-nn_3_i0, %tvm_var_extract_const_60, %tvm_var_extract_const_61, %tvm_var_extract_const_62, %tvm_var_extract_const_63, %tvm_var_extract_const_64, %tvm_var_extract_const_65) /* ty=Tensor[(1, 24, 24, 16), int8] */
}

def @tvmgen_default_cmsis_nn_main_4(%cmsis-nn_4_i0: Tensor[(1, 24, 24, 16), int8] /* ty=Tensor[(1, 24, 24, 16), int8] */, %tvm_var_extract_const_78: Tensor[(32, 1, 1, 16), int8] /* ty=Tensor[(32, 1, 1, 16), int8] */, %tvm_var_extract_const_79: Tensor[(32), int32] /* ty=Tensor[(32), int32] */, %tvm_var_extract_const_80: Tensor[(32), float32] /* ty=Tensor[(32), float32] */, %tvm_var_extract_const_81: Tensor[(32), int32] /* ty=Tensor[(32), int32] */, %tvm_var_extract_const_82: Tensor[(32), float32] /* ty=Tensor[(32), float32] */, %tvm_var_extract_const_83: Tensor[(32), int32] /* ty=Tensor[(32), int32] */, Compiler="cmsis-nn", Primitive=1, Inline=1, global_symbol="tvmgen_default_cmsis_nn_main_4") -> Tensor[(1, 24, 24, 32), int8] {
  %127 = fn (%FunctionVar_22_0: Tensor[(1, 24, 24, 16), int8] /* ty=Tensor[(1, 24, 24, 16), int8] */, %tvm_var_extract_const_72: Tensor[(32, 1, 1, 16), int8] /* ty=Tensor[(32, 1, 1, 16), int8] */, %tvm_var_extract_const_73: Tensor[(32), int32] /* ty=Tensor[(32), int32] */, %tvm_var_extract_const_74: Tensor[(32), float32] /* ty=Tensor[(32), float32] */, %tvm_var_extract_const_75: Tensor[(32), int32] /* ty=Tensor[(32), int32] */, %tvm_var_extract_const_76: Tensor[(32), float32] /* ty=Tensor[(32), float32] */, %tvm_var_extract_const_77: Tensor[(32), int32] /* ty=Tensor[(32), int32] */, PartitionedFromPattern="qnn.conv2d_nn.bias_add_qnn.requantize_clip_", Composite="cmsis-nn.qnn_conv2d") -> Tensor[(1, 24, 24, 32), int8] {
    %124 = qnn.conv2d(%FunctionVar_22_0, %tvm_var_extract_const_72, -128 /* ty=int32 span=model/activation_4/Relu;model/batch_normalization_4/FusedBatchNormV3;model/conv2d_2/BiasAdd/ReadVariableOp/resource;model/conv2d_2/BiasAdd;model/depthwise_conv2d_3/depthwise;model/conv2d_2/Conv2D1:0:0 */, %tvm_var_extract_const_73, 0.0304951f /* ty=float32 span=model/activation_4/Relu;model/batch_normalization_4/FusedBatchNormV3;model/conv2d_2/BiasAdd/ReadVariableOp/resource;model/conv2d_2/BiasAdd;model/depthwise_conv2d_3/depthwise;model/conv2d_2/Conv2D1:0:0 */, %tvm_var_extract_const_74, padding=[0, 0, 0, 0], channels=32, kernel_size=[1, 1], data_layout="NHWC", kernel_layout="OHWI", out_dtype="int32") /* ty=Tensor[(1, 24, 24, 32), int32] span=model/activation_4/Relu;model/batch_normalization_4/FusedBatchNormV3;model/conv2d_2/BiasAdd/ReadVariableOp/resource;model/conv2d_2/BiasAdd;model/depthwise_conv2d_3/depthwise;model/conv2d_2/Conv2D1:0:0 */;
    %125 = nn.bias_add(%124, %tvm_var_extract_const_75, axis=3) /* ty=Tensor[(1, 24, 24, 32), int32] span=model/activation_4/Relu;model/batch_normalization_4/FusedBatchNormV3;model/conv2d_2/BiasAdd/ReadVariableOp/resource;model/conv2d_2/BiasAdd;model/depthwise_conv2d_3/depthwise;model/conv2d_2/Conv2D1:0:0 */;
    %126 = qnn.requantize(%125, %tvm_var_extract_const_76, %tvm_var_extract_const_77, 0.0323921f /* ty=float32 span=model/activation_4/Relu;model/batch_normalization_4/FusedBatchNormV3;model/conv2d_2/BiasAdd/ReadVariableOp/resource;model/conv2d_2/BiasAdd;model/depthwise_conv2d_3/depthwise;model/conv2d_2/Conv2D1:0:0 */, -128 /* ty=int32 span=model/activation_4/Relu;model/batch_normalization_4/FusedBatchNormV3;model/conv2d_2/BiasAdd/ReadVariableOp/resource;model/conv2d_2/BiasAdd;model/depthwise_conv2d_3/depthwise;model/conv2d_2/Conv2D1:0:0 */, axis=3, out_dtype="int8") /* ty=Tensor[(1, 24, 24, 32), int8] span=model/activation_4/Relu;model/batch_normalization_4/FusedBatchNormV3;model/conv2d_2/BiasAdd/ReadVariableOp/resource;model/conv2d_2/BiasAdd;model/depthwise_conv2d_3/depthwise;model/conv2d_2/Conv2D1:0:0 */;
    clip(%126, a_min=-128f, a_max=127f) /* ty=Tensor[(1, 24, 24, 32), int8] span=model/activation_4/Relu;model/batch_normalization_4/FusedBatchNormV3;model/conv2d_2/BiasAdd/ReadVariableOp/resource;model/conv2d_2/BiasAdd;model/depthwise_conv2d_3/depthwise;model/conv2d_2/Conv2D1:0:0 */
  } /* ty=fn (Tensor[(1, 24, 24, 16), int8], Tensor[(32, 1, 1, 16), int8], Tensor[(32), int32], Tensor[(32), float32], Tensor[(32), int32], Tensor[(32), float32], Tensor[(32), int32]) -> Tensor[(1, 24, 24, 32), int8] */;
  %127(%cmsis-nn_4_i0, %tvm_var_extract_const_78, %tvm_var_extract_const_79, %tvm_var_extract_const_80, %tvm_var_extract_const_81, %tvm_var_extract_const_82, %tvm_var_extract_const_83) /* ty=Tensor[(1, 24, 24, 32), int8] */
}

def @tvmgen_default_cmsis_nn_main_5(%cmsis-nn_5_i0: Tensor[(1, 24, 24, 32), int8] /* ty=Tensor[(1, 24, 24, 32), int8] */, %tvm_var_extract_const_96: Tensor[(3, 3, 32, 1), int8] /* ty=Tensor[(3, 3, 32, 1), int8] */, %tvm_var_extract_const_97: Tensor[(32), int32] /* ty=Tensor[(32), int32] */, %tvm_var_extract_const_98: Tensor[(32), float32] /* ty=Tensor[(32), float32] */, %tvm_var_extract_const_99: Tensor[(32), int32] /* ty=Tensor[(32), int32] */, %tvm_var_extract_const_100: Tensor[(32), float32] /* ty=Tensor[(32), float32] */, %tvm_var_extract_const_101: Tensor[(32), int32] /* ty=Tensor[(32), int32] */, Compiler="cmsis-nn", Primitive=1, Inline=1, global_symbol="tvmgen_default_cmsis_nn_main_5") -> Tensor[(1, 24, 24, 32), int8] {
  %131 = fn (%FunctionVar_21_0: Tensor[(1, 24, 24, 32), int8] /* ty=Tensor[(1, 24, 24, 32), int8] */, %tvm_var_extract_const_90: Tensor[(3, 3, 32, 1), int8] /* ty=Tensor[(3, 3, 32, 1), int8] */, %tvm_var_extract_const_91: Tensor[(32), int32] /* ty=Tensor[(32), int32] */, %tvm_var_extract_const_92: Tensor[(32), float32] /* ty=Tensor[(32), float32] */, %tvm_var_extract_const_93: Tensor[(32), int32] /* ty=Tensor[(32), int32] */, %tvm_var_extract_const_94: Tensor[(32), float32] /* ty=Tensor[(32), float32] */, %tvm_var_extract_const_95: Tensor[(32), int32] /* ty=Tensor[(32), int32] */, PartitionedFromPattern="qnn.conv2d_nn.bias_add_qnn.requantize_clip_", Composite="cmsis-nn.qnn_conv2d") -> Tensor[(1, 24, 24, 32), int8] {
    %128 = qnn.conv2d(%FunctionVar_21_0, %tvm_var_extract_const_90, -128 /* ty=int32 span=model/activation_5/Relu;model/batch_normalization_5/FusedBatchNormV3;model/depthwise_conv2d_2/depthwise;model/depthwise_conv2d_2/BiasAdd;model/depthwise_conv2d_3/depthwise;model/depthwise_conv2d_2/BiasAdd/ReadVariableOp/resource1:0:0 */, %tvm_var_extract_const_91, 0.0323921f /* ty=float32 span=model/activation_5/Relu;model/batch_normalization_5/FusedBatchNormV3;model/depthwise_conv2d_2/depthwise;model/depthwise_conv2d_2/BiasAdd;model/depthwise_conv2d_3/depthwise;model/depthwise_conv2d_2/BiasAdd/ReadVariableOp/resource1:0:0 */, %tvm_var_extract_const_92, padding=[1, 1, 1, 1], groups=32, channels=32, kernel_size=[3, 3], data_layout="NHWC", kernel_layout="HWOI", out_dtype="int32") /* ty=Tensor[(1, 24, 24, 32), int32] span=model/activation_5/Relu;model/batch_normalization_5/FusedBatchNormV3;model/depthwise_conv2d_2/depthwise;model/depthwise_conv2d_2/BiasAdd;model/depthwise_conv2d_3/depthwise;model/depthwise_conv2d_2/BiasAdd/ReadVariableOp/resource1:0:0 */;
    %129 = nn.bias_add(%128, %tvm_var_extract_const_93, axis=3) /* ty=Tensor[(1, 24, 24, 32), int32] span=model/activation_5/Relu;model/batch_normalization_5/FusedBatchNormV3;model/depthwise_conv2d_2/depthwise;model/depthwise_conv2d_2/BiasAdd;model/depthwise_conv2d_3/depthwise;model/depthwise_conv2d_2/BiasAdd/ReadVariableOp/resource1:0:0 */;
    %130 = qnn.requantize(%129, %tvm_var_extract_const_94, %tvm_var_extract_const_95, 0.0403331f /* ty=float32 span=model/activation_5/Relu;model/batch_normalization_5/FusedBatchNormV3;model/depthwise_conv2d_2/depthwise;model/depthwise_conv2d_2/BiasAdd;model/depthwise_conv2d_3/depthwise;model/depthwise_conv2d_2/BiasAdd/ReadVariableOp/resource1:0:0 */, -128 /* ty=int32 span=model/activation_5/Relu;model/batch_normalization_5/FusedBatchNormV3;model/depthwise_conv2d_2/depthwise;model/depthwise_conv2d_2/BiasAdd;model/depthwise_conv2d_3/depthwise;model/depthwise_conv2d_2/BiasAdd/ReadVariableOp/resource1:0:0 */, axis=3, out_dtype="int8") /* ty=Tensor[(1, 24, 24, 32), int8] span=model/activation_5/Relu;model/batch_normalization_5/FusedBatchNormV3;model/depthwise_conv2d_2/depthwise;model/depthwise_conv2d_2/BiasAdd;model/depthwise_conv2d_3/depthwise;model/depthwise_conv2d_2/BiasAdd/ReadVariableOp/resource1:0:0 */;
    clip(%130, a_min=-128f, a_max=127f) /* ty=Tensor[(1, 24, 24, 32), int8] span=model/activation_5/Relu;model/batch_normalization_5/FusedBatchNormV3;model/depthwise_conv2d_2/depthwise;model/depthwise_conv2d_2/BiasAdd;model/depthwise_conv2d_3/depthwise;model/depthwise_conv2d_2/BiasAdd/ReadVariableOp/resource1:0:0 */
  } /* ty=fn (Tensor[(1, 24, 24, 32), int8], Tensor[(3, 3, 32, 1), int8], Tensor[(32), int32], Tensor[(32), float32], Tensor[(32), int32], Tensor[(32), float32], Tensor[(32), int32]) -> Tensor[(1, 24, 24, 32), int8] */;
  %131(%cmsis-nn_5_i0, %tvm_var_extract_const_96, %tvm_var_extract_const_97, %tvm_var_extract_const_98, %tvm_var_extract_const_99, %tvm_var_extract_const_100, %tvm_var_extract_const_101) /* ty=Tensor[(1, 24, 24, 32), int8] */
}

def @tvmgen_default_cmsis_nn_main_6(%cmsis-nn_6_i0: Tensor[(1, 24, 24, 32), int8] /* ty=Tensor[(1, 24, 24, 32), int8] */, %tvm_var_extract_const_114: Tensor[(32, 1, 1, 32), int8] /* ty=Tensor[(32, 1, 1, 32), int8] */, %tvm_var_extract_const_115: Tensor[(32), int32] /* ty=Tensor[(32), int32] */, %tvm_var_extract_const_116: Tensor[(32), float32] /* ty=Tensor[(32), float32] */, %tvm_var_extract_const_117: Tensor[(32), int32] /* ty=Tensor[(32), int32] */, %tvm_var_extract_const_118: Tensor[(32), float32] /* ty=Tensor[(32), float32] */, %tvm_var_extract_const_119: Tensor[(32), int32] /* ty=Tensor[(32), int32] */, Compiler="cmsis-nn", Primitive=1, Inline=1, global_symbol="tvmgen_default_cmsis_nn_main_6") -> Tensor[(1, 24, 24, 32), int8] {
  %135 = fn (%FunctionVar_20_0: Tensor[(1, 24, 24, 32), int8] /* ty=Tensor[(1, 24, 24, 32), int8] */, %tvm_var_extract_const_108: Tensor[(32, 1, 1, 32), int8] /* ty=Tensor[(32, 1, 1, 32), int8] */, %tvm_var_extract_const_109: Tensor[(32), int32] /* ty=Tensor[(32), int32] */, %tvm_var_extract_const_110: Tensor[(32), float32] /* ty=Tensor[(32), float32] */, %tvm_var_extract_const_111: Tensor[(32), int32] /* ty=Tensor[(32), int32] */, %tvm_var_extract_const_112: Tensor[(32), float32] /* ty=Tensor[(32), float32] */, %tvm_var_extract_const_113: Tensor[(32), int32] /* ty=Tensor[(32), int32] */, PartitionedFromPattern="qnn.conv2d_nn.bias_add_qnn.requantize_clip_", Composite="cmsis-nn.qnn_conv2d") -> Tensor[(1, 24, 24, 32), int8] {
    %132 = qnn.conv2d(%FunctionVar_20_0, %tvm_var_extract_const_108, -128 /* ty=int32 span=model/activation_6/Relu;model/batch_normalization_6/FusedBatchNormV3;model/conv2d_3/BiasAdd/ReadVariableOp/resource;model/conv2d_3/BiasAdd;model/depthwise_conv2d_3/depthwise;model/conv2d_3/Conv2D1:0:0 */, %tvm_var_extract_const_109, 0.0403331f /* ty=float32 span=model/activation_6/Relu;model/batch_normalization_6/FusedBatchNormV3;model/conv2d_3/BiasAdd/ReadVariableOp/resource;model/conv2d_3/BiasAdd;model/depthwise_conv2d_3/depthwise;model/conv2d_3/Conv2D1:0:0 */, %tvm_var_extract_const_110, padding=[0, 0, 0, 0], channels=32, kernel_size=[1, 1], data_layout="NHWC", kernel_layout="OHWI", out_dtype="int32") /* ty=Tensor[(1, 24, 24, 32), int32] span=model/activation_6/Relu;model/batch_normalization_6/FusedBatchNormV3;model/conv2d_3/BiasAdd/ReadVariableOp/resource;model/conv2d_3/BiasAdd;model/depthwise_conv2d_3/depthwise;model/conv2d_3/Conv2D1:0:0 */;
    %133 = nn.bias_add(%132, %tvm_var_extract_const_111, axis=3) /* ty=Tensor[(1, 24, 24, 32), int32] span=model/activation_6/Relu;model/batch_normalization_6/FusedBatchNormV3;model/conv2d_3/BiasAdd/ReadVariableOp/resource;model/conv2d_3/BiasAdd;model/depthwise_conv2d_3/depthwise;model/conv2d_3/Conv2D1:0:0 */;
    %134 = qnn.requantize(%133, %tvm_var_extract_const_112, %tvm_var_extract_const_113, 0.0409983f /* ty=float32 span=model/activation_6/Relu;model/batch_normalization_6/FusedBatchNormV3;model/conv2d_3/BiasAdd/ReadVariableOp/resource;model/conv2d_3/BiasAdd;model/depthwise_conv2d_3/depthwise;model/conv2d_3/Conv2D1:0:0 */, -128 /* ty=int32 span=model/activation_6/Relu;model/batch_normalization_6/FusedBatchNormV3;model/conv2d_3/BiasAdd/ReadVariableOp/resource;model/conv2d_3/BiasAdd;model/depthwise_conv2d_3/depthwise;model/conv2d_3/Conv2D1:0:0 */, axis=3, out_dtype="int8") /* ty=Tensor[(1, 24, 24, 32), int8] span=model/activation_6/Relu;model/batch_normalization_6/FusedBatchNormV3;model/conv2d_3/BiasAdd/ReadVariableOp/resource;model/conv2d_3/BiasAdd;model/depthwise_conv2d_3/depthwise;model/conv2d_3/Conv2D1:0:0 */;
    clip(%134, a_min=-128f, a_max=127f) /* ty=Tensor[(1, 24, 24, 32), int8] span=model/activation_6/Relu;model/batch_normalization_6/FusedBatchNormV3;model/conv2d_3/BiasAdd/ReadVariableOp/resource;model/conv2d_3/BiasAdd;model/depthwise_conv2d_3/depthwise;model/conv2d_3/Conv2D1:0:0 */
  } /* ty=fn (Tensor[(1, 24, 24, 32), int8], Tensor[(32, 1, 1, 32), int8], Tensor[(32), int32], Tensor[(32), float32], Tensor[(32), int32], Tensor[(32), float32], Tensor[(32), int32]) -> Tensor[(1, 24, 24, 32), int8] */;
  %135(%cmsis-nn_6_i0, %tvm_var_extract_const_114, %tvm_var_extract_const_115, %tvm_var_extract_const_116, %tvm_var_extract_const_117, %tvm_var_extract_const_118, %tvm_var_extract_const_119) /* ty=Tensor[(1, 24, 24, 32), int8] */
}

def @tvmgen_default_cmsis_nn_main_7(%cmsis-nn_7_i0: Tensor[(1, 24, 24, 32), int8] /* ty=Tensor[(1, 24, 24, 32), int8] */, %tvm_var_extract_const_132: Tensor[(3, 3, 32, 1), int8] /* ty=Tensor[(3, 3, 32, 1), int8] */, %tvm_var_extract_const_133: Tensor[(32), int32] /* ty=Tensor[(32), int32] */, %tvm_var_extract_const_134: Tensor[(32), float32] /* ty=Tensor[(32), float32] */, %tvm_var_extract_const_135: Tensor[(32), int32] /* ty=Tensor[(32), int32] */, %tvm_var_extract_const_136: Tensor[(32), float32] /* ty=Tensor[(32), float32] */, %tvm_var_extract_const_137: Tensor[(32), int32] /* ty=Tensor[(32), int32] */, Compiler="cmsis-nn", Primitive=1, Inline=1, global_symbol="tvmgen_default_cmsis_nn_main_7") -> Tensor[(1, 12, 12, 32), int8] {
  %139 = fn (%FunctionVar_19_0: Tensor[(1, 24, 24, 32), int8] /* ty=Tensor[(1, 24, 24, 32), int8] */, %tvm_var_extract_const_126: Tensor[(3, 3, 32, 1), int8] /* ty=Tensor[(3, 3, 32, 1), int8] */, %tvm_var_extract_const_127: Tensor[(32), int32] /* ty=Tensor[(32), int32] */, %tvm_var_extract_const_128: Tensor[(32), float32] /* ty=Tensor[(32), float32] */, %tvm_var_extract_const_129: Tensor[(32), int32] /* ty=Tensor[(32), int32] */, %tvm_var_extract_const_130: Tensor[(32), float32] /* ty=Tensor[(32), float32] */, %tvm_var_extract_const_131: Tensor[(32), int32] /* ty=Tensor[(32), int32] */, PartitionedFromPattern="qnn.conv2d_nn.bias_add_qnn.requantize_clip_", Composite="cmsis-nn.qnn_conv2d") -> Tensor[(1, 12, 12, 32), int8] {
    %136 = qnn.conv2d(%FunctionVar_19_0, %tvm_var_extract_const_126, -128 /* ty=int32 span=model/activation_7/Relu;model/batch_normalization_7/FusedBatchNormV3;model/depthwise_conv2d_3/depthwise;model/depthwise_conv2d_3/BiasAdd;model/depthwise_conv2d_3/BiasAdd/ReadVariableOp/resource1:0:0 */, %tvm_var_extract_const_127, 0.0409983f /* ty=float32 span=model/activation_7/Relu;model/batch_normalization_7/FusedBatchNormV3;model/depthwise_conv2d_3/depthwise;model/depthwise_conv2d_3/BiasAdd;model/depthwise_conv2d_3/BiasAdd/ReadVariableOp/resource1:0:0 */, %tvm_var_extract_const_128, strides=[2, 2], padding=[0, 0, 1, 1], groups=32, channels=32, kernel_size=[3, 3], data_layout="NHWC", kernel_layout="HWOI", out_dtype="int32") /* ty=Tensor[(1, 12, 12, 32), int32] span=model/activation_7/Relu;model/batch_normalization_7/FusedBatchNormV3;model/depthwise_conv2d_3/depthwise;model/depthwise_conv2d_3/BiasAdd;model/depthwise_conv2d_3/BiasAdd/ReadVariableOp/resource1:0:0 */;
    %137 = nn.bias_add(%136, %tvm_var_extract_const_129, axis=3) /* ty=Tensor[(1, 12, 12, 32), int32] span=model/activation_7/Relu;model/batch_normalization_7/FusedBatchNormV3;model/depthwise_conv2d_3/depthwise;model/depthwise_conv2d_3/BiasAdd;model/depthwise_conv2d_3/BiasAdd/ReadVariableOp/resource1:0:0 */;
    %138 = qnn.requantize(%137, %tvm_var_extract_const_130, %tvm_var_extract_const_131, 0.028606f /* ty=float32 span=model/activation_7/Relu;model/batch_normalization_7/FusedBatchNormV3;model/depthwise_conv2d_3/depthwise;model/depthwise_conv2d_3/BiasAdd;model/depthwise_conv2d_3/BiasAdd/ReadVariableOp/resource1:0:0 */, -128 /* ty=int32 span=model/activation_7/Relu;model/batch_normalization_7/FusedBatchNormV3;model/depthwise_conv2d_3/depthwise;model/depthwise_conv2d_3/BiasAdd;model/depthwise_conv2d_3/BiasAdd/ReadVariableOp/resource1:0:0 */, axis=3, out_dtype="int8") /* ty=Tensor[(1, 12, 12, 32), int8] span=model/activation_7/Relu;model/batch_normalization_7/FusedBatchNormV3;model/depthwise_conv2d_3/depthwise;model/depthwise_conv2d_3/BiasAdd;model/depthwise_conv2d_3/BiasAdd/ReadVariableOp/resource1:0:0 */;
    clip(%138, a_min=-128f, a_max=127f) /* ty=Tensor[(1, 12, 12, 32), int8] span=model/activation_7/Relu;model/batch_normalization_7/FusedBatchNormV3;model/depthwise_conv2d_3/depthwise;model/depthwise_conv2d_3/BiasAdd;model/depthwise_conv2d_3/BiasAdd/ReadVariableOp/resource1:0:0 */
  } /* ty=fn (Tensor[(1, 24, 24, 32), int8], Tensor[(3, 3, 32, 1), int8], Tensor[(32), int32], Tensor[(32), float32], Tensor[(32), int32], Tensor[(32), float32], Tensor[(32), int32]) -> Tensor[(1, 12, 12, 32), int8] */;
  %139(%cmsis-nn_7_i0, %tvm_var_extract_const_132, %tvm_var_extract_const_133, %tvm_var_extract_const_134, %tvm_var_extract_const_135, %tvm_var_extract_const_136, %tvm_var_extract_const_137) /* ty=Tensor[(1, 12, 12, 32), int8] */
}

def @tvmgen_default_cmsis_nn_main_8(%cmsis-nn_8_i0: Tensor[(1, 12, 12, 32), int8] /* ty=Tensor[(1, 12, 12, 32), int8] */, %tvm_var_extract_const_150: Tensor[(64, 1, 1, 32), int8] /* ty=Tensor[(64, 1, 1, 32), int8] */, %tvm_var_extract_const_151: Tensor[(64), int32] /* ty=Tensor[(64), int32] */, %tvm_var_extract_const_152: Tensor[(64), float32] /* ty=Tensor[(64), float32] */, %tvm_var_extract_const_153: Tensor[(64), int32] /* ty=Tensor[(64), int32] */, %tvm_var_extract_const_154: Tensor[(64), float32] /* ty=Tensor[(64), float32] */, %tvm_var_extract_const_155: Tensor[(64), int32] /* ty=Tensor[(64), int32] */, Compiler="cmsis-nn", Primitive=1, Inline=1, global_symbol="tvmgen_default_cmsis_nn_main_8") -> Tensor[(1, 12, 12, 64), int8] {
  %143 = fn (%FunctionVar_18_0: Tensor[(1, 12, 12, 32), int8] /* ty=Tensor[(1, 12, 12, 32), int8] */, %tvm_var_extract_const_144: Tensor[(64, 1, 1, 32), int8] /* ty=Tensor[(64, 1, 1, 32), int8] */, %tvm_var_extract_const_145: Tensor[(64), int32] /* ty=Tensor[(64), int32] */, %tvm_var_extract_const_146: Tensor[(64), float32] /* ty=Tensor[(64), float32] */, %tvm_var_extract_const_147: Tensor[(64), int32] /* ty=Tensor[(64), int32] */, %tvm_var_extract_const_148: Tensor[(64), float32] /* ty=Tensor[(64), float32] */, %tvm_var_extract_const_149: Tensor[(64), int32] /* ty=Tensor[(64), int32] */, PartitionedFromPattern="qnn.conv2d_nn.bias_add_qnn.requantize_clip_", Composite="cmsis-nn.qnn_conv2d") -> Tensor[(1, 12, 12, 64), int8] {
    %140 = qnn.conv2d(%FunctionVar_18_0, %tvm_var_extract_const_144, -128 /* ty=int32 span=model/activation_8/Relu;model/batch_normalization_8/FusedBatchNormV3;model/conv2d_4/BiasAdd/ReadVariableOp/resource;model/conv2d_4/BiasAdd;model/depthwise_conv2d_5/depthwise;model/conv2d_4/Conv2D1:0:0 */, %tvm_var_extract_const_145, 0.028606f /* ty=float32 span=model/activation_8/Relu;model/batch_normalization_8/FusedBatchNormV3;model/conv2d_4/BiasAdd/ReadVariableOp/resource;model/conv2d_4/BiasAdd;model/depthwise_conv2d_5/depthwise;model/conv2d_4/Conv2D1:0:0 */, %tvm_var_extract_const_146, padding=[0, 0, 0, 0], channels=64, kernel_size=[1, 1], data_layout="NHWC", kernel_layout="OHWI", out_dtype="int32") /* ty=Tensor[(1, 12, 12, 64), int32] span=model/activation_8/Relu;model/batch_normalization_8/FusedBatchNormV3;model/conv2d_4/BiasAdd/ReadVariableOp/resource;model/conv2d_4/BiasAdd;model/depthwise_conv2d_5/depthwise;model/conv2d_4/Conv2D1:0:0 */;
    %141 = nn.bias_add(%140, %tvm_var_extract_const_147, axis=3) /* ty=Tensor[(1, 12, 12, 64), int32] span=model/activation_8/Relu;model/batch_normalization_8/FusedBatchNormV3;model/conv2d_4/BiasAdd/ReadVariableOp/resource;model/conv2d_4/BiasAdd;model/depthwise_conv2d_5/depthwise;model/conv2d_4/Conv2D1:0:0 */;
    %142 = qnn.requantize(%141, %tvm_var_extract_const_148, %tvm_var_extract_const_149, 0.0312282f /* ty=float32 span=model/activation_8/Relu;model/batch_normalization_8/FusedBatchNormV3;model/conv2d_4/BiasAdd/ReadVariableOp/resource;model/conv2d_4/BiasAdd;model/depthwise_conv2d_5/depthwise;model/conv2d_4/Conv2D1:0:0 */, -128 /* ty=int32 span=model/activation_8/Relu;model/batch_normalization_8/FusedBatchNormV3;model/conv2d_4/BiasAdd/ReadVariableOp/resource;model/conv2d_4/BiasAdd;model/depthwise_conv2d_5/depthwise;model/conv2d_4/Conv2D1:0:0 */, axis=3, out_dtype="int8") /* ty=Tensor[(1, 12, 12, 64), int8] span=model/activation_8/Relu;model/batch_normalization_8/FusedBatchNormV3;model/conv2d_4/BiasAdd/ReadVariableOp/resource;model/conv2d_4/BiasAdd;model/depthwise_conv2d_5/depthwise;model/conv2d_4/Conv2D1:0:0 */;
    clip(%142, a_min=-128f, a_max=127f) /* ty=Tensor[(1, 12, 12, 64), int8] span=model/activation_8/Relu;model/batch_normalization_8/FusedBatchNormV3;model/conv2d_4/BiasAdd/ReadVariableOp/resource;model/conv2d_4/BiasAdd;model/depthwise_conv2d_5/depthwise;model/conv2d_4/Conv2D1:0:0 */
  } /* ty=fn (Tensor[(1, 12, 12, 32), int8], Tensor[(64, 1, 1, 32), int8], Tensor[(64), int32], Tensor[(64), float32], Tensor[(64), int32], Tensor[(64), float32], Tensor[(64), int32]) -> Tensor[(1, 12, 12, 64), int8] */;
  %143(%cmsis-nn_8_i0, %tvm_var_extract_const_150, %tvm_var_extract_const_151, %tvm_var_extract_const_152, %tvm_var_extract_const_153, %tvm_var_extract_const_154, %tvm_var_extract_const_155) /* ty=Tensor[(1, 12, 12, 64), int8] */
}

def @tvmgen_default_cmsis_nn_main_9(%cmsis-nn_9_i0: Tensor[(1, 12, 12, 64), int8] /* ty=Tensor[(1, 12, 12, 64), int8] */, %tvm_var_extract_const_168: Tensor[(3, 3, 64, 1), int8] /* ty=Tensor[(3, 3, 64, 1), int8] */, %tvm_var_extract_const_169: Tensor[(64), int32] /* ty=Tensor[(64), int32] */, %tvm_var_extract_const_170: Tensor[(64), float32] /* ty=Tensor[(64), float32] */, %tvm_var_extract_const_171: Tensor[(64), int32] /* ty=Tensor[(64), int32] */, %tvm_var_extract_const_172: Tensor[(64), float32] /* ty=Tensor[(64), float32] */, %tvm_var_extract_const_173: Tensor[(64), int32] /* ty=Tensor[(64), int32] */, Compiler="cmsis-nn", Primitive=1, Inline=1, global_symbol="tvmgen_default_cmsis_nn_main_9") -> Tensor[(1, 12, 12, 64), int8] {
  %147 = fn (%FunctionVar_17_0: Tensor[(1, 12, 12, 64), int8] /* ty=Tensor[(1, 12, 12, 64), int8] */, %tvm_var_extract_const_162: Tensor[(3, 3, 64, 1), int8] /* ty=Tensor[(3, 3, 64, 1), int8] */, %tvm_var_extract_const_163: Tensor[(64), int32] /* ty=Tensor[(64), int32] */, %tvm_var_extract_const_164: Tensor[(64), float32] /* ty=Tensor[(64), float32] */, %tvm_var_extract_const_165: Tensor[(64), int32] /* ty=Tensor[(64), int32] */, %tvm_var_extract_const_166: Tensor[(64), float32] /* ty=Tensor[(64), float32] */, %tvm_var_extract_const_167: Tensor[(64), int32] /* ty=Tensor[(64), int32] */, PartitionedFromPattern="qnn.conv2d_nn.bias_add_qnn.requantize_clip_", Composite="cmsis-nn.qnn_conv2d") -> Tensor[(1, 12, 12, 64), int8] {
    %144 = qnn.conv2d(%FunctionVar_17_0, %tvm_var_extract_const_162, -128 /* ty=int32 span=model/activation_9/Relu;model/batch_normalization_9/FusedBatchNormV3;model/depthwise_conv2d_4/depthwise;model/depthwise_conv2d_4/BiasAdd;model/depthwise_conv2d_5/depthwise;model/depthwise_conv2d_4/BiasAdd/ReadVariableOp/resource1:0:0 */, %tvm_var_extract_const_163, 0.0312282f /* ty=float32 span=model/activation_9/Relu;model/batch_normalization_9/FusedBatchNormV3;model/depthwise_conv2d_4/depthwise;model/depthwise_conv2d_4/BiasAdd;model/depthwise_conv2d_5/depthwise;model/depthwise_conv2d_4/BiasAdd/ReadVariableOp/resource1:0:0 */, %tvm_var_extract_const_164, padding=[1, 1, 1, 1], groups=64, channels=64, kernel_size=[3, 3], data_layout="NHWC", kernel_layout="HWOI", out_dtype="int32") /* ty=Tensor[(1, 12, 12, 64), int32] span=model/activation_9/Relu;model/batch_normalization_9/FusedBatchNormV3;model/depthwise_conv2d_4/depthwise;model/depthwise_conv2d_4/BiasAdd;model/depthwise_conv2d_5/depthwise;model/depthwise_conv2d_4/BiasAdd/ReadVariableOp/resource1:0:0 */;
    %145 = nn.bias_add(%144, %tvm_var_extract_const_165, axis=3) /* ty=Tensor[(1, 12, 12, 64), int32] span=model/activation_9/Relu;model/batch_normalization_9/FusedBatchNormV3;model/depthwise_conv2d_4/depthwise;model/depthwise_conv2d_4/BiasAdd;model/depthwise_conv2d_5/depthwise;model/depthwise_conv2d_4/BiasAdd/ReadVariableOp/resource1:0:0 */;
    %146 = qnn.requantize(%145, %tvm_var_extract_const_166, %tvm_var_extract_const_167, 0.0315622f /* ty=float32 span=model/activation_9/Relu;model/batch_normalization_9/FusedBatchNormV3;model/depthwise_conv2d_4/depthwise;model/depthwise_conv2d_4/BiasAdd;model/depthwise_conv2d_5/depthwise;model/depthwise_conv2d_4/BiasAdd/ReadVariableOp/resource1:0:0 */, -128 /* ty=int32 span=model/activation_9/Relu;model/batch_normalization_9/FusedBatchNormV3;model/depthwise_conv2d_4/depthwise;model/depthwise_conv2d_4/BiasAdd;model/depthwise_conv2d_5/depthwise;model/depthwise_conv2d_4/BiasAdd/ReadVariableOp/resource1:0:0 */, axis=3, out_dtype="int8") /* ty=Tensor[(1, 12, 12, 64), int8] span=model/activation_9/Relu;model/batch_normalization_9/FusedBatchNormV3;model/depthwise_conv2d_4/depthwise;model/depthwise_conv2d_4/BiasAdd;model/depthwise_conv2d_5/depthwise;model/depthwise_conv2d_4/BiasAdd/ReadVariableOp/resource1:0:0 */;
    clip(%146, a_min=-128f, a_max=127f) /* ty=Tensor[(1, 12, 12, 64), int8] span=model/activation_9/Relu;model/batch_normalization_9/FusedBatchNormV3;model/depthwise_conv2d_4/depthwise;model/depthwise_conv2d_4/BiasAdd;model/depthwise_conv2d_5/depthwise;model/depthwise_conv2d_4/BiasAdd/ReadVariableOp/resource1:0:0 */
  } /* ty=fn (Tensor[(1, 12, 12, 64), int8], Tensor[(3, 3, 64, 1), int8], Tensor[(64), int32], Tensor[(64), float32], Tensor[(64), int32], Tensor[(64), float32], Tensor[(64), int32]) -> Tensor[(1, 12, 12, 64), int8] */;
  %147(%cmsis-nn_9_i0, %tvm_var_extract_const_168, %tvm_var_extract_const_169, %tvm_var_extract_const_170, %tvm_var_extract_const_171, %tvm_var_extract_const_172, %tvm_var_extract_const_173) /* ty=Tensor[(1, 12, 12, 64), int8] */
}

